checkpoint_Actor.pth (torch_old, 541425 bytes, 6 tensors)

fc1.weight f4 [400, 33]
000000 43 09 39 3e 27 75 07 3e 4e f3 b0 be ad 36 f0 be
       0.1806994 0.13228284 -0.34560627 -0.46916714
000010 c6 4b f3 be 9c d1 08 3e 0e 98 02 3e c0 b6 03 3e
       -0.47518748 0.1336121 0.12753317 0.12862682
000020 a1 5a 3d bd 2b 0f 8b 3d a8 6c 05 3c 24 5a 03 be
       -0.04622901 0.067900024 0.008143581 -0.12827355
000030 bf ee 8d bd 4b 55 a5 3e d9 13 8f bc cc e1 5e be
       -0.06930303 0.32291636 -0.017465519 -0.21765822
000040 0a 10 b7 3e 95 bc 35 bf 39 0e 98 be 1c 74 9f 3e
       0.35754424 -0.7099088 -0.2969835 0.31143272
000050 7e 49 d5 3b 43 56 69 bc 4a 30 0e be 4d cf 19 3e
       0.006509005 -0.014241758 -0.13885608 0.15020485
000060 29 3f 0f be bd a5 0e be 3f 40 73 bf 18 47 3d 3c
       -0.13988937 -0.13930412 -0.95019907 0.011552595
000070 b4 24 2b be c9 65 4b 3d e2 65 79 bc b7 4f ea bc
       -0.1671322 0.049657617 -0.015222045 -0.028602464
000080 96 37 c6 3e 4e 63 d7 3d 01 f8 48 be d5 c6 8d 3e
       0.38714284 0.10516988 -0.19625856 0.2769076
000090 be 91 24 bf 74 5f 01 bf 87 e7 cc be d0 15 18 3f
       -0.64284885 -0.50536275 -0.4002039 0.59408283
0000a0 db b5 b0 3e 52 29 1f 3e d8 bc ae be bc 19 41 3e
       0.34513745 0.15543106 -0.3412845 0.18857473
0000b0 26 ff 88 be e0 a6 8c 3d f1 a2 b7 bd 19 e8 b2 bd
       -0.26757163 0.068677664 -0.089666255 -0.08735675
0000c0 56 d4 16 3e a7 e6 7a 3e cc d6 2c 3d 1c 6f f6 be
       0.14729437 0.2450205 0.042197034 -0.48131645
0000d0 5e ab a8 3e 15 52 90 3e db ad 6f be 9d 2a 7a 3e
       0.32943243 0.28187624 -0.23406164 0.24430318
0000e0 d6 75 54 bd b7 83 1c bf 75 db e5 bd 01 0e b1 bc
       -0.05187019 -0.6113848 -0.11223499 -0.021613123
0000f0 3a 1f 59 3e dc 10 86 3e c3 af 28 bd 2b 1f 2f be
       0.21203318 0.26184738 -0.041183244 -0.17101733
000100 ec 03 3b bc ba 87 f7 3d 58 46 d1 3e 8e 99 d0 be
       -0.011414509 0.12086435 0.4087398 -0.40742153
000110 e2 ff bd 3e f5 5c 21 bf 0c ec 16 bf ca 24 5d be
       0.37109286 -0.63032466 -0.5895393 -0.21596065
000120 46 17 26 3f 88 d8 92 3d 72 7f 47 3e 86 28 6b 3d
       0.6487926 0.07170206 0.1948221 0.057411693
000130 da b6 75 3e 4d 18 06 be c6 5a 4a 3e 31 f0 61 3e
       0.23995534 -0.13095208 0.1976119 0.22064282
000140 8d cd 5c bd 04 b2 5b 3e 94 11 40 bf 8d e5 65 3e
       -0.053906966 0.21454626 -0.7502682 0.22450848
000150 6c a9 f2 be 61 68 4f 3e d9 47 b9 3e 53 a7 35 be
       -0.47394884 0.20254661 0.36187628 -0.1773961
000160 ed 20 66 3e e1 13 d1 3c 8f 48 0a bc 94 87 c5 bd
       0.22473498 0.025522174 -0.008440151 -0.09645
000170 5c 49 7b bd 3a b5 ac bd 9e 37 5e be ec d4 0b bd
       -0.061349258 -0.08433004 -0.21700904 -0.034138605
000180 5e 1b bb 3c 2b b2 3c 3d b9 bf 42 3f 0d db 5a bd
       0.022840198 0.04606835 0.76073796 -0.05343156
000190 51 97 03 be 8b 70 37 be ab 7d 90 3e a9 77 9b 3e
       -0.12850691 -0.17914025 0.28220877 0.3036473
0001a0 11 5a bd be e6 26 08 bf 0b bb 0f be cb 4e a1 3d
       -0.36982778 -0.53184354 -0.14036195 0.07876357
0001b0 63 21 38 be 0b e4 7c 3c 36 84 67 3d a7 dc 0a 3d
       -0.17981486 0.015435229 0.05652257 0.033901837
0001c0 9d e3 40 be 13 c8 2b be 7b 88 66 be 1d 45 09 3f
       -0.18836828 -0.16775541 -0.22513 0.53621083
0001d0 f7 5d ec be 76 4f 0e 3e a6 14 8c 3d 92 c4 29 3f
       -0.4616544 0.138975 0.06839876 0.6631557
0001e0 4b 5d ef bd b2 11 4f 3e 09 7e 20 be 93 9f 8d be
       -0.11687716 0.20221594 -0.15673079 -0.27660808
0001f0 8b 64 f6 be 72 3b f8 be 21 19 b5 3d bd 21 d5 3d
       -0.48123583 -0.48482853 0.088426836 0.10406826
000200 00 58 54 b8 5e 52 02 be 80 03 08 ba d6 c0 da 3e
       -5.0626695e-05 -0.12726733 -0.000518851 0.42725247
000210 1b b9 9b be b3 32 03 3f ce 16 7d 3d 8f e2 2c be
       -0.30414662 0.51249236 0.061789326 -0.168833
000220 dd 4a 7b 3f 74 f0 5b 3e 66 bd e4 bd 68 f5 90 bd
       0.9816111 0.21478444 -0.111689374 -0.070780575
000230 ff 23 d2 3e 42 df e7 3e 47 9f 54 be c9 32 d0 3d
       0.41043088 0.4528752 -0.20763884 0.101659365
000240 ce c1 2e bc c5 b4 94 be 5f 33 03 3f 67 4b e5 bc
       -0.010666324 -0.29044166 0.5125026 -0.027990056
000250 63 d3 08 be 62 ec c2 be 7c 3f 1f 3f 7a 68 94 be
       -0.13361888 -0.3807097 0.62206244 -0.2898596
000260 fa b2 b1 bd ad 7e 8f be 78 6c 1c be df 20 0f be
       -0.08676715 -0.28026333 -0.15275753 -0.13977383
000270 1e 0d 82 bc 4a 1e 51 3d 3f 4d ef be eb 74 14 bd
       -0.015875395 0.051054277 -0.46738622 -0.036244314
000280 01 16 74 3e e0 80 1b bd d1 03 31 3c 68 c4 19 bc
       0.23836519 -0.0379647 0.010804133 -0.009385206
000290 91 d3 1a be 91 39 9e be 2b b0 dd 3e dc 04 07 bd
       -0.15119769 -0.30903295 0.43298468 -0.03296362
0002a0 e3 d8 01 3d 96 79 2f bf bf da 05 3f 5d ca 3c bf
       0.03170098 -0.685449 0.52286905 -0.7374628
0002b0 de af 9c be 63 04 0f bd 97 d5 53 3e 92 bf e9 3d
       -0.30602926 -0.034916293 0.20686947 0.11413492
0002c0 b7 07 b0 bd b8 94 02 be df dc b3 be 33 35 b7 3e
       -0.085952215 -0.12752044 -0.3512945 0.35782775
0002d0 8e e0 57 3d 76 b3 1c bf 66 69 06 bf 76 49 f9 3e
       0.052704386 -0.61211336 -0.52504575 0.4868886
0002e0 19 30 09 bf b5 61 b5 3d b9 04 73 bd e2 41 74 be
       -0.53589016 0.08856527 -0.059330676 -0.23853257
0002f0 87 6a c4 bd 72 99 51 be 5b 43 f2 3d 81 f2 0c 3e
       -0.09590631 -0.20468691 0.11829253 0.13764383
000300 1b 85 07 3e bc 2e 3e bd 89 27 40 3d 71 5f b1 bd
       0.1323437 -0.046431288 0.046912704 -0.08660782
000310 c0 3e 71 3a f0 4e 4d bf fe 6d cb be 21 51 9a 3e
       0.0009202771 -0.80198574 -0.39732355 0.3014002
000320 75 51 ca be 8a 51 8e 3e d3 4c a5 bd b3 f2 49 3d
       -0.39515272 0.27796584 -0.08071294 0.04930372
000330 4e 0c 3d be 1f 2c b3 be 12 76 50 3e e2 10 4c bd
       -0.18461725 -0.349946 0.2035754 -0.04982079
000340 aa 0c 36 3d 0d 3c ee bd 3a 58 c3 3c 7e a3 41 be
       0.04444567 -0.116325475 0.02384578 -0.18910024
000350 c2 2c ac 3e 38 65 d2 be 39 88 ca 3e 6f fe 04 bf
       0.33627898 -0.4109285 0.39557055 -0.51950735
000360 ae 27 b4 3e db ae 37 be 0d d0 22 3e 62 ea d9 bd
       0.35186523 -0.17937796 0.15899678 -0.10640408
000370 a7 46 40 3d 13 f1 8a be 5c c8 d8 be b3 34 7e bd
       0.04694238 -0.2713705 -0.42340362 -0.062061977
000380 e6 3f d3 bd 14 a1 f4 bd 47 23 0f be 7f 70 2f bd
       -0.10314922 -0.11944786 -0.13978301 -0.042831894
000390 50 db c9 3d ac e8 2c 3c 2f b1 03 3d ef f1 2e be
       0.09856284 0.01055352 0.032151397 -0.17084478
0003a0 29 54 0a 3f 91 ae 5b be 5c b2 80 3e 84 63 e1 be
       0.5403467 -0.2145331 0.25136077 -0.44021237
0003b0 4c 03 13 be de ba 0d bf 71 31 3e bd 7b b5 99 bd
       -0.14356726 -0.5536326 -0.04643387 -0.07505318
0003c0 51 78 35 bd 82 48 12 3c 9b 43 ff bd 8d e4 3f be
       -0.044304196 0.00892842 -0.124640666 -0.18739529
0003d0 39 33 a5 bb c4 14 b6 3e f9 43 b0 bd c1 b7 2a bf
       -0.0050415066 0.35562718 -0.08606715 -0.66686636
0003e0 53 30 a7 bd 06 41 4c 3f e7 71 5a be 6e e2 15 3e
       -0.08163514 0.7978672 -0.21332513 0.14637157
0003f0 0b d3 6f be 2a eb 94 bc 72 43 3f 3e 46 72 b5 3e
       -0.2342035 -0.018178541 0.18678072 0.35438746

fc1.bias f4 [400]
000000 6f 65 e2 bd 4b 76 86 be 1b c2 60 3e 82 87 ad bd
       -0.11054503 -0.26262125 0.21949045 -0.08473112
000010 79 9c c9 bd e5 14 88 be da c5 cc bb 2e 01 77 be
       -0.09844298 -0.2657844 -0.0062491717 -0.24121544
000020 99 94 fc bd fa d3 98 bd 50 ae 43 3d 21 3f a4 bd
       -0.1233303 -0.07462306 0.04777366 -0.080198534
000030 72 b9 29 bd 7d ab dd bd 21 59 f1 bd d3 36 95 be
       -0.04143662 -0.108237244 -0.11784578 -0.2914339
000040 46 19 c5 bd fd d3 01 be 30 0b b3 be 6b 0a 07 be
       -0.09623961 -0.12678523 -0.34969473 -0.13187568
000050 fc 35 b0 be c7 7c 2b be 04 ca 57 be bc f0 33 bd
       -0.34416187 -0.16746818 -0.21073157 -0.043930754
000060 a4 60 85 3d 7f 28 f9 bc 16 70 97 bd 9b fa be 3d
       0.06512573 -0.030414818 -0.073944256 0.09325143
000070 d4 f4 82 3d 10 cd 21 bc c9 c6 3b be bb 41 a8 3d
       0.063943535 -0.009875551 -0.1833755 0.08215662
000080 6d 07 20 3e bb a7 85 be 63 2d a8 bd f6 46 41 be
       0.15627833 -0.2610453 -0.08211782 -0.18874726
000090 5e 25 b0 bd 03 0a 2a bc 41 85 d3 3d 07 83 cf 3d
       -0.08600877 -0.010378364 0.103281505 0.10132413
0000a0 6e 41 2d 3e 4e a9 07 be 8b bd 81 3d 4c d9 84 3e
       0.1691949 -0.13248178 0.063349806 0.25947034
0000b0 a2 31 89 3c f9 d4 2f 3e f0 e3 b0 3a b5 a8 cf 3d
       0.0167473 0.17171086 0.0013495665 0.101396
0000c0 09 96 c2 bd 68 d3 97 be 03 d1 cb 3d 94 54 99 3e
       -0.09501273 -0.29653478 0.09951975 0.2994734
0000d0 63 9b 9d 3e 71 6a 7f bd 44 89 80 be 59 cd 80 bd
       0.30782613 -0.06235737 -0.25104725 -0.06289167
0000e0 34 d6 34 be 9e b3 a8 be 33 15 48 be dd b4 a1 bd
       -0.17659837 -0.32949537 -0.19539337 -0.07895825
0000f0 82 78 ce bd aa dc 89 3d c7 ab 06 3a ca ea 28 3d
       -0.10081579 0.067315415 0.0005137291 0.041239537
000100 3f dd 5b be 62 99 ad be b7 bf a2 bd 68 cd ba bc
       -0.21471117 -0.33906084 -0.07946723 -0.022803023
000110 21 f9 c4 bc 4d d9 a5 3d 52 14 66 be 9d a2 0b be
       -0.024044575 0.080980875 -0.22468689 -0.13636251
000120 68 b8 3e be 15 2b c3 bd bc 56 d3 3d 57 6d 2d 3d
       -0.18625033 -0.095297016 0.10319278 0.042340603
000130 41 fe 6d be 1b b7 94 3d a5 45 12 3e fe 10 ae be
       -0.23241521 0.07261487 0.1428438 -0.3399734
000140 43 d8 19 be 55 c8 61 bd 53 4f 90 be 92 23 ac be
       -0.15023904 -0.055122692 -0.2818552 -0.33620888
000150 3d 9b 1e be 2e d1 58 bd 04 38 61 be e7 91 33 bd
       -0.15488906 -0.052933864 -0.21994025 -0.043840315
000160 c5 e2 2d 3d db ca 48 be 95 56 b9 be bf b5 8b 3b
       0.042452592 -0.19608633 -0.3619887 0.004263609
000170 93 0e 9b bd 18 99 48 be 39 61 69 be 05 5b 83 be
       -0.07571139 -0.1958965 -0.22790994 -0.2565538
000180 59 01 91 bd df 2c a1 bd 80 99 92 be 91 0f c6 3d
       -0.07080335 -0.078698866 -0.28632736 0.09670938
000190 64 5e ed bd a6 68 9b 3c 62 13 b7 be 18 8f 69 3e
       -0.11590269 0.018970799 -0.35756975 0.22808492
0001a0 f4 30 29 be 92 b1 8d 3d c8 be 2c 3e f0 e3 86 bc
       -0.1652258 0.069186345 0.16869652 -0.016466111
0001b0 2d 80 1a be a5 0d db bd 7b 6f a8 3d 6f 07 01 be
       -0.15087958 -0.10695962 0.08224388 -0.12600492
0001c0 f1 bb 94 bd d0 8a 9d be a7 ab 96 bd c3 f1 17 3d
       -0.072624095 -0.30769968 -0.07356959 0.037095796
0001d0 a8 cc b3 3c 51 80 d6 bc 23 bf 7d be 02 82 95 be
       0.021948174 -0.026184233 -0.24779944 -0.2920075
0001e0 9f a7 67 be 6d ce 2e be e9 8d 73 be 11 00 66 bc
       -0.22622536 -0.17070933 -0.23784603 -0.014038102
0001f0 9c 44 e0 be c0 9a 71 bc 8e 3a 65 bd 0a 48 df 3b
       -0.43802345 -0.014746368 -0.055964045 0.0068140076
000200 de b0 d5 bc e2 e1 01 be d5 ad ac be bf cd 70 3d
       -0.026085313 -0.12683824 -0.33726373 0.058789965
000210 02 4e 03 3d 86 fd 04 3e dd 2b 49 bd 18 98 9b bd
       0.032056816 0.12987337 -0.049114097 -0.07597369
000220 d9 09 dc bd 1c 76 bd be e1 5f 8d bd 5d e2 06 be
       -0.10744066 -0.37004173 -0.06903053 -0.13172288
000230 62 f7 6a bd fc 8a 92 bd 93 a8 b9 bd 90 fb 4b 3e
       -0.05736483 -0.071554154 -0.09065356 0.19920182
000240 00 f1 b2 be 84 6c 0e bd 37 ed 74 be 80 32 4d be
       -0.34949493 -0.034771457 -0.23918615 -0.20038795
000250 17 d8 82 be 72 45 50 be 58 30 b8 be f7 e9 1b bd
       -0.25555488 -0.20338991 -0.35974383 -0.038064923
000260 7c 4d 03 bd 98 aa 0b be 03 97 6b bd 86 e8 6e be
       -0.032056317 -0.13639295 -0.057517063 -0.23330888
000270 66 fe 79 3e e5 a0 b4 be ee fc d0 bd be a5 26 be
       0.24413452 -0.35279003 -0.102044925 -0.16274163
000280 7c 5c 89 be da 17 21 be b4 d8 00 bd e8 8b 36 bc
       -0.26828372 -0.15731755 -0.031456664 -0.011141755
000290 43 16 12 be 99 8c 17 be 16 af 67 3d b3 ab a9 3c
       -0.14266305 -0.14799727 0.05656346 0.020711755
0002a0 04 af 12 bd 19 37 b4 bc 41 79 9e bd d0 5e bc be
       -0.03581144 -0.021998929 -0.07737971 -0.36791086
0002b0 c2 01 6d 3e 54 d5 b7 bd 53 78 31 be 5a 70 07 be
       0.23145202 -0.08976236 -0.17331056 -0.13226452
0002c0 1b 7b 6e be 2d c2 c0 be 0d ab 25 be ca 3d 13 be
       -0.23289149 -0.37648144 -0.16178532 -0.1437904
0002d0 54 8f 27 bc 84 1a fe 3d 4b ab cc be a8 d7 e4 bd
       -0.010227043 0.12407401 -0.39974436 -0.11173946
0002e0 80 d2 28 bd 48 fe cb be 16 97 45 be dc 3c dc bd
       -0.041216373 -0.3984244 -0.19295916 -0.107537955
0002f0 de 16 bd 3d ad 0e 31 3e b6 78 f7 bd 66 72 1c be
       0.09232877 0.17290755 -0.12083571 -0.15278015
000300 44 ae 65 be 06 0a bc 3c 12 d6 56 be 45 55 86 3d
       -0.22429758 0.022953998 -0.20980099 0.065592326
000310 fa 9b 22 be c7 3b 95 be a1 d9 2a be 7e 4f 18 be
       -0.15879813 -0.2914717 -0.16684581 -0.14874074
000320 69 f8 a7 be 12 cb 4d be b5 f7 58 be 86 ff 8b be
       -0.3280671 -0.20096996 -0.21188243 -0.27343386
000330 ec dc 0d 3d 81 f3 20 be 5c c4 a2 3c 58 60 36 bd
       0.034634516 -0.1571789 0.019869022 -0.044525474
000340 aa 79 f0 3d 66 67 a5 bd cc 2d 84 be 9d c5 fa 3d
       0.117419556 -0.08076362 -0.2581619 0.12244723
000350 66 b6 85 bd 3f f7 aa be 3a 88 b3 3d 46 ee 7f be
       -0.0652893 -0.3339176 0.087662175 -0.24993238
000360 38 33 5c be 6c 14 12 be ff 1a 28 be a6 1b b3 bd
       -0.21503913 -0.14265603 -0.16416548 -0.08745508
000370 0a 65 31 3d 3d 80 2e be 68 1d 0a be 2c 74 8f be
       0.04330925 -0.17041107 -0.1348778 -0.2801832
000380 c9 34 5a 3d 89 4f bc 3c 78 8e 52 3c f7 b4 77 bc
       0.053272996 0.022987144 0.01285135 -0.015118829
000390 dd ac 48 bc d8 79 f9 be 66 d4 b5 3d c0 fb 37 be
       -0.012248245 -0.48725772 0.088784024 -0.17967129
0003a0 75 f9 fe 3d 2a c6 b2 be 41 37 22 be 8d ba bc 3d
       0.12449924 -0.34916812 -0.1584139 0.09215269
0003b0 2e 3d 29 be e4 d8 83 be c0 1b a9 be e0 38 9a be
       -0.16527244 -0.25751412 -0.33028984 -0.30121517
0003c0 d4 6b 8c 3d f4 20 3e 3d 43 c2 f2 3d d8 00 ee bd
       0.06856504 0.046418145 0.11853459 -0.11621255
0003d0 39 79 dd be 75 e0 3e bd 12 c9 0f 3e ad ec a8 3c
       -0.43256548 -0.046600778 0.14041546 0.020620668
0003e0 23 e1 44 be d7 46 0d 3d 1d 1a a9 3c cf 22 69 3e
       -0.19226508 0.034491386 0.020642335 0.22767185
0003f0 97 d3 81 bd ed 52 84 be fe c5 08 3e 8e 0f 62 bd
       -0.06339186 -0.25844517 0.13356778 -0.055190615

fc2.weight f4 [300, 400]
000000 9f 9e 23 3e c8 9a 5e be 18 2c 91 be 97 b3 10 be
       0.15978478 -0.21738732 -0.28353953 -0.14131008
000010 ee d9 0b bf e4 09 50 be c7 70 91 bb e8 8e 6d bd
       -0.5462941 -0.20316273 -0.004438493 -0.057997614
000020 cb 2b 2d be c9 a2 08 bf a1 43 ca 3e 16 0f 2d be
       -0.16911237 -0.5337339 0.39504722 -0.16900286
000030 59 ee 56 be 8d 5c 22 bd 9a cd 65 bd 39 52 d3 3d
       -0.2098936 -0.039639045 -0.05610428 0.10318417
000040 cd a5 6d 3e 7d bb b8 3c e0 a0 05 be 61 1b 90 be
       0.23207779 0.022550339 -0.1304965 -0.28145888
000050 1e 06 a5 3d d1 84 a1 3e a7 d5 06 be 07 d9 84 be
       0.080578074 0.31546643 -0.1316744 -0.2594683
000060 06 05 84 3e b6 83 a8 3e fc 0d 42 be fd d8 41 3c
       0.25785083 0.32912987 -0.18950647 0.011831519
000070 77 4b 09 be 79 5d 1f 3e 2c 09 9c be a9 5f 41 3e
       -0.13407694 0.15563 -0.30475748 0.18884148
000080 46 8a e0 3d fc d3 57 be 05 f2 7c bd 0e 21 b3 be
       0.109638736 -0.2107696 -0.061754245 -0.34986156
000090 d7 54 0b bf 74 cc 6d 3e 20 5a 1f bf 19 38 ae be
       -0.5442633 0.23222524 -0.62246895 -0.34027174
0000a0 6a 58 27 bc 15 88 fc 3c cc 11 a1 3e ac 07 c2 be
       -0.010213951 0.030826608 0.3145889 -0.37896478
0000b0 40 93 73 3e 80 6b 83 be 81 42 8e be 3a 6a 8a be
       0.2378664 -0.25667953 -0.27785113 -0.2703417
0000c0 19 96 0a be 0a 49 67 3d 3d c7 e8 bd 0c 94 b2 be
       -0.1353382 0.05646614 -0.11366127 -0.34878576
0000d0 96 35 12 bf d3 59 a6 be f8 8b 6e 3e d1 19 8c 3d
       -0.57113016 -0.32490405 0.23295581 0.068408616
0000e0 01 ef dd 3d cc d4 10 3e 8a 4a a8 3d 90 9c 6f be
       0.10836602 0.14143676 0.08217342 -0.23399568
0000f0 91 35 14 bf cc 6b 80 be 06 21 d9 be 34 5b 73 3e
       -0.57894236 -0.25082242 -0.42408007 0.2376526
000100 1c 1b 7e be a0 86 4c 3e 9a ed 1c 3e 89 94 9a bd
       -0.24815029 0.1997323 0.15325013 -0.07547862
000110 5f 39 b5 3d ca 2a b9 3e 6e e4 24 be cd 32 5e be
       0.08848833 0.36165458 -0.16102764 -0.21699066
000120 c3 22 c4 bd dc 8e 13 be 4f de 6d be 02 3d ea be
       -0.09576943 -0.14409965 -0.23229335 -0.4574967
000130 1f 00 da be df 85 dd be c4 30 0f 3e a3 c7 0f be
       -0.42578217 -0.43266198 0.13983446 -0.14040999
000140 56 67 b3 be fe 24 7a 3d 50 79 0c 3e 79 70 96 3e
       -0.35039777 0.061070435 0.13718152 0.29382685
000150 35 1c 06 3d fc 49 69 be 15 aa 38 be 07 2a 1d 3e
       0.032741744 -0.22782129 -0.18033631 0.15348063
000160 f6 21 38 3e 84 b7 83 be 4e 87 94 bb 43 60 c3 3e
       0.17981705 -0.2572595 -0.004532731 0.3815938
000170 d7 25 c4 be 4e c5 13 be 05 2a 2e 3e dc a0 80 3e
       -0.3831012 -0.14430735 0.17008217 0.25122726
000180 68 84 a5 be e0 94 10 3e 38 25 f5 bd 71 52 ea bd
       -0.3232758 0.14119291 -0.119699895 -0.11441506
000190 31 24 90 3e 98 ed 98 3e 38 5f 7a 3d 39 bd 02 bf
       0.28152612 0.2986877 0.061125964 -0.5106998
0001a0 ae 2c 9d bd 10 88 a9 bc d8 40 ab be 35 88 19 3e
       -0.076745376 -0.020694762 -0.3344791 0.14993365
0001b0 70 00 f7 be 2b 14 a3 3e 0b 2a 3a be a9 7a ea bd
       -0.4824252 0.31851324 -0.181801 -0.11449177
0001c0 19 16 48 be 92 1c 20 bc 24 08 3f bd 45 1a 14 be
       -0.1953968 -0.009772437 -0.046638623 -0.14463146
0001d0 b8 34 75 3e 25 70 5b be d5 f6 ec 3d 77 e6 7a bd
       0.23945892 -0.21429498 0.11570517 -0.061254945
0001e0 54 79 99 bd a7 61 64 be e8 c2 8b bd 06 fc 30 3e
       -0.07493845 -0.22302876 -0.06824285 0.1728364
0001f0 98 ea 3e be 29 9a 45 3e 5a bb 6b 3e 3a 2c 6f be
       -0.18644178 0.19297089 0.23020688 -0.23356715
000200 f4 68 1e 3e 2d bd 9f bd f8 72 05 be 48 61 db 3d
       0.15469724 -0.07799754 -0.13032138 0.10711914
000210 36 1e 30 bd 6f 42 1f 3e 6e 01 04 be a9 5b 9c be
       -0.04299756 0.15552686 -0.1289117 -0.3053868
000220 af 13 f8 3e ca 14 2d 3e fb 17 57 3e ad 9e a9 bd
       0.48452517 0.16902462 0.21005242 -0.08282218
000230 98 00 bc be b4 e6 8a 3d b8 23 bb be 90 b6 11 3e
       -0.36719203 0.067822844 -0.3655069 0.14229798
000240 68 cb 24 3e ee 19 83 be af b3 1c be 2c c1 18 3e
       0.16093218 -0.2560572 -0.15302919 0.14917439
000250 89 32 3e 3d a7 af 6c 3e aa 2c 09 3b 76 1a c3 be
       0.046434913 0.23113881 0.0020931163 -0.38106126
000260 22 8e 14 be 43 63 1d 3f d4 8f 5b bc 4c 6b 44 3e
       -0.14507344 0.61479586 -0.0134009905 0.19181556
000270 c3 60 37 3e 0e 56 9b 3e a8 c7 0b bd 21 23 06 be
       0.17908005 0.30339092 -0.034125954 -0.13099338
000280 cd b7 c6 bd 6d 8f ca 3d 78 52 94 be ba f5 91 3e
       -0.09703026 0.098906375 -0.2896917 0.28507787
000290 23 2e 4c 3d 9c 8a b3 3d a4 a4 18 be 23 54 be be
       0.049848687 0.08766672 -0.14906555 -0.37173566
0002a0 63 a1 b4 bd 1b 41 2b 3d 5b 11 a4 be ce d7 69 3e
       -0.088198446 0.041810136 -0.3204449 0.22836229
0002b0 76 7b ab be 49 bf 05 be 73 21 93 be 52 f0 5c be
       -0.3349263 -0.13061251 -0.28736457 -0.2157605
0002c0 5a d6 ae be 42 a0 6b be 7f 0c 6a bd 3b 3e 5f 3d
       -0.34147912 -0.23010352 -0.057140823 0.054502707
0002d0 f8 86 de be 5a 1a a2 3e a8 5d 23 3e 46 62 de 3e
       -0.43462348 0.3166073 0.15953696 0.43434352
0002e0 9e ea 70 3e 97 2a 89 3d 08 38 b5 3e 95 5c 41 be
       0.23527 0.066975765 0.3539431 -0.18882973
0002f0 c9 ea 03 bf 14 31 22 3e e6 a2 d9 3e b6 5f 1c be
       -0.5153013 0.15839034 0.42507094 -0.15270886
000300 78 cd c2 38 85 f0 01 3e b1 64 91 be 21 ae ae 3e
       9.2889124e-05 0.12689407 -0.28397134 0.34117225
000310 8c b8 2c bc 71 5a 88 be 32 04 9d 3d 3d c1 84 3e
       -0.010542046 -0.266315 0.07666816 0.2592868
000320 08 d8 93 bd 7c 25 ff 3c 18 b6 87 3d 71 fd 0c bd
       -0.07218939 0.031145804 0.066265285 -0.034421388
000330 6d 75 07 be f2 13 80 3e f9 c9 59 be 0c 9f 21 bc
       -0.13228388 0.25015217 -0.21268453 -0.00986458
000340 06 a5 a6 bd f5 c8 89 3d c7 d5 9d bd 12 07 f6 be
       -0.081369445 0.06727783 -0.077067904 -0.4805227
000350 84 8c bf bc 90 9d 83 be 15 79 0b be cb c5 23 be
       -0.023382433 -0.25706148 -0.13620408 -0.15993421
000360 37 e0 96 3e 2c 00 db bc 1f 49 30 3e dd 63 bf be
       0.29467937 -0.02673348 0.17215393 -0.37380877
000370 ef 9d f1 be 0f fa ed 3e e8 1f bf 3e 91 4d 08 3d
       -0.47190806 0.46479842 0.3732903 0.033277098
000380 3e c4 9c 3d 01 46 cd be be 70 60 3e 3c e5 9c 3e
       0.07654618 -0.4009247 0.21918008 0.30643642
000390 b0 81 0b 3e bd b3 82 3c 46 bc 00 3e bf f9 c6 bd
       0.1362369 0.015954847 0.1257182 -0.09715604
0003a0 73 a4 33 be 7f fe fb bd cf 1c 81 be bc 00 fb bc
       -0.17543201 -0.12304401 -0.25217292 -0.030639999
0003b0 df 47 ad be f6 0a 9c be 5c ca 07 bd 3a 7d b4 3e
       -0.33843896 -0.30477113 -0.03315197 0.3525179
0003c0 bc a3 82 3e 47 2d 20 bf 26 8d 42 3e b3 8a 88 bb
       0.25515544 -0.6256909 0.18999156 -0.004166925
0003d0 2a 75 47 3c 5b 35 b0 be c3 4f 32 be 6d b9 81 be
       0.01217393 -0.34415707 -0.17413239 -0.2533678
0003e0 95 a2 3d be fb 1b c0 be 95 f6 aa bd 41 08 9a 3d
       -0.18519051 -0.37521347 -0.08347813 0.075211056
0003f0 64 60 23 3d 1d 33 2b be 4b 98 49 bc 25 a0 4d 3e
       0.039886847 -0.16718717 -0.012304376 0.20080622

fc2.bias f4 [300]
000000 f8 38 25 be 92 84 aa 3c 54 f8 43 3e 47 1f 8b 3d
       -0.16135013 0.020815168 0.19137698 0.06793075
000010 7d a2 06 be b2 6a d9 3d 86 11 17 bd 3a 2d ce 3b
       -0.13147922 0.10616054 -0.036881946 0.0062920125
000020 79 3d 18 be 5a ae 53 be 1e f1 cb bc ee e1 83 be
       -0.148672 -0.20671979 -0.024895247 -0.25758308
000030 fb 3f 3a be cd b5 15 3d 3c 8e 50 be f6 8a 39 3e
       -0.18188469 0.03655033 -0.20366758 0.18119416
000040 45 58 fc bd 86 d6 e8 bd 81 26 10 be da b9 79 bd
       -0.123215236 -0.11369042 -0.14077188 -0.060968257
000050 e3 ec 1d bd 1e 1b 5c bd fb ff 6e bd 84 40 44 3e
       -0.03855599 -0.0537368 -0.05834959 0.19165236
000060 f1 cc 04 be cf 49 8c bd b9 39 6e 3c 1f 92 df bd
       -0.12968804 -0.06850015 0.014540129 -0.10916542
000070 30 94 0b bd 47 24 88 bd a1 cd 03 bd 46 00 54 be
       -0.03407687 -0.06647544 -0.032178525 -0.2070323
000080 9f 0d e0 bd 22 08 8b bc 72 15 40 be 80 c8 f5 bd
       -0.10940098 -0.016971651 -0.1875818 -0.12001133
000090 1e 50 4f be 46 1b 71 be bd 61 ff bc 5c 7b 86 be
       -0.20245406 -0.2354556 -0.031174535 -0.2626599
0000a0 65 b6 b9 bd 8c 36 e8 3d b2 e1 f2 bd ef bf ba bc
       -0.09067992 0.11338529 -0.11859454 -0.0227966
0000b0 45 44 6f 3d 23 c9 de bd a8 ae 16 be 66 33 21 3e
       0.058414716 -0.108782075 -0.14715064 0.15742263
0000c0 ca 7f 1b bd ef b1 58 bd bd 08 e2 3d 46 bc 23 bd
       -0.037963666 -0.052904066 0.11036823 -0.039974473
0000d0 50 00 05 be 68 21 83 be aa e5 c7 3b 7a 3d 47 be
       -0.129884 -0.25611424 0.006100376 -0.19457045
0000e0 8b 8c 88 bd 1d a8 36 3e 26 7e 5c be 6e 84 63 be
       -0.066674314 0.17837568 -0.21532497 -0.22218487
0000f0 23 2c ad 3b a6 ac 85 3e 65 f1 8d bd ea c9 f9 bd
       0.0052848025 0.26108283 -0.06930808 -0.12196715
000100 48 a4 49 3c 38 53 07 3e 5d ad 03 be 79 77 59 3c
       0.012307234 0.13215339 -0.12859102 0.013273113
000110 b0 c8 1a bd 21 4b 98 3d b8 c0 ff bb 76 7c a6 3e
       -0.037789047 0.07436205 -0.0078049563 0.3251683
000120 29 1f f7 bc df c1 07 bd 2a 59 61 3d dc 40 09 be
       -0.030166226 -0.033143874 0.055016674 -0.13403648
000130 ee b6 a4 bd 7a 1a a7 bd fe fa 07 bd dc 2b e1 bb
       -0.080427036 -0.08159347 -0.03319835 -0.0068716835
000140 b6 f9 0f bc cd 75 33 be 39 7d 9f bd 08 88 ff 3d
       -0.008787563 -0.17525406 -0.07787556 0.12477118
000150 cb 22 2e be bf 21 f3 3d e2 63 72 3d 63 7e b7 bd
       -0.1700546 0.11871671 0.059177287 -0.08959653
000160 8c b8 e2 3c 52 6a a3 3d 3a a6 35 be de 69 2a be
       0.02767589 0.07979263 -0.17739192 -0.16641948
000170 ba 98 c0 3d 71 ed 96 3b 88 eb 1c bd 13 7c 33 3e
       0.0940413 0.004605942 -0.038310558 0.175278
000180 8d 21 c7 be e1 f6 85 3e 01 87 43 bd 56 8f 53 bd
       -0.38892785 0.26164916 -0.04773617 -0.051650368
000190 14 2d 92 3e a2 0b aa bc b4 fe 85 3e 83 9e 51 be
       0.28550017 -0.0207575 0.26170886 -0.20470624
0001a0 8f c9 fc bd b4 37 cc bd 44 16 a7 bd ba 97 a1 be
       -0.12343132 -0.09971562 -0.08158544 -0.3156107
0001b0 e4 fa 9a bc 30 74 59 bb 02 7c 95 be 2d 0b f7 3c
       -0.018918462 -0.0033180825 -0.29196173 0.030156696
0001c0 d7 ee 64 3d 69 8b b0 be 9f c7 cc 3c 5a 8a ec bc
       0.055891838 -0.34481362 0.02499753 -0.028874565
0001d0 80 74 0d bd b2 0c e4 3c 31 1e c6 3d 0a 9b 79 3e
       -0.03453493 0.027838085 0.09673727 0.24375549
0001e0 d9 7a 2b bd e2 80 f6 bd 6b c6 31 3e 5b f0 da bd
       -0.041865204 -0.12036301 0.17360847 -0.106903754
0001f0 fe 34 39 be 9e 51 66 bd 63 39 d2 bd 17 85 39 be
       -0.18086621 -0.05623018 -0.10264852 -0.18117176
000200 78 f7 ca 3d 40 9f e2 3c f9 3d 8e 3e 53 b8 3d 3d
       0.09910482 0.027663827 0.27781656 0.046318363
000210 fe be 53 bd 19 0d 36 bd 4d 39 bd 3d 6f 43 c6 3d
       -0.051695816 -0.044446085 0.09239445 0.09680831
000220 7d ac b7 3d 15 32 50 3e 60 bb 98 be e9 c8 cb bd
       0.089684464 0.20331605 -0.29830456 -0.0995043
000230 eb ab 05 3e 7c 34 25 be 86 97 60 be 9e 5a 1f 3e
       0.13053863 -0.16133302 -0.21932802 0.15561911
000240 d0 90 c7 3c ca 90 98 be d3 4d 2c 3d 8a 76 af 3d
       0.024361044 -0.29797965 0.042066406 0.085675314
000250 2a 5a 26 bd f4 60 a4 bd 7f c1 db bd 49 74 73 bd
       -0.04061333 -0.08026305 -0.10730266 -0.05943707
000260 b8 ee f6 bc 9f 8b 81 3d c2 8a 87 3d f4 81 61 bd
       -0.030143127 0.06325459 0.06618263 -0.055055574
000270 cf bd 3c be e2 e8 b0 bc fc 91 3b be 49 75 23 bc
       -0.18431781 -0.021595422 -0.18317407 -0.009976693
000280 e4 c5 01 be 9c 0b 2f 3e cf 0b d8 3d 97 79 e9 bd
       -0.12673146 0.17094272 0.10549127 -0.114001445
000290 6f 47 b7 bc fb 37 93 bd 67 4f 18 be e9 0b fe bd
       -0.02237293 -0.07188412 -0.1487404 -0.124046154
0002a0 42 04 a0 bd c8 16 50 be 74 1c 32 3c 72 4d 84 3d
       -0.07813312 -0.2032119 0.010871042 0.06460084
0002b0 be d1 8b 3d 87 de fd bd a7 0b 05 be 07 9b fe bd
       0.068271145 -0.12395959 -0.12992726 -0.12431913
0002c0 3f 66 13 be b5 27 92 3d aa 8e 6b be 7e d6 bb b9
       -0.14394473 0.0713648 -0.23003641 -0.0003582723
0002d0 8d ac 68 be b0 73 54 be 57 d5 b2 bd c9 20 ae bd
       -0.22722073 -0.20747256 -0.087320976 -0.08502347
0002e0 e1 03 dd bd 9b 7d 4f 3e 59 1b 4e bd 33 d5 94 bd
       -0.107917555 0.20262758 -0.05031905 -0.07267227
0002f0 a2 7f 7e bd 09 af 57 bd 19 4f 15 be b5 8b 0d 3e
       -0.06213344 -0.05265716 -0.14580955 0.13822825
000300 8b 1b 74 3e 62 05 8e 3e 4c a0 ab 3c c3 92 43 3e
       0.23838632 0.27738482 0.020950459 0.19098954
000310 8c 0f 11 be 0a 98 b1 bd dd b6 a4 bd 73 58 26 3e
       -0.14166087 -0.08671577 -0.08042691 0.16244678
000320 08 2e 0c 3f 65 21 17 be fe c6 11 be e7 64 31 b9
       0.5475774 -0.14758833 -0.14236066 -0.00016917624
000330 8c d2 6f bd 1f cc 0b bc 9a a3 4b be d8 75 a9 3e
       -0.058550403 -0.008532553 -0.19886628 0.3309772
000340 e8 8d a1 be 8b e2 17 be de e5 6d bd 87 18 f4 bc
       -0.31553578 -0.14832513 -0.058080547 -0.029796852
000350 9e 21 aa be d6 6a 71 bc a9 c5 57 be 18 d2 01 bd
       -0.33228773 -0.014734944 -0.21071495 -0.0316945
000360 0d 50 18 bd 90 55 75 3e 62 20 9a bd 1b f4 cf 3d
       -0.037185717 0.23958421 -0.07525708 0.10153981
000370 26 00 80 3e 1a b9 6c be 55 df 0f be d2 f9 64 3d
       0.25000113 -0.23117486 -0.14050038 0.05590231
000380 49 01 1e 3e a5 de 1c 3d f6 2d 47 3e f0 f0 d5 3b
       0.15430178 0.038298268 0.19451126 0.006528966
000390 8f 7c d6 bd 05 76 bf bc d7 35 1f bd 38 78 c4 bc
       -0.104729764 -0.023371706 -0.038869705 -0.023983106
0003a0 d5 89 6e bd 3a 5b e3 bd 34 5b 17 be 3f 22 9a bc
       -0.058236916 -0.111013845 -0.14780885 -0.018815158
0003b0 e4 2c ba be 1b 0d ee 3d fc 5d b6 3d 79 14 b5 bd
       -0.36362374 0.116235934 0.08904645 -0.088417955
0003c0 57 f9 67 bc e5 71 c1 bd 1f 0b 0b 3d 5f 04 63 be
       -0.014158568 -0.09445552 0.033946153 -0.22169636
0003d0 41 75 97 bd 24 1d 58 be b3 5f 91 bc 2e 46 1f 3d
       -0.07395411 -0.21104866 -0.017745828 0.038885288
0003e0 1d 5c 2e bd 51 65 95 bd 0b 15 60 bd cd fd 79 bd
       -0.042568315 -0.07294715 -0.05470757 -0.06103306
0003f0 d9 83 42 be 4d ce 84 bc 1a 8c 01 be d5 41 8a bd
       -0.18995608 -0.016211653 -0.12651101 -0.06750838

fc3.weight f4 [4, 300]
000000 3f eb 95 3c 16 3f 88 3c 7a c0 7f 3d 8a 69 94 3d
       0.01830065 0.016631644 0.06243942 0.072466925
000010 38 d1 bb 3c 6d 04 6f 3d 86 c6 83 3d b4 3b 5a 3c
       0.022926912 0.05835383 0.0643435 0.013319898
000020 c7 cf d8 3c 85 86 26 3d 43 36 42 3e af f2 1a 3e
       0.026466263 0.04065563 0.18966012 0.15131639
000030 15 6f 34 3c e6 ab 5d 3d a2 3c a5 3c 22 d3 e9 3d
       0.011012812 0.054119013 0.020170514 0.114172235
000040 ca be c2 3c 37 5a 0c 3d 6d 9c d1 3c 51 2c bb 3c
       0.023772616 0.034265723 0.025587285 0.02284828
000050 57 b0 f6 3c 87 66 2c 3c 8b 4d 23 3c e8 91 23 3d
       0.030113382 0.010522491 0.009967218 0.03993407
000060 26 44 a5 3c e6 4c 8a 3d 2c 6b de 3c 46 86 d9 3d
       0.020174097 0.067529485 0.027150713 0.10621314
000070 b9 34 41 3d b6 08 63 3c 94 c0 ec 3d 7e aa 0d 3d
       0.04716942 0.013857057 0.11560169 0.034586422
000080 43 44 30 3d ef d3 cf 3c 0e 65 0f 3d 91 d3 1e 3d
       0.04303385 0.025369613 0.035008483 0.038775984
000090 65 61 ec 3c af d3 be 3c a6 58 74 3d fb 2e a9 3c
       0.028855035 0.023294298 0.059654854 0.020652285
0000a0 91 4f db 3c 09 38 4b 3d 05 80 9e 3c cd 5b c2 3c
       0.026771339 0.049613986 0.019348154 0.023725415
0000b0 87 cf 93 3d 78 cc b8 3d 98 3a 00 3d 78 94 9a 3e
       0.07217317 0.09023374 0.03130588 0.30191398
0000c0 07 ed 42 3c cb 55 46 3c b0 c5 c7 3c 4b 8a 94 3c
       0.011897332 0.012105416 0.024386257 0.01813235
0000d0 36 1f 06 3d fb b4 26 3c 40 b5 21 3d 5b 94 c9 3c
       0.03274461 0.010174985 0.039479494 0.024606874
0000e0 4a 20 9f 3c 64 f2 31 3d 73 ef d6 3c 4a 2c 61 3d
       0.019424576 0.043444052 0.026237225 0.054973878
0000f0 81 d7 11 3c e9 68 f4 bc 24 4e c0 3c 17 aa 8a 3d
       0.008901478 -0.029835181 0.02347476 0.06770723
000100 3a aa 72 bb a8 ad ee 3c 34 8e 41 3d 00 55 10 3d
       -0.0037027732 0.02913554 0.047254756 0.035237312
000110 05 f4 d9 3c e4 43 00 3d aa 2d dd 3c c3 dd 31 3d
       0.026605615 0.031314746 0.026999313 0.04342438
000120 f4 74 48 3c 51 9a f6 3d 70 3f eb 3c 41 0f d5 3c
       0.012234915 0.12041152 0.028716773 0.02600825
000130 8d d8 23 3d f4 bc 49 3d 0c d6 2a 3d 3c dc 25 3d
       0.04000144 0.049252465 0.041708037 0.040493235
000140 3c 0b bb 3d 98 35 a8 3c ee b4 b7 3b 8a bd 96 3d
       0.09133002 0.020533368 0.0056062853 0.073603705
000150 39 36 91 3d 63 9c 1d 3e 33 e6 d1 3c ff b2 d8 3d
       0.0709042 0.15391688 0.025622463 0.10581016
000160 35 4b 7c 3e 81 d6 a6 3c c7 d6 44 3d a2 60 24 3d
       0.24638064 0.020365955 0.04805639 0.04013122
000170 ef eb 2e 3d 03 bd a0 3d 7b c0 08 3e cf de 0b 3d
       0.042705473 0.07848551 0.13354675 0.034148034
000180 23 5f 42 3d cc a3 d0 3c c9 12 c4 3b 82 2f 36 3d
       0.04745401 0.02546873 0.0059836847 0.0444789
000190 53 63 7c 3d ba 74 79 3c 18 3c 30 3d 01 0a 4e 3e
       0.06161816 0.015225584 0.04302606 0.20121004
0001a0 0c 31 5e 3d 8a 0c a7 3c 2f 3c c8 3c 32 1f 48 3c
       0.054245993 0.020391721 0.02444276 0.012214469
0001b0 2e b2 21 3d a3 58 40 3e 0b b5 58 3d e5 9a f4 3c
       0.039476566 0.18783812 0.05290703 0.029859016
0001c0 4e c9 d5 bd 6e fe 02 3d c2 c5 92 3d 85 b2 83 3d
       -0.104387864 0.031980924 0.071666256 0.06430534
0001d0 35 5f 6c 3d fb 18 27 3d f3 b7 6e 3d 73 e7 71 3d
       0.057707984 0.040795308 0.058280896 0.059058618
0001e0 14 9b 9f 3c da 33 e7 3c 9c 22 0b 3e 9d 83 8a 3d
       0.019483127 0.028222967 0.13587421 0.067633845
0001f0 a1 36 39 3d 2e 6b 05 3d 59 56 a4 3d 4c c1 58 3e
       0.045218114 0.032572918 0.08024282 0.21167487
000200 5b ba 3c 3d 4a d1 8b 3d f9 21 86 3d ee 2b 3c 3d
       0.04607616 0.06827028 0.065494485 0.045940332
000210 ff 70 c6 3c ba 76 91 3c c8 2a 27 3d 8c dd ac 3c
       0.024223803 0.017756809 0.040812284 0.021101736
000220 e6 c9 08 3d 40 8e 64 3d 00 6b f0 3c cc bd 44 3e
       0.03339567 0.055799723 0.029347897 0.19213027
000230 7d bb 43 3d 47 e0 59 3d 82 80 33 bc 03 41 c7 3d
       0.047786225 0.053192403 -0.010955932 0.09729197
000240 fc b1 99 3d 27 07 3b 3d 6d 45 d2 3c 85 3f 44 3d
       0.07504651 0.045661118 0.02566787 0.04791214
000250 bd f6 bd 3c 94 2f 9a bd c3 4e d6 3c 09 7e f7 3c
       0.023188943 -0.07528606 0.026160603 0.030211465
000260 1e 3b 1c 3c c0 57 9c 3d a0 02 2e 3d 86 da 0e 3d
       0.009535579 0.076339245 0.042482972 0.03487637
000270 97 38 cd 3d 0e 10 07 3c 92 d8 5b 3d f9 0a 62 3c
       0.10020559 0.008243574 0.053673334 0.013796561
000280 9a fe 98 3c 2e 46 9c 3d d5 f6 ed 3c 3d 1a 1b 3d
       0.018676091 0.07630573 0.029048363 0.03786682
000290 da f6 f2 3c 5c 5b 8c 3c 2b 85 0d 3d 12 14 b2 3c
       0.029658724 0.017133407 0.034550827 0.021738086
0002a0 d6 5b ad bc 77 ed 8e 3b 62 59 90 3d 3d d6 09 3d
       -0.021161955 0.004361804 0.070482984 0.03365158
0002b0 94 45 04 3d 90 30 7d 3d a2 f4 18 3d fe bd 97 3c
       0.032292917 0.06181389 0.037342675 0.018523213
0002c0 99 b0 b1 3e 26 46 29 3d 82 54 33 3d d7 08 ef 3c
       0.34705046 0.041326664 0.043781765 0.02917902
0002d0 17 80 91 3d 86 67 10 3d a4 3a 18 3d 1b a8 59 3c
       0.07104509 0.035254978 0.0371653 0.013284708
0002e0 8a e8 f5 3c 24 4b ac 3d a9 2d 26 3d 18 de d8 3c
       0.03001811 0.084127694 0.04057089 0.02647309
0002f0 96 8b 2e 3e 21 ed 5b 3c 11 75 02 3d 39 7b d7 3d
       0.17045435 0.013423235 0.031849924 0.1052155
000300 ab 32 17 3d bf 24 98 3d 14 85 0a 3c 0b 66 ce 3d
       0.036913555 0.07428884 0.00845458 0.10078057
000310 47 7e 98 3d f7 ba c3 3c ec fe 01 3c b1 c1 2d 3d
       0.074459605 0.023892863 0.007934313 0.042421047
000320 98 a7 8d 3d 72 6c 75 3d eb c3 13 3d 68 99 d9 bc
       0.069167316 0.059917875 0.036075514 -0.026562408
000330 e5 2c e0 3c ad 69 84 3c 72 4a de 3c 91 6d 6e 3d
       0.027365157 0.016163671 0.027135108 0.05820996
000340 1c c2 31 3d 94 cd 6d 3d 95 a6 d4 3c dd 7a 0f 3d
       0.043398008 0.058057383 0.025958339 0.03502928
000350 b5 df 50 3d 22 10 2e bd 51 95 cc 3c b7 16 5c 3d
       0.050994594 -0.042495854 0.024973543 0.0537326
000360 2d 8a ab 3b 00 81 b9 3d d0 b1 0e 3d 9e 50 92 3d
       0.0052349777 0.09057808 0.034837544 0.07144283
000370 5e dc 6d 3d 33 5e 77 3e f6 7e 8c 3c 74 d3 ff 3c
       0.058071487 0.24157028 0.017150383 0.031228758
000380 97 a7 43 3d bb ad 28 3d 50 e9 25 3d 6f b8 82 3d
       0.047767248 0.041181307 0.040505707 0.06382834
000390 c6 b3 6a 3c 70 d5 5f 3c 39 9f 01 3e 40 84 0b 3c
       0.014325088 0.013661727 0.12658395 0.008515418
0003a0 b8 ce 2d 3d f8 73 9d bc 3a da a1 3e 29 95 c2 bd
       0.04243347 -0.019220337 0.31611806 -0.09501106
0003b0 90 0e 86 3d 18 f0 2e 3b 1e 8a 27 3d b9 4d a1 3c
       0.06545746 0.00266934 0.040903203 0.019690381
0003c0 cf 19 29 3d 8c 6a 11 3d 5e ab 19 bc 5f 1a ba 3c
       0.04128438 0.035502 -0.009379236 0.022717653
0003d0 b7 d9 88 3d 32 2c 90 3e 75 37 57 bd 1a 90 8e 3d
       0.06682151 0.28158718 -0.052543122 0.06961079
0003e0 8a 6e f5 3c a6 00 e6 3c 7c f9 a5 3c 2f e2 25 3d
       0.029959936 0.028076481 0.020260565 0.04049891
0003f0 25 c5 83 3c da f0 68 3d ef f2 0a 3e 92 3d 96 3c
       0.016085217 0.05687032 0.13569234 0.018339906

fc3.bias f4 [4]
000000 60 37 c9 3c 99 a0 56 3e 9b e3 ff 3d ec 57 af 3d
       0.024562538 0.209597 0.12494584 0.08561692
