checkpoint_Critic.pth (torch_old, 542616 bytes, 5 tensors)

fcs1.weight f4 [400, 33]
00000000: 45bb 4c3e 39bf 0c3e 2ba2 183c 37ad 4fbe
00000010: bb10 71be f210 5c3f 1072 80bf 3c8a bf3c
00000020: 1f90 febd ae27 9a3d c7e6 ae3d b0b0 a2bd
00000030: acab bf3d efe0 69bd 1c40 f43e 15ac ad3d
00000040: 1f9d 66bd f07e 873f cab0 a7be c336 80bf
00000050: c331 bc3e cf93 12bb b123 19bd cf29 95bd
00000060: 757a d73d 367b 6b3c 95ce 0b3d 1632 023e
00000070: 3e9a ccbc 767f 9a3c 2490 0abe e487 793c
00000080: 4737 853f 902f efbd 5453 2e3e 58a3 ddbd
00000090: 3435 433f e9d6 2b3e 6589 073e e118 6cbe
000000a0: c070 41be 5c34 d83c ba30 b6bd 2818 25be
000000b0: ba54 f93d 6672 5cbe d6c8 bcbd 08e7 613e
000000c0: e8f4 b73e ea11 543f 4621 c33e 6430 a3be
000000d0: 67f5 463f 0561 963e c440 093e 9702 41be
000000e0: 0b42 d1bd d98a a8bd e6fb aabb 4ff9 80bd
000000f0: 9de7 9f3e 5dd1 f8bd 50bf b4bc 8768 aebe
00000100: d5e6 403d 62f8 50bf aa67 9fbd a432 373e
00000110: 7ba3 b13e 4187 3e3f 8365 f83d 04c9 903e
00000120: af0d b7bc fc70 9ebd 1b39 41be 78f3 ee3c
00000130: 4fbc 823d e1f1 323e 32b0 043d e897 933e
00000140: 006a d0bd 363b e53e 3b2f 18be 5f7b 34bf
00000150: 697c d4bd 3fa3 3bbf 7396 d93e 500c f4bd
00000160: dcf0 a7be b5cf f4bd 5029 2ebe 2275 d63e
00000170: 7387 90be efb0 823e 5dd9 353d e834 233c
00000180: 453a 5abe 3062 14bd 3744 48b9 441a e73c
00000190: c402 023d 38f3 fabc 10d0 ea3d 1a71 ffbd
000001a0: d8ad 26be 09a5 043e a90c b23c ba9e 913a
000001b0: 0f44 693d b320 64bc 6cee 58bc e946 c63c
000001c0: 7cbf b93c 6fb3 5bbd 66dc db3b 4f72 ec3e
000001d0: dab6 b13d b700 fbbd b833 cd3b 31a8 cb3b
000001e0: 53ee a73c 7ade 1dbc f839 17bc e96e 3b3b
000001f0: 57d9 63bc 52dc 6abe 9f07 6b3e 495b 0ebe
00000200: 3402 8abc 7db4 25be 986c 40bc 02cb 4f40
00000210: ea96 df3b 81d0 2c3e d9eb d13d 0cb8 233e
00000220: 81f3 fabe cd9e 8d3e 0846 3e3f dd76 143e
00000230: 127c 25be a6c6 9abe 9c02 3abd 633f eabb
00000240: a763 b2bd 676a 05be 8723 923e 6ad6 0f3e
00000250: 3b53 023f e2d0 cd3e ba61 5bbe e2d5 7f3f
00000260: 779b 813c d5db 493e d601 f3be f0c7 e63d
00000270: 908f 993e 549e 2bbe 9aa2 b7bb 543e f33e
00000280: 4a98 3a3c acad 0f3c eb9a 03bf 6c52 8cbc
00000290: 2c2c 973d e51f 8cbe 0b1e a73e 5ed7 1e3f
000002a0: 9b7c 023f a2bb 80be 7371 973d 237f 683f
000002b0: 5e9c debd c024 22be dd16 34be 024b b83e
000002c0: fde4 0a3c cc31 c9bd 7d74 47be e2de be3e
000002d0: af60 35bd 195d 0cbf 5042 b6be b163 bcbd
000002e0: 2a43 883f 82d7 813e c08f bb3e c4ea 90be
000002f0: 78f3 c13d b798 f23d 60d5 e53d a31d d9bd
00000300: be8f cd3e f164 a73d fd04 1d3d 6ae3 bbbe
00000310: fd75 0c3d 5f51 eb3e 4322 c5bd 7cdf c5be
00000320: 1009 903e 242e 89bf 6aab 40bf 525d 02bd
00000330: 8652 9fbd 5515 aa3e fe5b e3bd 9100 ea3d
00000340: 9a52 ae3d 05f6 07bc c851 003d e482 323d
00000350: 4626 f6bb 1407 b83c ea61 2dbe 1eef 293e
00000360: f446 21bd b31b 863f 5e93 9fbd 8c8f a1ba
00000370: ae22 53bd 739e 7e3d 310b ec3d a2bd 5ebe
00000380: dcc7 dfbc d002 663e 5a84 633e 64d1 723c
00000390: 0a96 1dbe e7cc dfbc 3425 cdbe 9de7 a53c
000003a0: 2d54 bb3c 9f66 863e f535 8ebe b7fb bd3e
000003b0: 41f4 8cbe 7ed3 853e 15ad 803c a477 22bc
000003c0: a2b6 86bd b804 7f3e 985a 20be a3c4 1fbe
000003d0: 7730 5d3d c41f 113f c811 2ebd 4bbe 663d
000003e0: 3e47 4f3d 3943 22bd 8441 e43e 4baf b43e
000003f0: ba52 e8bd 2dbe f2bc a4f6 bbbd 784f 5a3e
0.19993313 0.1374482 0.009316008 -0.2028092 -0.23541538 0.85963356 -1.0034809 0.023381345
-0.12429833 0.075270995 0.08540111 -0.07943857 0.09358916 -0.05709928 0.47705162 0.08480088
-0.056302186 1.0585613 -0.32752067 -1.0016712 0.36756715 -0.0022365933 -0.037387554 -0.07283365
0.10521404 0.0143726375 0.03413256 0.12714419 -0.024975892 0.018859606 -0.13531548 0.015230153
1.0407494 -0.11678994 0.17023975 -0.10822171 0.76253057 0.167812 0.13236006 -0.23056366
-0.18890667 0.026392154 -0.088960126 -0.16122496 0.121743634 -0.21528015 -0.09217994 0.22060788
0.35929036 0.82839835 0.38111323 -0.31872857 0.77718204 0.29370895 0.13403612 -0.18848644
-0.10217675 -0.08229608 -0.005218017 -0.06297552 0.31231394 -0.12149308 -0.022063881 -0.34064123
0.04709514 -0.81629 -0.07783444 0.17890412 0.34695038 0.7442513 0.12128737 0.28278363
-0.022345392 -0.07736394 -0.1886944 0.02916883 0.06383573 0.17475082 0.032394595 0.28826833
-0.10176468 0.44771737 -0.14861767 -0.7050075 -0.10375292 -0.7329597 0.42497596 -0.11916411
-0.3280095 -0.119536795 -0.17007947 0.4188624 -0.2822834 0.25525615 0.044396747 0.009961344
-0.2131129 -0.03622645 -0.00019098898 0.028210767 0.03174092 -0.030633554 0.11465466 -0.12472744
-0.16277254 0.12953581 0.021734552 0.0011109926 0.05694967 -0.013923812 -0.013240438 0.024203734
0.022674315 -0.053637918 0.006709623 0.4618096 0.08677454 -0.12255996 0.006262269 0.0062151183
0.020499384 -0.009635562 -0.009230129 0.0028600043 -0.013906798 -0.22935608 0.22952126 -0.1390201
-0.016846754 -0.16182132 -0.011744641 3.2467656 0.0068234103 0.16876413 0.102500625 0.15988177
-0.49013904 0.27660218 0.7432561 0.14498468 -0.1616061 -0.30229682 -0.045412645 -0.0071486696
-0.087104134 -0.1302887 0.2854273 0.14046636 0.5090825 0.40198427 -0.21423998 0.99935734
0.015821202 0.19712766 -0.47462338 0.11268604 0.29992342 -0.16759616 -0.0056041004 0.4750849
0.011388848 0.008769434 -0.5140826 -0.017129146 0.07381472 -0.27368084 0.32640108 0.62047374
0.5097138 -0.25143152 0.073946856 0.90818995 -0.108696684 -0.15834332 -0.17586847 0.35994726
0.008477447 -0.09823951 -0.1947803 0.3727942 -0.044281658 -0.54829556 -0.35597467 -0.09198702
1.0645497 0.25359732 0.3663311 -0.28304112 0.09470266 0.11845534 0.11222339 -0.10601356
0.4014873 0.0817355 0.038334835 -0.3669694 0.03429221 0.4596052 -0.096256755 -0.38647068
0.28131914 -1.0717206 -0.7526156 -0.03182728 -0.07779412 0.332194 -0.111015305 0.11425889
0.08511849 -0.008298402 0.031327993 0.04358186 -0.007511887 0.022464313 -0.16931883 0.16595122
-0.039374307 1.0477203 -0.0779178 -0.0012326105 -0.051546745 0.062162828 0.11525572 -0.21752027
-0.02731698 0.2246201 0.22218457 0.01482043 -0.15389267 -0.027319385 -0.40067446 0.020252043
0.022867287 0.2625017 -0.2777554 0.37106106 -0.275301 0.26137918 0.015707532 -0.00991622
-0.06577803 0.24904144 -0.15659559 -0.15602355 0.054001298 0.56689095 -0.042497426 0.05633382
0.05060505 -0.03961489 0.44581234 0.35289988 -0.11343904 -0.029631699 -0.09177902 0.21319377

fcs1.bias f4 [400]
00000000: e67a 39be dddc cabe 5c0c 94bd 95ce 38be
00000010: 35d6 26bf df2e 04bf 2ef2 a6be 4e85 62be
00000020: e835 49be f12f afbe 62aa b3bd 13f7 a9be
00000030: 7c11 6fbe 53f7 8fbe 3367 d2be eee1 85be
00000040: 6734 a1be dff9 85be 252e 99be b6b4 85be
00000050: aa6a 9ebe 753f d7be b9a0 aebe 1cfe ccbe
00000060: d1c7 b5be bffe 8bbe c81f ebbe b29b e6bc
00000070: 618c 41bd d3d2 a1be b70a 0ebe 5a0a 633d
00000080: cba2 99be b568 92be 905e 9ebe 9831 4fbe
00000090: 770d 9dbe 1934 4cbe 8807 3f3d 85f5 16be
000000a0: 913d 5dbe 7c21 51be e202 cd3b 0378 60be
000000b0: 773f 80be c59b 51be c18f 62be e7f0 4ebe
000000c0: 3a25 9ebe 0589 97be a0a3 b7be 59ae 053e
000000d0: 7f89 1fbe 1dc8 1abe c4bb 8fbe 16a6 30be
000000e0: a6b5 ddbe ac29 67be 107b 59be cc6e f8bc
000000f0: 16ad 8fbe 1b76 f0be bf21 8bbe a544 50be
00000100: 1f96 d2be cea6 e8be c2a8 26be 512c cbbe
00000110: eeac 01be 5f0d 62bc b1d0 e3be 87bf 80be
00000120: acd1 01be 625f d7be 2877 69be 6a80 f5bd
00000130: 580c 85be 6b57 9cbe a026 b83b 1789 4abe
00000140: 73e4 22bf c156 37be 7446 e1be ddf0 bcbe
00000150: 2e57 dcbd 064c 8dbe 18d7 babe d5d9 4dbe
00000160: 8215 b8bd 0afe 8cbe b7d8 a6be 0289 47be
00000170: e0f6 e9be 3731 76be 4ebf bfbe 86a3 04bf
00000180: 21c9 7fbe 63f7 ccbe ae34 e1bd 6b61 b43d
00000190: b123 70be dc67 c5bd 072e 0cbe 6556 4cbd
000001a0: 90e3 5ebe cdd3 be3c eda4 64be c059 aabe
000001b0: ecd5 4ebe 727e 00bf 8a94 9fbe 92cd f6be
000001c0: 5be1 8dbe 9678 e8be 304a 09bd 23c7 9abb
000001d0: aa8a c6be 1d0c aebe a020 9ebe ded3 3dbe
000001e0: 8bca c9be f7fc 3ebe 14a8 99be 4e20 13be
000001f0: c6eb 8abe cdd6 81be 2ee8 70bc 3ff7 f4be
00000200: 4889 cebd 98a7 d6bd 972e b0be 6112 febd
00000210: 725c 10bf ac59 4dbd 1733 a8be edc9 bcbe
00000220: 6fb3 88be 2547 c8be c44c b4be 3c2b 34be
00000230: d574 15be b0ce 91be f228 b7be 4111 7a3d
00000240: 2221 cdbe 7236 3bbe 559e abbe 32b7 febd
00000250: ec43 07bf 6c5a 88be 2aa2 a6be b47c 0ebe
00000260: a6b6 84be a113 f9be 934f f2be fd22 d0be
00000270: 942f 35be 550d a8be 5888 9fbe 2c44 39be
00000280: 337e bebe f524 a53d 581d a4be 28af ddbd
00000290: 4a14 b0bd 2689 0dbf 45f9 6cbe b9c8 b53d
000002a0: 9c2b 5ebe 4f0f 39be 0607 c3be f0d7 08bf
000002b0: f004 d0bd f87d ebbe 856d 67be 321d cfbd
000002c0: 7047 31bf 3d90 97be 4521 1bbd 3f61 6bbe
000002d0: c16f 8ebe 4cd8 a4be 9a65 f2be 20d2 7cbe
000002e0: 94b9 acbe 693d 0ebf a624 f6be c527 5cbe
000002f0: fb63 77be 7b64 6abe 8f08 e4be beec b2be
00000300: 1b18 f2be 4815 a5be c254 6abe 65ea 84be
00000310: 1a12 bfbe 5e23 bfbe 1fd2 a1be f57f 97be
00000320: fa49 a6be 572f 5ebe f3b7 99be 6b76 8dbe
00000330: b840 bbbe 76b3 1fbe e329 03be d58f 92be
00000340: b870 39bd 55fa 47be 8dd3 64be 00d1 87be
00000350: bb3f 80be d0c5 e5be 22ba a8bd 2729 a3be
00000360: b811 8cbe 3624 d2be 01ce a7be bb40 a4bd
00000370: afeb dabe 782d c8be e340 cabe e56f a2be
00000380: ebfa 8ebe 39b9 05bf 9004 543c 30f0 73bd
00000390: 90f2 34be a53f e7be 0101 b8bd 615f bfbd
000003a0: 9ac8 01be e8a9 a6be 71a5 09bf 181f a9be
000003b0: 6886 1cbf 7529 06bf 95da bebe b758 dbbd
000003c0: b6db 2cbd 1aad 98be 6163 62be d2f8 85be
000003d0: 2c92 6abe c28c 75be 6033 153d b4ea 43be
000003e0: 649b a5be 70ac 93be 9136 80be 9072 d7bd
000003f0: 3b10 23be 5efc 95be cd7c 16be d81e 57be
-0.18113288 -0.3962163 -0.0722892 -0.18047555 -0.65170604 -0.5163402 -0.32606643 -0.22121164
-0.1964947 -0.34216264 -0.08772732 -0.33196315 -0.23346514 -0.2811838 -0.4109436 -0.26148933
-0.31485292 -0.261672 -0.29918018 -0.26114434 -0.30940753 -0.420406 -0.34106997 -0.4003762
-0.3550401 -0.27342793 -0.45922685 -0.028150413 -0.047253016 -0.3160616 -0.13871275 0.055429794
-0.30007014 -0.2859551 -0.3093152 -0.20233762 -0.30674335 -0.19941749 0.04663804 -0.14742096
-0.21605517 -0.2042293 0.006256447 -0.21920781 -0.2504842 -0.20469578 -0.2212515 -0.20209084
-0.30887777 -0.29596725 -0.35867023 0.1305479 -0.15579794 -0.151154 -0.2807294 -0.17250857
-0.4330265 -0.2257449 -0.21238351 -0.03032627 -0.28061742 -0.46965107 -0.27174184 -0.20338686
-0.41130158 -0.45439762 -0.16275313 -0.39682248 -0.12663624 -0.013797133 -0.44495156 -0.25146124
-0.1267764 -0.4206496 -0.22799361 -0.11987384 -0.2598598 -0.30535445 0.005619839 -0.19778858
-0.63629836 -0.17904188 -0.43999064 -0.36902514 -0.10758816 -0.27597064 -0.36492229 -0.20102628
-0.08988477 -0.27537566 -0.32587215 -0.19485858 -0.45696163 -0.24042211 -0.3745064 -0.51812017
-0.24979068 -0.4003249 -0.10996376 0.088076435 -0.23451115 -0.0963895 -0.13689433 -0.04988708
-0.21766496 0.023294354 -0.22328539 -0.332716 -0.20198792 -0.5019294 -0.31168014 -0.48203713
-0.27710995 -0.454045 -0.033518016 -0.004723446 -0.38777667 -0.33993617 -0.30884266 -0.18537852
-0.3941234 -0.18651186 -0.30011046 -0.14367792 -0.27133006 -0.25359192 -0.014703793 -0.47844884
-0.10084778 -0.10481185 -0.34410545 -0.12405849 -0.5639106 -0.050134346 -0.32851478 -0.36872807
-0.26699397 -0.3911678 -0.35214818 -0.17594618 -0.14595349 -0.28478003 -0.35773426 0.06105161
-0.4006434 -0.18282488 -0.33519235 -0.124372855 -0.52838016 -0.26631486 -0.32545596 -0.13914758
-0.259206 -0.48647788 -0.47326335 -0.40651694 -0.17693931 -0.32822672 -0.3115871 -0.18092412
-0.37205657 0.080636896 -0.32053638 -0.10824424 -0.0859762 -0.55287397 -0.23141964 0.088761754
-0.21696323 -0.18072246 -0.38091296 -0.53454494 -0.10157192 -0.45994544 -0.22600372 -0.101129904
-0.6924963 -0.29602233 -0.037873525 -0.22986315 -0.27819636 -0.3219627 -0.4734314 -0.24689531
-0.33735335 -0.55562454 -0.48074836 -0.21499546 -0.24159233 -0.22889893 -0.4453778 -0.34946245
-0.47284016 -0.322428 -0.22883895 -0.2596008 -0.37318498 -0.3733167 -0.31605622 -0.2958981
-0.32478315 -0.21697746 -0.30023155 -0.27629408 -0.36572814 -0.15595803 -0.12808947 -0.2862536
-0.045273513 -0.19529088 -0.22346325 -0.26526642 -0.25048622 -0.4487748 -0.08238627 -0.31867334
-0.27357268 -0.41043252 -0.32774356 -0.08020159 -0.42757937 -0.3909719 -0.3950263 -0.31725994
-0.2792581 -0.5223575 0.012940541 -0.059555233 -0.17670655 -0.45165744 -0.089845665 -0.09344364
-0.1267418 -0.32551503 -0.5376807 -0.33031535 -0.6114259 -0.5240701 -0.3727614 -0.107102804
-0.04220172 -0.29819566 -0.22108223 -0.26166397 -0.22907323 -0.23979476 0.03642595 -0.19132501
-0.32345116 -0.28842497 -0.2504163 -0.10519898 -0.1592416 -0.29294103 -0.14696045 -0.2100786

fc2.weight f4 [300, 404]
00000000: 1f93 9bba 544c 9bbd e523 0ebd 8e88 98bd
00000010: 7cb9 1e3c 643e a2bd ec55 71bd cbb9 d3bd
00000020: c678 303d 6f13 e4bc 7506 9cbc 9812 b1bd
00000030: 9518 043d 973f f1bc 6d22 8cbd cd00 dabd
00000040: 3b51 513c b875 19bd 0f60 f8ba 7cd9 a33b
00000050: 81b1 0cbb 1e36 20bc 2337 84bd 409b edbc
00000060: fb24 35bc 89a8 17bd 7519 58bc a40c c9bd
00000070: 5ce5 5cbd 3659 65bd 2ad5 f5bc 71c4 55bd
00000080: 00f1 5ebd 4d87 f33a d359 c8bb d599 08bb
00000090: 125d 88bd 84ce 8abd 93ab bdbd a14f 59bd
000000a0: 1c5e cebc bbff 9bbd 89dc 7bbd e33f 7bbd
000000b0: a857 d0bd b69f 83bd 3cc5 95bd ad01 20b9
000000c0: a503 a63d caf4 7dbd 6911 7639 a794 83bd
000000d0: 08b2 1dbe 08f3 57bc b7b3 433d 191d b5bd
000000e0: 582e 8f3c 36cc 55bd 1fda d0bd 5f3e a4bc
000000f0: 517a b8bd 5efc 73bd cfb6 48bc 2f7c eabd
00000100: 79f6 7c3d de0c 243d 6bcd b7bd 28c8 383d
00000110: d1cf 1fbc 1431 3e39 0dbd dd3b b199 423d
00000120: 4147 4cbc fdd7 91bd 8b73 80bc 5244 0bbc
00000130: 0184 11bd bf05 9f38 60ea 093c 9294 afbd
00000140: 78c2 70bd 1403 19bd 32ab 70bd 46fb 19bd
00000150: 54d6 98bd 6ddc 94bd de12 333d be64 6cbc
00000160: afcd b2bc 615a 66bd 28cd 13bd da06 57bd
00000170: f3d3 b33b a167 babd e10b 4abd 15b5 a13b
00000180: ef5d a23c 856f d7bd ce81 adbd d1d0 5ebd
00000190: 75b2 52bd 3852 a6bc 3242 afbd bcd9 e6bc
000001a0: 0430 483c f016 6abe 4ced 8a3c 8c35 04be
000001b0: 3cf0 64bd 612c 83bc 585a c9bc e0f9 efbc
000001c0: dd25 1bbd 8571 80bd ac24 06be 80ce 20bd
000001d0: 37f1 7ebd e900 93bd 31b0 d1bc 0906 29be
000001e0: 25f3 2f3c a8eb 87bd f7e8 25bc 145e 0d3d
000001f0: 031f 35bd f33b 933c 8f93 80bd dc94 ffb8
00000200: 6c4f 19bd 08fd 96bd 6dd9 fcbc 5297 6fbd
00000210: 09b5 0b3c d991 e7bc 2c72 a2bb b674 48bd
00000220: 26ad d73c 6936 e73c 46e8 7abd 69ba 923c
00000230: 8199 63bd 8ab3 63bd d994 363c 464f 98bd
00000240: 9553 ed3a d009 f1bd d363 78bc 646a 03bd
00000250: cd97 593b 6cbf b1bd 0a09 cabc a106 40bd
00000260: 387c 8ebc 0295 4d3d b7db dabb dd51 8fbc
00000270: 3340 33bd 8ea3 09bd 455c 1abd 7eca d3bb
00000280: f070 97bd 458b b7bd 7913 f2bc e6f0 7bbc
00000290: b999 33be ad03 de3c 4202 7d3d 1ffa 39bd
000002a0: c9bc 1abd c180 fbbc 5d2b a63b d0b5 fdbd
000002b0: ca14 fabd 3c00 f33c 1a73 11bd 774f f4bd
000002c0: e4ad f33c c2f3 183d f371 64bd 3215 cf3c
000002d0: cbaa fabc 999c 023d 8923 643d efa2 9cbd
000002e0: c00f 6bbb 466d 463a 35b2 0abd db93 c7bd
000002f0: e798 b6bb 18ab b73c 3f9b 0b39 3882 4c3c
00000300: d604 09be f587 67bd 1da5 6bbd 1a85 0abd
00000310: 163b 47bd 82d9 6cbd 0211 3ebd a7a2 26bd
00000320: 3348 8bbd 5d3c b83a f29e 99bc 9b8e aa3c
00000330: 45f8 48bd 87e5 8e3c 7069 76bd fced 97bc
00000340: 87b5 babd dbc0 b33a 09be 193d a283 e2bc
00000350: 9c0e fabd b802 56bd 7398 abbd 59a2 2dbc
00000360: b205 c9bd e363 5ebd 3a70 e7bb 172c c0bc
00000370: 4d2a a1bb 0245 85bd 7ab4 fcbc a1af 6c3d
00000380: 28d7 2a3d a4d0 8cbb 46f1 3d3d 6531 61bd
00000390: 54bc bcbd 60c3 73bd d33b a4bd d7e9 90bc
000003a0: 074a ddbd 3fcf e9bc 9ccf 01bd 0ff5 15be
000003b0: ee6e 0fbc b41e 2abd a3b2 0fbd 19d8 0cbe
000003c0: ab9c d3bc ccb1 d0bc 4067 19bd 2b81 18be
000003d0: a803 a1bd a49c df3b 87d1 c7bd ea74 ff3c
000003e0: e574 bdbd d7ac 03bd c5b1 9e3c b147 b5bd
000003f0: 1afe ca3a cf67 94bd dde7 6f3c 2f78 cabd
-0.0011869407 -0.07582918 -0.0347022 -0.07447921 0.009687778 -0.07922056 -0.058919832 -0.103381716
0.04308393 -0.027841298 -0.019046048 -0.086461246 0.032250006 -0.029449267 -0.06842504 -0.10644684
0.0127757145 -0.03746578 -0.0018949526 0.0050002914 -0.0021468105 -0.009778528 -0.06455829 -0.029004693
-0.01105618 -0.037025962 -0.013189663 -0.09816864 -0.05392967 -0.05599328 -0.030008871 -0.052189294
-0.054429054 0.0018579751 -0.0061142235 -0.0020843644 -0.06658377 -0.06777671 -0.09261241 -0.053054456
-0.02519136 -0.07617136 -0.061489616 -0.061340224 -0.10172969 -0.06426947 -0.0731301 -0.00015259413
0.08106164 -0.062001027 0.00023466874 -0.064248376 -0.15399945 -0.013180502 0.04777881 -0.088434406
0.017478153 -0.052196704 -0.10197853 -0.020049272 -0.09007705 -0.059566848 -0.012250616 -0.114494674
0.061758492 0.040051334 -0.08974727 0.04511276 -0.009754137 0.00018138095 0.0067669214 0.047509853
-0.01246816 -0.071212746 -0.015680095 -0.008500176 -0.03552628 7.582781e-05 0.008417696 -0.085732594
-0.05877921 -0.03735645 -0.058757015 -0.03759315 -0.07462755 -0.072686054 0.043719165 -0.014428316
-0.021826593 -0.056238536 -0.036084324 -0.05249677 0.005487913 -0.09101797 -0.049327735 0.0049349167
0.019820182 -0.105193175 -0.08472024 -0.05439836 -0.05143972 -0.020302877 -0.08557548 -0.028179996
0.012218479 -0.22860312 0.016958855 -0.12911052 -0.055893168 -0.016012372 -0.024579212 -0.029293954
-0.037877906 -0.06271652 -0.13099927 -0.039259434 -0.06224176 -0.07177908 -0.02559671 -0.16506208
0.0107391225 -0.06636745 -0.010126344 0.034513548 -0.04421903 0.017972922 -0.062781446 -0.00012187075
-0.03742926 -0.07372481 -0.030865395 -0.05849392 0.008527049 -0.028267788 -0.004957458 -0.04893943
0.02632768 0.028224187 -0.06125667 0.017911153 -0.055566315 -0.055591144 0.0111438865 -0.07436995
0.0018106574 -0.1176945 -0.015160519 -0.032083884 0.0033202053 -0.08679089 -0.024662513 -0.04688132
-0.017393216 0.050190933 -0.006679024 -0.01749509 -0.043762397 -0.033603244 -0.03768565 -0.006463348
-0.07394588 -0.089621104 -0.0295503 -0.015377259 -0.1753911 0.027101362 0.06176973 -0.04540455
-0.037777696 -0.030701043 0.0050710873 -0.123881936 -0.122109964 0.029663198 -0.03551016 -0.11929219
0.029746003 0.03734184 -0.055772733 0.025278661 -0.030599019 0.031887624 0.05569795 -0.076482646
-0.0035867542 0.00075693836 -0.033861358 -0.09744998 -0.0055724266 0.022420451 0.00013313907 0.012482218
-0.13380751 -0.056526143 -0.05753051 -0.03381834 -0.048640333 -0.05782462 -0.04640294 -0.04068246
-0.0680088 0.0014056076 -0.018752549 0.020819953 -0.049064893 0.017443432 -0.060159147 -0.018546097
-0.09116655 0.0013714092 0.037534747 -0.027650658 -0.12209818 -0.052248687 -0.08378687 -0.010597789
-0.098155394 -0.05429448 -0.007062939 -0.023458524 -0.0049183727 -0.06507303 -0.030847777 0.05778468
0.041709095 -0.004297333 0.046372674 -0.054978747 -0.09215608 -0.059512496 -0.08019223 -0.017689629
-0.10805135 -0.028541205 -0.031692132 -0.14644264 -0.008754475 -0.041533187 -0.03508247 -0.1375431
-0.025831541 -0.025475405 -0.037451982 -0.14893024 -0.078620255 0.006824093 -0.09756761 0.031183679
-0.092508115 -0.032147255 0.019371876 -0.08851565 0.0015487105 -0.072463624 0.014642683 -0.098862045

fc2.bias f4 [300]
00000000: 32a9 a3bd 645e 1abc c918 e4bd c70e 8abd
00000010: cbad e6bd 7b56 7f3e 9899 09be efbc d8bd
00000020: 13bc b43a ae43 a1bd d12d 15bd 02ea 09bd
00000030: 30d8 f4bd 2758 a1bd 8ff4 d7bd dd1e b9bd
00000040: 7676 30be 6a5e 25be f105 0abe d480 fdbd
00000050: 28d5 1fbd d69c 00be 4d01 d6bd ee82 203e
00000060: 6e06 77bd a391 b7bd e1cc d4bd 798b 9abd
00000070: 25f1 85bd 1f88 69bd 413c fdbd 686e 0dbe
00000080: f110 f8bd 305e 0fbe c32b dc3d 30a9 3dbe
00000090: 1698 29bd 5428 c0bd 4a35 debd 5a73 5abd
000000a0: b68e e3bd 9033 13be cb90 d43e 9b61 8fbd
000000b0: 02cd d23e 4fe0 afbd 394a ddbd da83 32bd
000000c0: 3c87 60bd cc80 46be 8212 11be 3ae3 863d
000000d0: 8a66 c53d 4ee1 c5bd cff7 c1bd 8008 4e3d
000000e0: cbb9 b6bc 7222 d4bd 4cdc 0ebe bd40 ff3d
000000f0: c27d 91bd 8871 913e b58e b9bd 0d97 11bd
00000100: cc0b d8bd a07c 2fbd 4c63 5ebd 5759 03be
00000110: 50e3 19be 41ed 4e3e 7e59 d8bd 5c47 17be
00000120: c553 cdbd d4d4 58bd 4523 b7bd ccc0 a6bd
00000130: a92d 93bd 74c1 f1bd 197e 03be bfbf 983e
00000140: cb9b a43e 886b d23d 11cb 96bd 8e18 5abd
00000150: 955b 9fbd e6fa e7bd 498a cdbd ac0a 4abd
00000160: fbb6 c23e 6d2a f4bd 4b6c 73bd 06d5 ebbd
00000170: 92d2 38bd f28c b9bd b362 3fbd 1a56 c5bd
00000180: 3fc6 e73d fb08 23bd d49c 03be 76f6 0f3e
00000190: f7f1 efbd a17f 8dbd 50d1 babd cafe d1bc
000001a0: 2f6a b5bc c19d f9bd 69d7 033e e7ce 03bd
000001b0: 9643 913e 52b9 86bd 98ed 1dbd 1810 d5bd
000001c0: 3dc1 e8bd 51ec a6bd 155b ffbd b717 1cbe
000001d0: c3d6 dbbd 8cb4 30bd 9ec1 74bd 1169 97bd
000001e0: 5cd8 92bd e2c6 7fbd 669c 38bd 8849 85bc
000001f0: b861 593d e3d7 7bbd 943a e4bd 2621 74bd
00000200: 53f1 38bd de64 a9bd a0f3 debd b535 abbd
00000210: b0e0 fdbd 53d6 c2bd f552 dcbd 9ef3 cdbd
00000220: 52bf 18be 8c99 edbd 2823 f2bd 27d5 fbbd
00000230: f85e b5bd 23fb 373e 88b6 09be 4944 39bd
00000240: d040 4e3d faa3 bdbd e790 73bd fcdb a4bd
00000250: f3fa dfbd 3727 dd3d 6236 11be c22d 40bd
00000260: fc02 3dbd b62c d6bd 9a88 8abd e4a0 13be
00000270: 3418 07be c720 0dbe 3dd1 c6bd 83a3 aabd
00000280: 0ab4 22be 586b cdbd 70cd c83e a7cb c9bd
00000290: 31b7 c6bd d4af 9bbd 61f0 dfbd 5f80 f53d
000002a0: d948 5cbe 6e14 c0bd 8a44 9fbd 0b5c 74bd
000002b0: 5e11 54bd d044 47be bce2 eebd 8496 aabd
000002c0: b29e 06be 47e4 47bd 6e7a b43e dd7f b4bd
000002d0: 40f1 17be 63fc db3c c0b9 92bd 757c bfbd
000002e0: d4e4 03be 00ff a2bc 99aa 68bd 5c01 d1bd
000002f0: f820 3bbd 39e2 adbd b14b ddbb 81de 07be
00000300: f4d8 29bd 5691 96bd 388a c2bd 0831 79bd
00000310: 75e0 273e fcb2 c3bd 64fc 09be 79b2 9cbd
00000320: b76b 6abd fcf6 05be 1bc6 18bd 7de5 fdbc
00000330: 6d43 89bd 6392 debd 58dc 57bd c077 80bd
00000340: c731 c7bd 4399 f0bd 976c fdbd 25d8 88bc
00000350: 5a0d 29bd 7237 66bd faa9 04be 73b3 06be
00000360: 12a5 03be 96b2 01be e3ca a2bd 051b 8ebd
00000370: b621 7cbd f58e c4bd 1f09 fabd 6ca7 eebd
00000380: 0f52 9bbd dc9d 82bd 7bea e13d b979 7cbd
00000390: 27df 0fbe 3723 cbbc e462 cc3e 43f2 88bd
000003a0: 6342 25bd 4bbe 10be 9598 1fbd 49a9 e2bd
000003b0: 20e6 1cbe 9ab5 b53a 5156 fcbc 6d11 f2bd
000003c0: 3499 f1bd 14eb 98bd af01 caba 8e62 4fbd
000003d0: 140d dcbd d42b f0bd 8922 febd eaa9 17bb
000003e0: e3f0 5fbd 3a62 f3bd 2417 0dbe 2b1a 76bd
000003f0: aa63 84bd f168 49bd 8da0 2d3e 257b 42bd
-0.07991256 -0.009421919 -0.1113754 -0.067411 -0.11263617 0.24935333 -0.13437498 -0.10582911
0.0013788961 -0.07874237 -0.036420647 -0.033670433 -0.11955297 -0.07878142 -0.10544693 -0.0903909
-0.1723269 -0.16149297 -0.13478829 -0.12378088 -0.03902164 -0.12559828 -0.10449467 0.15674946
-0.060308866 -0.08963325 -0.1039064 -0.075461335 -0.06540135 -0.05701458 -0.12365008 -0.13811648
-0.12112606 -0.14000773 0.107505344 -0.18521571 -0.041404806 -0.09382692 -0.10850008 -0.053332664
-0.11111204 -0.14375138 0.41516718 -0.07001039 0.41172034 -0.08587705 -0.108051725 -0.043582775
-0.05481647 -0.1938507 -0.14167216 0.06586309 0.096386984 -0.09662114 -0.09471094 0.050301075
-0.02230539 -0.103581324 -0.13951224 0.1246352 -0.071040645 0.2840693 -0.09060422 -0.035544444
-0.10549125 -0.04284346 -0.054293916 -0.12827049 -0.15028119 0.20207693 -0.10563944 -0.14773315
-0.100257434 -0.052937344 -0.08942274 -0.08142242 -0.07186443 -0.118044764 -0.12841071 0.2983379
0.3215011 0.10274416 -0.073629506 -0.053246073 -0.0778114 -0.11327152 -0.100361414 -0.049326584
0.38030228 -0.119221546 -0.059429448 -0.1151524 -0.04512269 -0.09060086 -0.046724986 -0.09635563
0.11317109 -0.039803486 -0.12852794 0.14058861 -0.11716073 -0.06909109 -0.091219544 -0.025634188
-0.022145359 -0.12188292 0.12875141 -0.03217974 0.28371876 -0.06578316 -0.038556665 -0.1040346
-0.11364982 -0.081505425 -0.124685444 -0.15243421 -0.10734322 -0.043140933 -0.05975496 -0.07393087
-0.071701735 -0.06244553 -0.04507103 -0.016270414 0.053071707 -0.061485182 -0.111439854 -0.059601925
-0.04515202 -0.08271192 -0.108863115 -0.08359853 -0.12396371 -0.09513535 -0.1075801 -0.10056232
-0.14916733 -0.11601552 -0.11823112 -0.12296515 -0.088560045 0.17966895 -0.13448536 -0.045231137
0.05035478 -0.09259792 -0.05946436 -0.08049771 -0.10936537 0.10798495 -0.14180902 -0.046918638
-0.046145424 -0.10457747 -0.06764336 -0.14416844 -0.13192827 -0.13782035 -0.09707878 -0.08331969
-0.15888992 -0.1003024 0.39219236 -0.09853297 -0.0970291 -0.07601896 -0.109345205 0.119873755
-0.21512164 -0.09378897 -0.07776745 -0.05965809 -0.051774375 -0.19459844 -0.1166434 -0.0832949
-0.13146475 -0.048801687 0.35249656 -0.088134505 -0.14838123 0.026853746 -0.07164335 -0.0934991
-0.1288026 -0.019896984 -0.05680332 -0.102053374 -0.04568574 -0.08490414 -0.006753408 -0.13268472
-0.04146667 -0.073519394 -0.094990194 -0.060837775 0.16394217 -0.09555623 -0.13475186 -0.076512285
-0.05723163 -0.13082498 -0.037298303 -0.030993218 -0.067023136 -0.10867765 -0.05270037 -0.062728405
-0.09726291 -0.11747982 -0.123742275 -0.016704628 -0.0412725 -0.05620522 -0.12955466 -0.13154392
-0.12855938 -0.12665781 -0.07948854 -0.06938747 -0.061555587 -0.095975794 -0.12208771 -0.11653027
-0.07584011 -0.063777655 0.11031052 -0.06163952 -0.1404997 -0.024797065 0.39919198 -0.06686833
-0.040346514 -0.14135091 -0.038963873 -0.11067445 -0.1532216 0.0013863326 -0.030802878 -0.1181973
-0.11796799 -0.074667126 -0.0015411879 -0.0506311 -0.10744682 -0.117271096 -0.12408931 -0.0023142048
-0.054673087 -0.118839696 -0.13778359 -0.06008355 -0.06464322 -0.049172346 0.16955777 -0.04748072

fc3.weight f4 [1, 300]
00000000: 28bc 9e3b eb64 063c bbf8 87bb ed07 9a3b
00000010: 9045 da3c 939c 5d3d cca5 0a3c 4f42 fbbb
00000020: a50a 413c ad64 a4bc 8347 643b 2c88 5a3b
00000030: 61b0 583b 1c6a c33a a1a5 62bc 894e 553b
00000040: 3b8d 9f3c 390d 783d 666e aebc eb96 363c
00000050: af71 e13a ea0f 823c f321 a9bb 4a92 803d
00000060: 8c63 123c 8cff 0fbc 1db0 81bc d30e 2bbc
00000070: e0ef e7bc f26e 21bc b994 39bd 117f dd3d
00000080: e37e b73c cafc e339 228d a63d c588 26bc
00000090: 0fb3 b9bb fe5e 41bc 040b 8a3c 0630 873c
000000a0: 210e 783c 31f3 283c 28b3 763d 6ef2 5d3c
000000b0: befd 103d dbdd dd3c 1c9e e9bc 8536 e13c
000000c0: e180 1b3b 469b 87ba 8c61 bb3b bf82 8f3d
000000d0: 51a9 363d e91f b83a 6670 a2bb 1f19 36be
000000e0: 2f8b 72ba ce98 8ebc 3464 b9bc 349d 693d
000000f0: f4f1 d1bc 1f19 033d f386 053c b5d6 1cbc
00000100: 608e 25bc 5ae5 333c 9988 cc3c 4593 8cbd
00000110: bc6a 19bb 030c 793c 8805 933a f873 28bb
00000120: 57e0 8dbc 61d0 953b ede3 1a3d f373 1339
00000130: 0510 f03a d3d5 ab3c eb3e a23c cf34 9d3d
00000140: e1cf 613d e82f 323d 4997 5c3b e034 91bb
00000150: b668 febc 26fe 0c3c 1c1a bdbc bed1 75bc
00000160: 98d5 6e3d b037 8fbc a419 5a3a df03 ac3c
00000170: 9ffd d53c e187 e8bc 5326 01be e0e6 993c
00000180: 91e2 aebd 22ee c7bc 26a4 35bb 75b9 393d
00000190: ba03 823c 1b5e e73b 7431 db3c 85c3 973d
000001a0: 6d6b ccbb ebb0 25bd 1aa4 513d aae7 0c3d
000001b0: 54c4 b43c 6e31 a03b 7df7 d7bc c5bd 6bbc
000001c0: 21db 5ebc 9174 d5bb 804f 47bc 6ed7 3c3b
000001d0: 29d4 e8bb 67a4 5b3d 7d5c 9a3c a819 85bc
000001e0: 3353 863b 4369 bcb9 32c1 1e3b 3b01 4dbc
000001f0: 6f0f 55bd 6fd9 1c3d 8ab0 05ba a1bc b6ba
00000200: 3328 173c 0079 da3c 2a4c d83c ac87 f0bb
00000210: aab3 16bb 8818 8a3c 685a dfba a6e6 16b9
00000220: db7c 43bc 690e 98bc 6144 adbc 5b3f f33d
00000230: 59bb 113c 1f96 c03c b79f 993b ebe4 a93c
00000240: 3bb2 a1bd 2de1 983c a911 c93b ba4d 973b
00000250: 8c69 e13c bc50 be3d 41fa 873c 6758 30bd
00000260: 7580 813c 0ee6 b83b 6e21 213b 040b 453d
00000270: e17d 4d3c aa34 75bd eedc d23c f558 253a
00000280: 0a85 093c 97d6 e63a 4c42 ff3c 1cae d9bb
00000290: 159f 52bc cd62 813c a851 e1bc df70 56bd
000002a0: 3469 553d c78b ccbc ea5b d73c f480 26bc
000002b0: 5ce7 803c 7158 46bc 3ff2 e9bb b36b e3bc
000002c0: f37b 653b 0cef 06bb 1123 363d 8a3f 943b
000002d0: 8e6a 12bb 34f2 a6bd 149c ad3c 32e1 d03c
000002e0: b4dd 273c 372b a0bc 4262 70bd e20b 4bbb
000002f0: 8906 51bc 5724 5a3c 95f2 febc b5f9 723b
00000300: a805 a5bc d377 22ba 83cb 9bbc c879 cb3b
00000310: 2053 963d aefa 46ba 62a0 083d 66c9 d33c
00000320: 0f05 c73c 8461 66bb bcfa 953c d1fb dbbb
00000330: 55b2 883c 9677 b8bc 1d92 f1bc d4f2 13bc
00000340: 8b6d 253c 1167 583b 92e3 e3bc 4a1e b03c
00000350: 168d ec3b 1034 ddbc 9f7f 983b 26a9 d73c
00000360: cf87 003c 6ad8 a23c 9a3d 123c 0fc2 183c
00000370: f94c 93bc 2aba 8abc f3eb 783c cd8a b4bb
00000380: bf34 5c3c 087d b33c 00f7 d83c 8fa1 263b
00000390: ac26 6a3c ab58 1b3b ff2d a03d ca49 d3bb
000003a0: 375c 89bd 6943 703c 9b73 873c 8b45 c83c
000003b0: f2ae cebc fb51 e03d ca6b 983d 1066 acbc
000003c0: 2ccf d8bb 2b52 29bd 9a2e 233d 8275 61bc
000003d0: b9d1 8bbc d7da a1ba dd8c 0c3c 5837 b43a
000003e0: 71a1 8d3c cba8 2e3b 1d0d b43b 3624 a8bc
000003f0: e42c ebbb fe7c dcbc 6f8f 353d a9bb 853b
0.0048442073 0.008202772 -0.004149524 0.004700652 0.026644498 0.0541044 0.008462381 -0.0076678167
0.011782323 -0.020067537 0.0034832663 0.0033345325 0.0033064114 0.0014908942 -0.013833434 0.0032548031
0.019476524 0.060559485 -0.021292876 0.01114438 0.0017200018 0.015876729 -0.0051615178 0.062779024
0.008934867 -0.0087889545 -0.015831048 -0.010440546 -0.028312624 -0.009853112 -0.04530785 0.108152516
0.022399371 0.00043485156 0.08132388 -0.010164444 -0.0056670974 -0.011802433 0.016850956 0.016502392
0.015140087 0.010311888 0.06022945 0.013546569 0.035398237 0.027083328 -0.028517775 0.027491817
0.002372794 -0.0010345958 0.0057184156 0.0700736 0.044595066 0.0014047596 -0.0049572466 -0.1778302
-0.00092523074 -0.017406847 -0.022630788 0.057034686 -0.025628068 0.03200638 0.00814985 -0.0095726745
-0.010104746 0.010979975 0.024967479 -0.06864027 -0.0023409566 0.015200618 0.0011216858 -0.0025703888
-0.017318888 0.00457196 0.037815023 0.00014062207 0.0018315321 0.020975983 0.019805392 0.07676088
0.05512989 0.04350272 0.003365951 -0.004431352 -0.03105579 0.008605516 -0.023083739 -0.01500362
0.058309168 -0.017482609 0.0008319861 0.02099794 0.026121913 -0.028385105 -0.12612276 0.018786848
-0.08539308 -0.024405543 -0.0027716248 0.04534288 0.015870918 0.007060779 0.02675698 0.07410339
-0.006238392 -0.040451925 0.05118189 0.03440062 0.022066273 0.004888705 -0.026363129 -0.014388506
-0.013602049 -0.00651414 -0.01216495 0.002881493 -0.0071053696 0.053623583 0.01884293 -0.016247585
0.0040992736 -0.0003593658 0.002422404 -0.0125125 -0.05201667 0.0382933 -0.0005099854 -0.0013941714
0.009225893 0.026669025 0.026403505 -0.007340392 -0.0022995272 0.0168574 -0.0017040493 -0.00014391038
-0.011931623 -0.018561559 -0.02115077 0.118773185 0.008894765 0.023509083 0.004688229 0.02073904
-0.07895323 0.01866206 0.0061361385 0.00461742 0.027516149 0.092927426 0.016598823 -0.043053057
0.015808323 0.005642659 0.0024586576 0.04810621 0.012542219 -0.059864677 0.025740113 0.0006307506
0.008393535 0.001761156 0.031159543 -0.00664307 -0.012855311 0.015794182 -0.027504757 -0.052353736
0.052102283 -0.024968995 0.026288945 -0.010162581 0.01573532 -0.012106047 -0.0071394737 -0.027761316
0.0035016506 -0.002058926 0.044467036 0.004524176 -0.0022341344 -0.08151665 0.021192588 0.025498006
0.010245729 -0.019551856 -0.058687456 -0.0030982425 -0.012757906 0.013314328 -0.031121532 0.0037075107
-0.020144299 -0.0006197665 -0.01901794 0.006209586 0.073400736 -0.0007590455 0.033356078 0.02585287
0.024294404 -0.0035153339 0.018308036 -0.0067133685 0.016686598 -0.02251796 -0.029488618 -0.009030063
0.010096918 0.0033020417 -0.027818475 0.021498818 0.007218967 -0.027002364 0.0046538855 0.026325773
0.007844879 0.019878585 0.00892582 0.009323611 -0.01798104 -0.016934473 0.015192973 -0.0055097104
0.01344031 0.021910205 0.026484966 0.0025425886 0.014291447 0.0023703973 0.07821273 -0.0064480053
-0.06707042 0.014664509 0.016534617 0.024447223 -0.025229905 0.109531365 0.07442434 -0.021044761
-0.0066164937 -0.041338127 0.039839365 -0.013760926 -0.017067777 -0.0012348545 0.008578506 0.0013749404
0.017288895 0.0026650901 0.0054947273 -0.02052508 -0.0071769822 -0.02691507 0.044326242 0.0040812087
