checkpoint_Critic.pth (torch_old, 542616 bytes, 5 tensors)

fcs1.weight f4 [400, 33]
00000000: 6638 1c3b eef0 9a3d ce5e 2fbd 7c3b 8fbe
00000010: 49c8 563e d2c5 843e 0217 bbbe f723 6cbd
00000020: d592 b4bd 9b40 b6bc 6c3e aebc 9cd2 283c
00000030: 4a37 0b3d d0ae 2ebe a39e 123d c194 a03e
00000040: ea25 5cbe a9b9 ad3e b620 c6be 31c3 c2be
00000050: 1d39 a7bc ee65 5c3d 457f 22bd b6b0 b4bd
00000060: b4af 033d 7f9e 1a3e a9d6 173e ced1 203e
00000070: 3daa 03be 767f 9a3c 9430 29be e487 793c
00000080: 32b5 2e3f 77e4 033e 4f1b 703c 3a84 88bd
00000090: 256b 913d 55cd 0abd 36d1 f4bd 9cbf f53e
000000a0: e856 7dbc 21b3 aebd 1cef 67bd c344 8f3d
000000b0: d97e 5f3c 22fa 96bc 9b1d 03be 7061 493d
000000c0: dfb4 d8bc 877d 03bf 6dab 863f be17 9e3e
000000d0: 9923 e9bc 113e ad3c e7a2 f7bc e0fe 17bc
000000e0: 8e3b 1cbc 71fc 99bb 0f3e c7bc 7bf4 ae3d
000000f0: 182a 5c3e 703e b03b 50bf b4bc eb2b 79be
00000100: d5e6 403d aca5 cf3e e365 0d3e 8613 9b3e
00000110: 709e 043c 23b8 4cbd 4dbc 883e 73a7 a5be
00000120: d1ec a8bd 89d6 48bc 896f 773d 29f3 a23c
00000130: 3c32 b13c e74a 4c3d af83 adbd d909 cbbd
00000140: d857 c43c f975 56bd 2c16 433f e187 d2be
00000150: dfaa 553e 4d07 debd 9e41 9bbc dff9 85bc
00000160: ab03 7ebc b036 3b3c a758 f33c aea0 69bd
00000170: 0982 2dbd aa51 da3e 2702 20bd e834 233c
00000180: 9ebe c4be 3062 14bd ffcb 853c a4e8 ff3d
00000190: 9547 3ebd 6483 8d3c 4541 92be 6e57 0b3e
000001a0: 2b68 493e 695d a7be 3365 4dbd 06dc c73c
000001b0: 2f1a cbbc 46e4 f63b 289a dd3b 40da 0d3d
000001c0: 018c d13c 6a76 173c 157c 713d bafa 053f
000001d0: 1ce6 3abf 850b a8be 8613 793d 4da8 413d
000001e0: 5922 1dbd 5d40 c9ba 7fac 0d3d 7329 743c
000001f0: 842f e83c 9511 3cbd 463b c03e 996a 543d
00000200: 3402 8abc 6e91 9dbe 986c 40bc ef22 1cbe
00000210: 271d 70bd 63e8 04bd 9aac 9bbe f9be 393e
00000220: 358b d6bd 8771 323e ac33 afbe a6c1 593d
00000230: 91ed 223d c3ca 78bd fcd5 503d 273a 4abc
00000240: 7e56 033d 9e8f 1bbc f1ba 453d be9e 443e
00000250: 4c89 0dbe 006b 00bc d42c 2c3e 1f61 c53b
00000260: 45d9 883b fb3a 10bc a99f 02bd 6459 853d
00000270: f1f6 843c b708 333d eabd 8c3d 0965 853d
00000280: 7257 4abd acad 0f3c d43e d5bd 6c52 8cbc
00000290: 5ea5 733f 31ef 54be 547a b43e 7349 33be
000002a0: e7ea 473c 9d9e 22bc 1dd7 7cbe 1ba7 bdbe
000002b0: 89cb 9cbc 8469 453e cdba 1ebd a330 3c3c
000002c0: 8e47 433d bbef 8e3d 31c5 783e 2a65 883d
000002d0: 4703 4b3e 1329 973e 130f 2dbe 9006 31bf
000002e0: fc05 a33e 98e5 183c d767 823d a4d9 5cbd
000002f0: 514c fc3c 0c26 d73c 5586 4abc 4bf0 0fbe
00000300: 614f af3e 38f3 e9bc fd04 1d3d fba1 9dbe
00000310: fd75 0c3d e4cc 0abf f4c3 503d b9b7 733e
00000320: 4cd9 1c3e 1bdb 9eba 9492 723e abda 51bf
00000330: 3f28 023f 4e4f a8bd a6d1 233d f631 783d
00000340: 7d1f 123d 654a 283c 0584 de3c de9f db3c
00000350: bd38 733d a8ce 5fbe 685f ff3d 07e1 d6bd
00000360: 0496 a9be f356 29bf 5dbf a3bc 7177 b5bc
00000370: 6ac9 23bd 522d 1dbc 8aab cfb9 75ba a1bd
00000380: e771 603d ab23 993e fd7b 3b3e 64d1 723c
00000390: 69d7 69be e7cc dfbc 8de1 edbe d9b1 9bbd
000003a0: ac11 293d a1bb c33d 3e9a 923d 385d c1be
000003b0: 87da 5a3f f87e 133e 17ab b3bc 346e 96bd
000003c0: 6af3 0cbd c9fe 99bc c499 41bc c2ae d6bc
000003d0: c285 c23c 1a2d 1e3d b050 6bbd ee6e d4be
000003e0: f0ce bf3e 2bf4 48bf 8648 f03e 696c aabc
000003f0: 59fa 9f3c c0f8 76bb 88d8 2e3c 094e a4b9
0.0023837327 0.07565485 -0.042815022 -0.2797507 0.2097484 0.25932175 -0.3654099 -0.057651486
-0.088170685 -0.022247603 -0.02127 0.010304119 0.033988275 -0.17058873 0.03579582 0.3136349
-0.21498838 0.3393071 -0.3869683 -0.38039544 -0.020412976 0.053808145 -0.039672155 -0.088227674
0.032149985 0.15099524 0.1482798 0.15705034 -0.1285791 0.018859606 -0.16522437 0.015230153
0.6824523 0.12880121 0.014654948 -0.06665845 0.07100514 -0.033887226 -0.11953966 0.4799775
-0.015462615 -0.0853026 -0.056624517 0.06995537 0.013641083 -0.01842982 -0.12804262 0.04916519
-0.026453434 -0.51363415 1.0521065 0.3087749 -0.028459357 0.02114776 -0.030229045 -0.0092770755
-0.009535683 -0.004699283 -0.024321584 0.08542725 0.21500432 0.005378537 -0.022063881 -0.2433316
0.04709514 0.40556085 0.13808398 0.30288333 0.008094415 -0.049980294 0.26706162 -0.32354316
-0.08248294 -0.01225818 0.060409103 0.019891338 0.021630399 0.04987612 -0.08472382 -0.09913988
0.023967668 -0.0523586 0.76205707 -0.41119292 0.20865963 -0.10841236 -0.018952187 -0.0163545
-0.015503804 0.011426613 0.029705359 -0.057038 -0.04236034 0.4264043 -0.039064553 0.009961344
-0.3842668 -0.03622645 0.016332624 0.124955446 -0.046454985 0.017274566 -0.28565422 0.1360757
0.19668643 -0.32688454 -0.05014534 0.024396908 -0.024792759 0.0075345365 0.0067627616 0.034631968
0.025579454 0.009244541 0.058956224 0.52335703 -0.7300737 -0.3282129 0.060809635 0.047279645
-0.038362835 -0.0015354265 0.034588333 0.01490246 0.02834297 -0.045915205 0.37545222 0.051859472
-0.016846754 -0.30775017 -0.011744641 -0.15247701 -0.05862155 -0.032448184 -0.30405122 0.18139257
-0.104757704 0.1742612 -0.3421911 0.053163193 0.039777342 -0.060740244 0.05098532 -0.012342966
0.032064907 -0.00949469 0.048273984 0.1920118 -0.13821906 -0.007838011 0.16813976 0.0060235406
0.004176291 -0.008803125 -0.031890545 0.065111905 0.016231032 0.043709483 0.06872161 0.065134116
-0.0493998 0.008769434 -0.10412374 -0.017129146 0.95174205 -0.2079437 0.3524958 -0.17508487
0.012202001 -0.009925512 -0.24691434 -0.37041554 -0.019140022 0.19278532 -0.038752366 0.011486205
0.04767566 0.06979319 0.24293973 0.066599205 0.19825469 0.29523525 -0.16900282 -0.6915064
0.31840503 0.009332083 0.06367462 -0.053918496 0.03079811 0.02626326 -0.012361129 -0.14056508
0.3424025 -0.028558359 0.038334835 -0.30787644 0.03429221 -0.5421889 0.050968125 0.23800553
0.15317267 -0.0012119742 0.23688728 -0.81974286 0.5084266 -0.08218251 0.03999486 0.06059452
0.03567456 0.010271643 0.027162561 0.026809629 0.05938028 -0.21856177 0.12469369 -0.10492139
-0.33122265 -0.661483 -0.01998871 -0.02215168 -0.039987005 -0.009593325 -0.00039609923 -0.07896892
0.054796126 0.29910025 0.18309017 0.01482043 -0.22836079 -0.027319385 -0.46461144 -0.07602281
0.04127662 0.09557272 0.071583256 -0.37766433 0.85489696 0.14403903 -0.021932168 -0.07345238
-0.034411825 -0.018798249 -0.011816446 -0.026206378 0.023745421 0.03861723 -0.057449996 -0.41490883
0.37462568 -0.7849757 0.4693033 -0.020803647 0.019528555 -0.0037684888 0.010671742 -0.00031338658

fcs1.bias f4 [400]
00000000: 7e18 58be 5e0a 99be eb44 79be 021f a7be
00000010: 2c87 77be ff1b eabe f713 cdbe a591 fbbe
00000020: 4b77 a9be c00d 56be d794 7dbe 7ca6 66be
00000030: 7a86 e7bc a0e8 cdbe 28cb fbbe 2c6b dabe
00000040: acd0 b8be f99e 3ebe 0482 bbbe 852c b6be
00000050: 94eb e0be 7c47 68be 8f20 653b 7c9d f7be
00000060: d817 b1be c8af 9bbe 7ad5 f7bd e9f2 b6bc
00000070: a4b1 9dbd 5671 03be feda 05be 85b2 45be
00000080: b52a 9abd aa17 d0be 5c75 3bbe 4dfd a5be
00000090: 31f7 f3be 9c7d 97be 7212 b5bd 6c95 26bd
000000a0: cd35 d33d 0936 1bbe 5b26 0c3d 2d1a afbe
000000b0: 0c0e 35be 0a03 a0be 12bf 64bd 66c9 83be
000000c0: 86b9 39be af60 cabe 642c 8fbe 78b5 9fbd
000000d0: 79e0 0abc 7407 37be fbd4 abbe 492a 0bbe
000000e0: 5793 8cbe 5138 b4be e148 cebe 468e a1be
000000f0: 24cc 64be 97d0 7fbe 2a79 a3bd 6291 adbe
00000100: 466f 5cbe b83e 23be fb77 2ebd 8f48 eebe
00000110: 63d8 b4be ad7e 80be bcf6 9dbe 562f b7be
00000120: ad60 8fbb 6563 ccbe b683 b43d d300 263b
00000130: d02c f0be 37d9 f2be 57f8 b93e 774e 80be
00000140: 5da7 70be 279b d6be 0135 abbe 88d6 b4be
00000150: ca86 c0be 441b b7bd f6e3 43be 4cc5 69be
00000160: 32b9 83bd a9a1 acbe ae64 83be 023c b8bd
00000170: e847 d1be ade9 8abe d639 72be 2c2b b9be
00000180: 1bbd 81be 0a5b 1fbe 776d 9abd b7b3 11bd
00000190: cd11 d8be 3142 acbd c343 b2be 2c71 8d3e
000001a0: 06e1 42be c597 6d3e 8c6a 513e 4925 9fbe
000001b0: 21c4 64be f8aa aabe 32c3 183d 4860 e2be
000001c0: 0d09 eabe 1979 e8bd 648f 0abe 997c 90be
000001d0: d6a5 c7be 0576 95be 02a7 12bf 175a a8be
000001e0: 4325 e9be c249 06bf ea15 fdbe d208 7fbe
000001f0: e668 c1be 99cf 4ebe 22fe 3ebe a4f3 86be
00000200: 4bcc 8bbe c2b6 46be 786c 07bf 625a da3d
00000210: 2ed6 df3c b473 5ebe 0281 26be 8159 65be
00000220: 2109 d53c 1c0b 90be faf8 e6bd 8ef7 7bbe
00000230: 14db 34be 7beb a9be 04c0 a1be 9125 d4bd
00000240: 71ce b4be 3555 d5be fe8c a9be cc4f 98be
00000250: fd1f 2cbf 16f8 a0be 1405 b7be 746e a1be
00000260: 16a3 e5be fa96 0bbe 48b4 e0be 3e0e 19bf
00000270: 823a 87be 8d70 5abe cf26 8fbe 6157 d5be
00000280: dbb3 b7be 229c 48be 670c 85bd a0c8 3d3d
00000290: 4873 ae3e a834 98be a01e 5fbe 119f b0bc
000002a0: 2de0 f7be 20ac b4be 4922 cfbe 1c6d 15bf
000002b0: a81d e8be 2d78 f0be 2d6e 05be c476 9fbe
000002c0: e72f d5be ae7b 2bbe cd58 17be 2dd9 a0be
000002d0: 1438 20be d805 bcbd 845c 2fbe 6560 73be
000002e0: c0e5 0fbe 6c54 52be 3f2f a8be d3ba 2f3c
000002f0: 83b0 e03e ca7f 2cbe 930a f5be 9fa9 05bf
00000300: 7005 9abe e2a3 b2ba 6f1a aebe 39d3 a1be
00000310: 7c3a 92be 6207 a8be 6ddd 67be 49d0 adbe
00000320: 285c bdbe b4b2 b2be 376e f7be 0e41 e4be
00000330: 98c8 edbe fcbd b2bc feaa 8ebd 8df4 c9be
00000340: 5ddd 5f3d 467b 033e ab97 e9be f79f 2fbd
00000350: 58e6 0abe aee3 05bf 9ab9 1f3d a42b d7be
00000360: c5c2 eebe b43c 5abe efe0 2abd 65da 273f
00000370: 4630 dabe 50e7 cabe 7664 a2be 6738 a7be
00000380: 069d 3f3f e766 8fbe ae8c 49be 1343 bfbd
00000390: 77cf 333d a3da 80be f960 93be d41c 8bbe
000003a0: 4431 29bd 51a7 b2be d313 1ebf 0988 04be
000003b0: ea4d 08be f404 c4be 4e3b e8be 5681 9bbe
000003c0: 874c cebc e109 05bf 226d 9a3e 0d5a 173e
000003d0: 4e25 bbbe 56bd cebe a625 8fbd 5ebe 5cbe
000003e0: 5cc0 b7be 1957 efbe a507 8cbd cbd5 a1be
000003f0: 793c e5be 9c7d 01bf d2f1 82be cb2f 5cbe
-0.21103093 -0.29890722 -0.24342696 -0.32640845 -0.24172658 -0.45724484 -0.40054294 -0.49134555
-0.33098826 -0.20903683 -0.24763809 -0.22524446 -0.028262366 -0.4021654 -0.49178433 -0.4265989
-0.36096704 -0.18615331 -0.36622632 -0.3558084 -0.43929732 -0.22683519 0.0034962033 -0.4836234
-0.34588504 -0.30407548 -0.12101264 -0.022332625 -0.07699898 -0.12836203 -0.1307182 -0.19306381
-0.07527677 -0.40643054 -0.18306488 -0.32419816 -0.4764953 -0.2958802 -0.08841409 -0.040669844
0.10312996 -0.15157332 0.034216266 -0.34199658 -0.1768114 -0.3125232 -0.05584628 -0.25739592
-0.18137178 -0.3952689 -0.27963555 -0.07798284 -0.00847637 -0.17873937 -0.3356093 -0.1359035
-0.2745616 -0.35199216 -0.40289977 -0.3155386 -0.22343498 -0.24981914 -0.079820946 -0.3389998
-0.21526822 -0.15941894 -0.04259489 -0.46539733 -0.3532134 -0.25096646 -0.30852306 -0.35778302
-0.0043755383 -0.39919582 0.08814184 0.002533008 -0.4690919 -0.47431347 0.3632228 -0.25059864
-0.23501344 -0.41915247 -0.33438876 -0.35319924 -0.37602836 -0.089407474 -0.19129929 -0.22829169
-0.064318076 -0.33717087 -0.2566275 -0.089958206 -0.40875173 -0.27131405 -0.23654875 -0.3616575
-0.2533959 -0.15562072 -0.0754041 -0.03557178 -0.4220108 -0.084110625 -0.34817323 0.27625406
-0.19031152 0.23202427 0.204508 -0.31083134 -0.22340442 -0.33333564 0.037295528 -0.44214082
-0.4571003 -0.113512225 -0.13531262 -0.2822006 -0.3899371 -0.29191604 -0.57286084 -0.32881233
-0.4553624 -0.52456295 -0.49430782 -0.24905708 -0.37775344 -0.2019638 -0.18651631 -0.26357758
-0.273043 -0.19405654 -0.52899885 0.106617704 0.027323809 -0.21723825 -0.1626015 -0.22397424
0.02600533 -0.28133476 -0.11277957 -0.24606153 -0.17661697 -0.3318747 -0.3159181 -0.10358728
-0.35313752 -0.4166657 -0.3311538 -0.2974838 -0.6723631 -0.31439275 -0.35746062 -0.31529582
-0.44850987 -0.13631812 -0.43887544 -0.59787357 -0.26411825 -0.21331997 -0.27959296 -0.41668227
-0.35879406 -0.1959081 -0.06496506 0.04633391 0.34072328 -0.29727674 -0.21789026 -0.021560224
-0.4841322 -0.3528757 -0.40455845 -0.5836961 -0.45335126 -0.46966687 -0.1303031 -0.31145298
-0.4163811 -0.16746399 -0.14779969 -0.31415692 -0.15646392 -0.09180802 -0.17125136 -0.2376724
-0.14052486 -0.20540017 -0.32848546 0.010725695 0.43884668 -0.16845623 -0.4785963 -0.52211946
-0.30082273 -0.0013629163 -0.34004542 -0.31606463 -0.28560245 -0.32818133 -0.22643061 -0.3394797
-0.36984372 -0.34901965 -0.48326275 -0.44580883 -0.46442103 -0.021819107 -0.06966208 -0.3944439
0.054654468 0.12839994 -0.45623526 -0.042877164 -0.13564432 -0.52300537 0.038995363 -0.42025483
-0.46632972 -0.21312219 -0.04171842 0.6556762 -0.42614955 -0.39629602 -0.3171727 -0.3266022
0.74848974 -0.28008196 -0.19682571 -0.09338965 0.043899026 -0.25166807 -0.28784922 -0.27170432
-0.04130675 -0.34893277 -0.61749 -0.12942518 -0.13310972 -0.3828503 -0.45357746 -0.30372113
-0.025182975 -0.519682 0.30161387 0.14780445 -0.365519 -0.40378827 -0.06989603 -0.21556994
-0.35888946 -0.46746138 -0.068373956 -0.31608424 -0.447727 -0.5058229 -0.2557512 -0.21502607

fc2.weight f4 [300, 404]
00000000: 54a6 3f3f 78fb 113f 4d84 d0be 0c7b c3be
00000010: ebf1 713f 7b79 aebf 3de1 cd3d 396f 73bd
00000020: 55af e7be 6f8c 893d 426e 26bf fad3 c63e
00000030: 9037 1c3e ca6b b9bf 9047 20c0 6b12 a4be
00000040: ebb6 04c0 458d 7ebf fba0 2abf a6a6 7bbe
00000050: cb8a 17be 5d1a 90bd f0eb 133f 7914 e5bf
00000060: 3cea 143e 97d4 eabf 3f3c 37bf bf6b 17bf
00000070: 94f7 dd3e 8a11 653e 324b f73b bcd8 56bf
00000080: d8b0 8cbe 89ae aebf ea9b 9bbf a46f e7bf
00000090: 9ea3 32be bcf7 1fbf cc21 babe bdc2 153f
000000a0: 426c 203f 2527 32bc 5363 8d3c be4a 4abe
000000b0: 4a3f 96be 150c 93be 1154 3a3f 0f31 b5bf
000000c0: 5967 833e 6209 c8be 801d 0fbf c7ca edbe
000000d0: 6bd5 69bf b664 e0bd dae4 debf 29f6 273e
000000e0: 950d bdbf 3c6e 80bf fecf 39be b163 babe
000000f0: 14fd 6a3e ae5a a9bf 41da 8c3e eb87 0f3c
00000100: a52b 4dbf 6fae 0c3f 4ebc 42bf 9774 17bf
00000110: 3046 33bf 0001 56be 41e2 13bf a0fc 4ebf
00000120: 2a6e 44bf 2b66 423e f1d1 06bd 5834 bcbf
00000130: 5d01 9d3e 560a f7bf ebb5 ac3e d258 60bf
00000140: 9ce8 d1bd 073f 33bf f439 2bbf 51c7 b5bf
00000150: 17e5 75bf 96a9 bbbf 6130 66bf 084b a3bf
00000160: 004c 83bb 7274 d8be d837 28bf b896 15bf
00000170: bd24 59bf 9eba abbf 01ec 98bf 75ed 103e
00000180: e418 75bf 9b5a ecbe 2262 8d3b 2943 40be
00000190: 65ef f2be 61ca 3fbf 02fe 3dbf a457 b53e
000001a0: 6c45 893e cc70 153d 936a 91bf 8c7f 77bf
000001b0: 5bd3 d6be 4339 5dbf 4957 b1bf da22 fcbb
000001c0: 6330 7abf 05ae 1ac0 3393 0fbf fc02 87be
000001d0: 66a9 89bf 0857 1cbe 7883 79bf b69d 23bd
000001e0: 0df8 e9be e13c aabf 69ef 35bf cf4c 573d
000001f0: 6a0c 44bf c860 9c3e b69c a1be 174d b7bf
00000200: 2b20 03bf d414 8dbd bb59 c0bf 9405 a0be
00000210: 8755 b3bf 1e54 53bf e8eb 26bf 6b12 86be
00000220: 94b9 6abe 5f65 bbbf 6ac0 0dbf 0304 18bf
00000230: dfff c7bf d9ea b3bf 8421 713a e5d8 54be
00000240: 708e c5bf e732 a1bf 8723 f9bf 699c e7be
00000250: 638b babf e26c 92bf e3ee 7bbf 0abe 2ebe
00000260: 3b85 df3d 76d7 a5be 38e0 87bf 79f6 21bf
00000270: 232d 903e 2bb3 2a3d 82e7 9dbc 00a3 9cbe
00000280: 7fd6 7c3e c453 04bf 67a1 8a3e 7ab3 2dbe
00000290: d08e 98be 8f77 1dbd 93da 2cbf 251b a5be
000002a0: 3832 54bf 0265 4c3e 5d0a 04bf 50e2 8abf
000002b0: 0e87 febf 217c 343e 533b babf e3e9 14bf
000002c0: 5e5c f2bd 7167 61be 7fa3 133e e311 d4be
000002d0: ad71 a1be caff aa3d e1bb 12bb 1492 59bf
000002e0: f694 583d 8bf7 8bbf ff9e 32be 1755 a5bd
000002f0: e3af bfbc 1927 04bf b388 94bf 1906 50bf
00000300: 2c5a bfbf 1f18 16c0 c5a9 b8bf 43aa 49bf
00000310: d360 6bbe 22c6 053c d890 73bf 3f3f 21bf
00000320: 0abc 50bf 5de6 7bbf 9a46 6abf 2eb0 be3e
00000330: fb6f 80bf c45a 95bf aaf6 013f 01a1 acbf
00000340: 84d1 a5bf ed9c 5dbe 59cc e6bd fe6b bcbd
00000350: bb75 90bf 957b f2be 84e9 c0be eeda 95bf
00000360: 44fe 5cbf 3364 55be d085 2cbe db4b 5bbe
00000370: ce05 30bf 4fbc c6be 9bb7 3cbe 4b33 febf
00000380: dfaf 013f 7edb c4be 2fce aebe b3d8 2fbe
00000390: 4633 72bd f98f 01bf c75a 9fbf 188a 2fbf
000003a0: 28ce a4bf c31b 2bbf 4ecf 5c3e 6cc7 f9bc
000003b0: 3f7d 92be 12bd 10bf 895c 95bf a452 4fbf
000003c0: c584 1ebe 832c 71be be35 cb3e 6373 dabf
000003d0: b83f aebf 73db 15bf 16ea 6cbf dec7 87be
000003e0: 1923 72bf e79a febf 1274 c73c a8e8 10bf
000003f0: 6acf 52bf 841a 0fbf 0a52 83bf 6c3c 5c3e
0.7486317 0.57024336 -0.40725937 -0.38179815 0.9450976 -1.3630823 0.100527264 -0.059432242
-0.45250955 0.06716239 -0.6501199 0.388336 0.1525557 -1.448602 -2.5043678 -0.32045302
-2.0736644 -0.9943431 -0.66651887 -0.2457529 -0.14799039 -0.070362784 0.5778189 -1.7896873
0.14542478 -1.8346127 -0.71576303 -0.5914878 0.4335295 0.22369972 0.007546806 -0.8392446
-0.2747867 -1.3647014 -1.2156956 -1.8080945 -0.17445228 -0.6248739 -0.3635391 0.5850027
0.6266519 -0.010873591 0.017259276 -0.19755074 -0.2934516 -0.28720155 0.72784525 -1.4155596
0.25664786 -0.3906966 -0.5590439 -0.4644377 -0.91341275 -0.10956709 -1.741359 0.16402496
-1.476977 -1.0033641 -0.18145749 -0.36404184 0.22948104 -1.3230798 0.27510265 0.008760433
-0.8014472 0.54953665 -0.7606858 -0.59162277 -0.7002897 -0.20898819 -0.5776711 -0.80854225
-0.76730597 0.18984286 -0.03291506 -1.4703474 0.30665103 -1.9300029 0.33732542 -0.8763553
-0.10249445 -0.7001805 -0.66885304 -1.4201452 -0.9605269 -1.4661129 -0.8991757 -1.2757273
-0.0040068626 -0.4227634 -0.6571021 -0.58433104 -0.84821683 -1.3416326 -1.1947023 0.14153083
-0.95741105 -0.46162876 0.004314677 -0.1877562 -0.4744827 -0.7491818 -0.7421571 0.35418427
0.26810777 0.036484525 -1.1360649 -0.96678996 -0.41958126 -0.864155 -1.3854762 -0.0076945843
-0.9773008 -2.4168713 -0.56083983 -0.26369464 -1.0754821 -0.15267575 -0.9746623 -0.039945327
-0.4569706 -1.3299829 -0.71068436 0.052563485 -0.7658144 0.30542588 -0.31564873 -1.4320401
-0.5122096 -0.06888738 -1.5027384 -0.31254256 -1.4010476 -0.8255023 -0.65203714 -0.26185927
-0.22922355 -1.4640311 -0.55371726 -0.5938112 -1.5624961 -1.4056045 0.00091984146 -0.20785864
-1.5434093 -1.2593659 -1.9463967 -0.4523652 -1.4573787 -1.1439478 -0.9841139 -0.17064682
0.109140836 -0.32390946 -1.0615301 -0.6326671 0.28159437 0.041674774 -0.01927543 -0.3059311
0.24691199 -0.51690316 0.27076265 -0.16962996 -0.29796457 -0.038444098 -0.6752102 -0.32247272
-0.8288913 0.19960406 -0.51578313 -1.0850315 -1.9884965 0.17625476 -1.4549354 -0.5816938
-0.11834024 -0.22012116 0.14417838 -0.41419896 -0.3153204 0.08349569 -0.0022389817 -0.8498852
0.052876435 -1.0934919 -0.17443465 -0.0807287 -0.023399299 -0.5162216 -1.1604217 -0.81259304
-1.4949393 -2.3452222 -1.442681 -0.78775424 -0.22986154 0.008164914 -0.9514289 -0.6298713
-0.81536925 -0.9839838 -0.9151398 0.3724379 -1.0034174 -1.1668324 0.50767004 -1.3486634
-1.2954564 -0.21641894 -0.11269445 -0.092002854 -1.1285928 -0.4735991 -0.37678158 -1.1707437
-0.8632548 -0.20839004 -0.1684792 -0.21415655 -0.6875886 -0.38815543 -0.18429415 -1.9859403
0.50658983 -0.3844871 -0.3414168 -0.17172508 -0.05913093 -0.5061031 -1.2449578 -0.6857009
-1.2875414 -0.66839236 0.21563455 -0.0304906 -0.2861118 -0.565385 -1.1668864 -0.80985475
-0.15480335 -0.23552136 0.3968944 -1.7066463 -1.3613195 -0.5853798 -0.92544687 -0.26519674
-0.94584805 -1.9891022 0.024347339 -0.56605005 -0.8234774 -0.55899835 -1.0259411 0.21507424

fc2.bias f4 [300]
00000000: 6d35 b03e e724 043e 826b bbbd 8ad8 cf3d
00000010: 97aa 9d3c fc71 11bd 73ad 90bc 4991 f3bd
00000020: cc33 57bd 0e33 bbbd c62d 3bbe 74d7 a43e
00000030: 3465 2dbd 55ef 2b3e a1de d1be fd9f 74bd
00000040: e046 38bd ff03 753e 2a16 f0bd 919e 7abe
00000050: b96a 0d3f 0bf0 80bd 384b 20bc 0c84 14bf
00000060: f576 0ebe cbed f8bd 96c2 13be bf88 6abd
00000070: 34cf a0bd fb07 6cbe 7740 01be ae40 503f
00000080: 88dc e3bc 1537 0e3f b213 a4bd 5a33 36bf
00000090: d643 c13c 7caa 013e 2f13 073d dc1d 53bd
000000a0: 4cf6 b5be d115 58bd 411b eabe a6b0 ce3d
000000b0: 6d2a 343e bee0 ccbe dab2 d3be b40f 613f
000000c0: f116 89be f168 aebd 3c11 8f3e 7645 04be
000000d0: 6895 333f 0d0c 883e 0b2e 06be 3fdc 7b3e
000000e0: e386 2abd 9cc5 2fbe 0619 16be dfeb d83d
000000f0: 99ee c6be 6026 44bc 06ac 3ebd f42f 413e
00000100: 4993 2fbe da30 91be c8e8 2b3c a15e a23d
00000110: c827 1d3d 6c7e bcbd 335c 96bd e595 03be
00000120: a120 333e e539 453f 93b4 1bbd f996 eabe
00000130: ec6c 43be c631 ebbd c1d0 08be 4518 9e3e
00000140: ab43 a33e 5ace b3bd 1518 15bd 2a47 bc3e
00000150: c9db 433d 256c 073f 502b ca3d fdcc c4be
00000160: e007 093f 94e8 123e fb58 2fbc 62ef 003f
00000170: 3759 2abe 39d0 1dbe 4075 9bbd d745 28bd
00000180: c5dd 253f 987d 06bc 9bdb 69be 7a75 9bbd
00000190: 9d21 8d3e 1172 2bbe 8a48 0bbb 4c49 b43e
000001a0: 0e45 2ebd f0da 0bbe 7ae4 423d 8bd1 1bbf
000001b0: 486c cbbe f51a 1a3c 63a8 013e 09aa 1abc
000001c0: e9c4 dd3d bace 583e 00c6 64bd fe3f 87be
000001d0: e063 21be 5325 193f bd40 8a3c 8b3e af3e
000001e0: 4764 2a3c b51b 05bd b0ee 4f3d b2b1 7c3e
000001f0: ed5e 21be e3dd 91be b05b c1bd 928d e63c
00000200: c206 ba3e 4ee9 f03c 269e 01be c25d febd
00000210: c2f7 56bd 5b71 84bd 69e7 63bd fbc9 03be
00000220: 6152 12be 9a7b 1bbf 4b28 9b3e 2fd6 133d
00000230: 7378 fb3e 60d2 513b b5e1 d83e 7f47 a0be
00000240: 74f7 ef3e 2ff6 fc3d 8a67 8dbe 91d1 3bbd
00000250: 50ef 45be e422 b63e 6cd8 aabe 9086 83bd
00000260: bb0f 9abd f7ea 2abd 408b 3cbe 6665 cdbd
00000270: a697 30be c6e4 febd 495b d73d d3d3 a6bc
00000280: 90ef f33e d13c 483d 7c4d ff3e fbf3 d7be
00000290: 4ddb adbe 0573 b5be 367d 92bd 4f8e a83d
000002a0: 5c7e aabd 23e4 35be 1e23 2e3d b995 83ba
000002b0: d804 61be af3b b53c dc39 89bc 7bf6 92bd
000002c0: 9cf9 4bbd 5f1a 5cbe 2d80 34bd 967a cf3c
000002d0: 7007 49be 20d9 13bd f540 71bd 164f 5bbe
000002e0: 0468 8abe f111 3cbe 1876 38bf fe8b 12bd
000002f0: c0f8 8ebe 8dfb e9bd 5302 31bb 8651 11be
00000300: 100a 92be 3687 bbbe 6064 27be edf3 0e3f
00000310: d969 97be ff6a bf3e 0680 e6bd 3bc3 e03d
00000320: 13d1 b1bd c328 f23d 4bad 363c fabc 803e
00000330: b82d c1be 1a21 da3d 2720 7ebe e8f0 bc3e
00000340: 48ba 4f3f dd65 c33e fe46 7dbe dacd 033f
00000350: 4da5 fa3c e90d 8a3e 9f63 02be bf00 dabd
00000360: 311b 70be 2185 3a3e a85c 84bd 69b5 0e3f
00000370: 826a a4bd 4413 3bbe 33b4 3bbe 08ca 573c
00000380: bdf0 7d3d c9ae e43e 8a34 973e 0242 0ebd
00000390: 70af b93e 404d 583d 12f7 26bd fb45 cfbe
000003a0: 213e 313e dae3 1d3d 74bd 313d d4fc b6bd
000003b0: fb6a 06be a8fb d23e f582 1bbd 6268 acbe
000003c0: daa9 bf3d e205 143f f59d d33c e8d3 31be
000003d0: 1962 48be a401 2c3f db49 c8bd a1a8 abbe
000003e0: 6e27 f6bc 27b7 b4bc f981 0dbd 858c b6bd
000003f0: 76e5 9c3e cb40 093c 1953 debd a16f 8cbe
0.3441576 0.12904702 -0.09151365 0.101487234 0.019246383 -0.035509095 -0.017660832 -0.11892945
-0.05253963 -0.09140597 -0.1827918 0.32195628 -0.042332843 0.16790517 -0.40990165 -0.05972289
-0.044989467 0.23927306 -0.117229775 -0.24474551 0.5524097 -0.062957846 -0.009783559 -0.5801399
-0.13912566 -0.121547304 -0.14429697 -0.057259317 -0.07852021 -0.2304992 -0.12622248 0.81348693
-0.027815118 0.555528 -0.08011569 -0.71172106 0.023591917 0.12662691 0.03297728 -0.051542148
-0.35539472 -0.05275518 -0.45723918 0.10092287 0.17594309 -0.40015215 -0.4134739 0.87914586
-0.26775315 -0.0851611 0.27942836 -0.12917122 0.7014985 0.26571694 -0.13103501 0.24595736
-0.041632544 -0.17165226 -0.14657983 0.10591864 -0.3885391 -0.01197204 -0.046550773 0.18865949
-0.17146029 -0.28357583 0.010492511 0.07928205 0.038368016 -0.092038006 -0.07341804 -0.12850149
0.17492916 0.77041465 -0.038014006 -0.45818308 -0.19084519 -0.11484103 -0.13360883 0.3087789
0.31887564 -0.08779593 -0.03639992 0.36773044 0.047817025 0.5289939 0.098715425 -0.38437644
0.5352764 0.14346534 -0.010702367 0.5036527 -0.16635595 -0.15411462 -0.07590723 -0.04108223
0.6479152 -0.008208655 -0.22837679 -0.07590766 0.27564707 -0.16742732 -0.0021252953 0.3521217
-0.042546324 -0.13657737 0.047581173 -0.6086661 -0.3973105 0.009405841 0.1266189 -0.009439954
0.10828573 0.2117261 -0.05585289 -0.2641601 -0.15760756 0.5982258 0.016876573 0.34227404
0.010399885 -0.032497127 0.05076474 0.2467716 -0.15758868 -0.284896 -0.09441316 0.028143678
0.3633328 0.029408123 -0.12657985 -0.12420227 -0.052482374 -0.06466933 -0.05564061 -0.12870018
-0.14289238 -0.60735476 0.3030418 0.036092933 0.49115333 0.0032016262 0.423597 -0.31304547
0.4686848 0.12351643 -0.27618057 -0.045854155 -0.19329572 0.35573494 -0.33368242 -0.0642215
-0.075225316 -0.041727986 -0.18412495 -0.10029106 -0.1724535 -0.12445979 0.10515458 -0.020364678
0.4764371 0.048886124 0.49863803 -0.4217833 -0.33956376 -0.35439315 -0.07152788 0.08230268
-0.083248824 -0.17762809 0.04251396 -0.0010039128 -0.21974504 0.022123186 -0.016751222 -0.07175919
-0.049798593 -0.21494435 -0.04406755 0.025327008 -0.19631743 -0.03609574 -0.05889984 -0.21416888
-0.27032483 -0.18366219 -0.72055197 -0.03577804 -0.27924156 -0.11424933 -0.0027009442 -0.14191255
-0.28523302 -0.36626595 -0.16346884 0.5584095 -0.29572943 0.3738632 -0.11254887 0.10974737
-0.08682456 0.11824181 0.011149715 0.25144178 -0.37730193 0.10650845 -0.24816953 0.36902547
0.8114362 0.38163653 -0.24734113 0.5148598 0.0305964 0.26963738 -0.12733315 -0.106446736
-0.23447873 0.18214847 -0.06462985 0.5574556 -0.08028127 -0.18269068 -0.1833046 0.013170727
0.061997164 0.446646 0.29532272 -0.03473092 0.3626666 0.052808046 -0.04076297 -0.40483078
0.17308857 0.038547374 0.043393567 -0.08934942 -0.13126747 0.41207623 -0.037966687 -0.33673388
0.093585685 0.57821476 0.025832156 -0.17365992 -0.19568671 0.67190003 -0.09779712 -0.3352709
-0.030048098 -0.02205999 -0.03454778 -0.08913521 0.30643815 0.008377264 -0.10855693 -0.27428916

fc3.weight f4 [1, 300]
00000000: 4fee 813d aeb1 113c a74d 55bf cc6c cd3c
00000010: 5b68 b0bd ee15 2abf 399c 66be cd72 e4be
00000020: ef08 f0be e2d7 26bf 596c ecbc 80bb 1c3c
00000030: f71b 3abf 6e16 863c a82c dd3c 8b3a 943c
00000040: cef8 0dbf 1dc8 243d 0b87 f9be 3b88 7d3d
00000050: 2b2a 92bc bbc0 86bd 7bbc 65be c4e5 af3c
00000060: 0623 91be 5c44 3bbe 6520 d6be ea4c 0fbe
00000070: a857 9fbe afab c0bd 5f27 febd 36fe 7c3e
00000080: 6c9e e9bd 07f0 623d 19e2 38be 78da 3a3c
00000090: 1734 8bbf 35d6 323d 9993 263c 1abf 59bf
000000a0: fe9f 103c bb51 473d 2c26 99bd 929c dc3b
000000b0: 1228 c1bc 1581 1f3d 806b 2a3c ebb5 8c3e
000000c0: 6142 9dbd 87e8 c4be 3db3 903c b8ca 913c
000000d0: 255e dd3d 19c9 a03c 8333 b5be e7aa fb3c
000000e0: 932e 26bf 5559 8e3c 9e12 92be 975f c83c
000000f0: a283 023c 2380 a03c c8a5 48bf 699f 1f3d
00000100: 0270 1a3d 45b0 3c3c 540a 8bbd 0dae 473d
00000110: e13e a2be e383 3fbe 7511 cf3c f255 a9be
00000120: ea23 333c b6d5 643e 51a8 2dbf c606 db3c
00000130: b643 92be dabf 9ebe 7aa2 e4be 277b 613d
00000140: 7cb5 c53c 57eb 67be 847a fbbe acac 7a3d
00000150: b4be 43be 6081 3f3d 050e fdbd 4f76 0b3c
00000160: c840 4e3d 7ebe ad3c f6a0 4cbf 838a ec3c
00000170: f768 a23b 61cb 213c d410 8e3c 4047 2ebf
00000180: 9517 3c3d 3217 7b3d a9cf a83e b7c9 d1be
00000190: 8bd7 28bc 1e79 733b 66c1 2dbe 323a 1b3d
000001a0: f5f7 dfbe d30f 973c 96a9 6dbf 03c5 163c
000001b0: e531 a73c 874b 9b3c 99e4 b73c d2da 14bf
000001c0: 97a3 08be 05b5 37bc d40b 72be c4b4 45be
000001d0: 197a fcbe 74cf 183d 9643 0cbe 9c68 8d3c
000001e0: 40f4 36bf e52f 04bf 4871 523b a8be c43c
000001f0: cb46 e7be b7ba 983c c85b 00bf 47bb 08bf
00000200: 2a09 363d 12e2 91bc d1a0 5b3c 4edd 7fbe
00000210: 97ae 6bbe 8aa4 dcbe bb87 adbe 16e0 05bf
00000220: 11cd 1ebf d52d 643c 57a7 363c c651 973c
00000230: 605e ea3c a3c5 3cbf 7ad5 1ebd 34f7 423c
00000240: 00b2 1f3d 6a88 203c 4f79 6b3b 3065 6bbf
00000250: 0bfc 12bf fded a53b e1d9 edbc 27e5 efbe
00000260: 1ecd 05bc e95e d2be e8b8 093c 78ab f33c
00000270: 243b 8b3c 9505 813c 07cb bf3b d8b9 fcbe
00000280: 9df9 343d f0bd 5e3d 930a cd3c 371e 503c
00000290: 3611 533d ee1c b13c 4a6e 65bf b258 0f3d
000002a0: fc6f bc3c ef03 aabe 316b 19bd 81b5 16bf
000002b0: 6e1f e73c 1498 6bbc 0b96 80bf 3558 bf3c
000002c0: 3dfd a0be 2725 ba3b def7 95be c1cb 193d
000002d0: cbc4 c1be 5b9e 83be df83 40bf 248c 883c
000002e0: 2f62 a23b f43b 093e be96 7b3c 2a1a 2dbf
000002f0: 9475 d53d 4a6e ddbe f15e dabe 6844 95be
00000300: 1212 f93b 6908 353d b8ff a83b 08c0 5c3c
00000310: 46d4 7cbd 6f12 ca3c b868 a7be 27af 933b
00000320: 8082 1cbc 3860 0e3c de93 29bf 0fca 0c3c
00000330: f559 923c 818f 573c 2757 67bd bc8d 54bc
00000340: 989b 6b3e 8788 883c ba9d c93d be01 c03c
00000350: 1e1b 0dbf b8f5 b93c 42d4 c9be b59e 10bf
00000360: 4f3b b83d 643b 52be 475b 6dbf 385e 313d
00000370: ae83 5abf 8ac2 83be 4730 2dbd 64dc 57bf
00000380: b6df 3abf be89 473d aedf 823c baf8 02bd
00000390: a250 803c bace 2cbf df7e 36bf 188e 513d
000003a0: 64c4 7b3c d94e 7bbf 498d 2cbe 385a abbe
000003b0: 40f3 823c d67e 69bc a7bb b33a 1dc8 173c
000003c0: 65ad b13c 3836 753d 62ff 1cbf 6528 72be
000003d0: f2cd cbbd 0289 353e b78e 4abf a7c9 e73c
000003e0: 60d3 ebbe dfd7 e9be 55bd b1be a421 4fbf
000003f0: 0280 e13c 82cd 623c 393f 4dbe ad56 9b3c
0.06344282 0.00889246 -0.83321613 0.025076292 -0.08613654 -0.6643971 -0.22520532 -0.44618836
-0.46881816 -0.6517316 -0.028860258 0.009566188 -0.7269892 0.016368117 0.026998833 0.018094322
-0.5545777 0.040229905 -0.48735842 0.061897498 -0.017842373 -0.06579729 -0.22435181 0.021471865
-0.28347033 -0.18287796 -0.4182159 -0.13994184 -0.31121564 -0.09407746 -0.12409853 0.24706349
-0.1140717 0.05540469 -0.18055 0.011404626 -1.0875272 0.043661315 0.010167026 -0.8505722
0.008827208 0.04866193 -0.07477984 0.006732532 -0.023578677 0.03894146 0.010401607 0.27482542
-0.076786764 -0.38458654 0.017663592 0.01779686 0.10808972 0.01962714 -0.35390863 0.030721141
-0.64914817 0.017376581 -0.2852983 0.024459643 0.007965954 0.01959235 -0.7837796 0.038970385
0.037704475 0.011516635 -0.06789079 0.048749972 -0.31688598 -0.18702655 0.025276879 -0.33073384
0.010933856 0.22347149 -0.67834955 0.026736628 -0.28567284 -0.31005746 -0.4465521 0.055049088
0.02413439 -0.22648369 -0.4911691 0.06119983 -0.19115716 0.04675424 -0.1235619 0.008512094
0.05035475 0.021208998 -0.79933107 0.028874641 0.0049563604 0.0098751495 0.017342009 -0.6807747
0.045920927 0.061301418 0.32970932 -0.4097421 -0.010305296 0.003715105 -0.16968307 0.037897296
-0.43743864 0.018440163 -0.9283689 0.009202245 0.020409534 0.018956913 0.022447871 -0.58146393
-0.13343655 -0.011212592 -0.23637325 -0.19307238 -0.49311903 0.037307218 -0.13697657 0.017261796
-0.71466446 -0.5163558 0.0032110978 0.024016693 -0.45171198 0.01864372 -0.5014005 -0.5341076
0.044442333 -0.017807994 0.013405041 -0.24986765 -0.2301582 -0.43094283 -0.33892617 -0.52295053
-0.62031657 0.013926943 0.011148295 0.01847161 0.028609455 -0.7373907 -0.038777806 0.011899758
0.038988113 0.009798149 0.003593046 -0.91951275 -0.5741584 0.005063771 -0.029034557 -0.46854517
-0.0081665795 -0.41088036 0.0084059015 0.029744849 0.016995974 0.015749732 0.00585306 -0.49360538
0.044183362 0.054380357 0.025029456 0.012702516 0.051530086 0.02162024 -0.8962141 0.034996696
0.023002617 -0.33206126 -0.03745574 -0.58870703 0.028213229 -0.01437952 -1.004579 0.02335749
-0.31443205 0.0056806984 -0.2929067 0.03754783 -0.37845454 -0.25706753 -0.7520122 0.016668387
0.004955552 0.13401777 0.015355764 -0.6761805 0.10422817 -0.43248206 -0.4265056 -0.29153752
0.007601031 0.044197474 0.005157437 0.013473518 -0.061725877 0.024666993 -0.32697082 0.004506964
-0.009552598 0.0086899325 -0.6624125 0.008593096 0.01786516 0.013156773 -0.0564796 -0.012973245
0.23008573 0.016666664 0.09844537 0.02343833 -0.551195 0.022700176 -0.39419752 -0.5649217
0.08995687 -0.20530468 -0.92717403 0.043302745 -0.8535718 -0.2573436 -0.04228237 -0.84320664
-0.72997606 0.048715346 0.0159758 -0.031975485 0.015663449 -0.6750294 -0.7128734 0.0511609
0.015366647 -0.98167187 -0.16850771 -0.3346727 0.015985131 -0.014251431 0.0013712541 0.009264019
0.021689126 0.05986616 -0.61327183 -0.23648222 -0.0995139 0.17728046 -0.79124016 0.028294398
-0.46059704 -0.4567251 -0.3471476 -0.80910707 0.02752686 0.013842942 -0.20043649 0.018962229
