checkpoint_Critic.pth (torch_old, 542616 bytes, 5 tensors)

fcs1.weight f4 [400, 33]
000000 c2 8d 82 3f 8f 04 53 be 6b 62 11 3f 9b 31 49 bd
       1.0199511 -0.20607208 0.567908 -0.049119573
000010 8d 6c 21 3e 8f cb cc 3f 25 43 9f 3e 0a a3 c3 be
       0.15764065 1.5999621 0.31105915 -0.38210326
000020 e9 45 1a 3f c5 e3 18 bf 18 4f f5 3e ec e7 48 3c
       0.60262924 -0.5972255 0.47911906 0.012262326
000030 c6 bb 11 be 86 33 75 be 0e 07 8e 3e 52 8e 84 bd
       -0.14231786 -0.23945436 0.27739757 -0.06472458
000040 0e ee 87 be ba 81 75 3e 50 19 84 bd db 18 33 bf
       -0.2654881 0.23975268 -0.064501405 -0.699598
000050 da e4 bb bd 24 d5 3b 3e 26 bb 54 3c 62 90 bb be
       -0.09174509 0.18343025 0.012984073 -0.36633593
000060 a7 2f ae 3e 08 ab 07 3f db 4f d1 3e 6d b6 0b 40
       0.3402073 0.5299535 0.40881237 2.1830094
000070 3e fe 89 3e 76 7f 9a 3c 25 3c 0c c0 e4 87 79 3c
       0.26951784 0.018859606 -2.191171 0.015230153
000080 5a 7f 7a 40 db 60 3f 3e 32 22 7d be c5 6c bd 3f
       3.914023 0.18689291 -0.24720076 1.4798819
000090 e3 51 e0 3e 66 42 6b 3f 49 eb 85 3e 77 f2 fc be
       0.43812475 0.9189819 0.2615607 -0.49403736
0000a0 67 e9 37 3e 3b 2b 34 3f eb 07 9d bf c2 dc 56 be
       0.1796013 0.70378464 -1.2268041 -0.2098265
0000b0 37 58 a1 be 58 d3 ff be bc 8d 0c bd ce 4e 11 3f
       -0.31512615 -0.4996593 -0.034314856 0.5676087
0000c0 b4 18 26 bf b6 5d 9f 3e 68 89 e2 3f 2f 5b 94 bf
       -0.64881444 0.31126183 1.7698183 -1.1590327
0000d0 05 8b 6a 3f 25 de aa 3e 6c 61 05 bf df 77 82 be
       0.91618377 0.33372608 -0.5210178 -0.2548208
0000e0 4d 07 fc be fd ab 8e 3e 93 21 12 be 19 0a 4d 3e
       -0.4922432 0.27865592 -0.1427062 0.20023383
0000f0 17 d3 30 40 0b f2 11 3d 50 bf b4 bc 77 a3 32 c0
       2.762884 0.03563122 -0.022063881 -2.791227
000100 d5 e6 40 3d 71 6e c9 3f 43 9a 84 3f 00 eb 1a bf
       0.04709514 1.5736829 1.0359577 -0.6051483
000110 2c 94 1b 3e a4 e2 a1 bf 30 5b a0 bf 1c 76 81 bf
       0.15193242 -1.264729 -1.2527828 -1.0114169
000120 c4 0b 25 3f b8 2a 54 bf 9e 01 8b 3d 16 4b 93 3e
       0.6447108 -0.82877684 0.06787418 0.28768224
000130 47 ba 3d 3e 3d 6e cf 3d 8d 82 de be cf fc 58 bf
       0.1852809 0.10128448 -0.43458977 -0.84760755
000140 f2 c6 2b 3f 8c 4b 38 be 72 bb a3 3f 19 d7 b4 3f
       0.6710044 -0.17997569 1.2791579 1.4128143
000150 d2 42 53 3f 56 ad bb bf 46 5c 43 be 9e c3 a9 be
       0.82523835 -1.4662273 -0.19078168 -0.33157057
000160 5c 8f 77 be d6 6b 99 bd 07 18 34 3e 78 7a d3 be
       -0.24175781 -0.07491271 0.1758729 -0.41304374
000170 e7 52 62 be ef cf 07 40 46 a8 c3 be e8 34 23 3c
       -0.22101937 2.1220663 -0.3821432 0.009961344
000180 83 1d 05 c0 30 62 14 bd e3 6a a4 3e 3d 18 b8 be
       -2.0799263 -0.03622645 0.32112798 -0.35955992
000190 9e 02 aa bd c1 da a5 bd cf b1 11 be 7b 39 66 bf
       -0.083012804 -0.080983646 -0.14227985 -0.8993146
0001a0 13 f0 42 c0 99 fb 66 3f eb d1 03 bf 60 51 9f 3c
       -3.045903 0.9022766 -0.51492184 0.019447982
0001b0 a6 7a 31 be f1 f9 5a bd a8 f4 6d bd aa 93 de 3d
       -0.17331943 -0.05346102 -0.05809465 0.108680084
0001c0 66 d5 e1 bd d7 cf 2f 3e 57 75 c1 3e 19 a1 59 3f
       -0.11027031 0.17169128 0.37784836 0.8501144
0001d0 52 e6 dc be 72 2d ed 3e 79 a9 89 3f 8f 57 3e bd
       -0.4314447 0.46323735 1.0754844 -0.04647022
0001e0 d9 51 fe 3c bf 43 86 3e be c5 8c be 00 66 60 3d
       0.031044887 0.2622356 -0.27494615 0.054784775
0001f0 c8 04 de bd 39 e9 ab be 1a ca 2b 40 01 b2 60 be
       -0.10840756 -0.33576372 2.6842103 -0.21942903
000200 34 02 8a bc d0 74 27 c0 98 6c 40 bc 8f 27 a6 40
       -0.016846754 -2.6165047 -0.011744641 5.192329
000210 99 16 70 3e 77 7b 91 3f 10 5e 82 3f 49 f9 eb bd
       0.2344612 1.1365803 1.0184956 -0.11522157
000220 26 0f 02 3f c2 b6 db be 5c c1 a5 bf 3e bb f2 bc
       0.50804365 -0.4291287 -1.2949634 -0.0296303
000230 ed 44 60 be 1d f1 e5 be ff b9 39 be 83 66 36 3d
       -0.21901293 -0.44910517 -0.18137358 0.044531357
000240 87 44 1c 3e e9 9d 4b bf bc 1d 0a be fb 54 87 3e
       0.15260516 -0.79537827 -0.13487905 0.26432022
000250 aa 36 1d bd 9a 5c fe be 6b 08 e0 3d 62 ee db 3e
       -0.03838221 -0.49680024 0.109391056 0.4295531
000260 4b 97 03 3d 48 33 72 3d ff 3b a7 3d cf d0 1c bf
       0.032126706 0.059130937 0.0816574 -0.61256117
000270 a6 b3 6f 3e 8a 7c 9a be 5c 8b 56 3e a6 db 07 40
       0.23408374 -0.3017314 0.20951599 2.1227813
000280 1b 30 ac 3e ac ad 0f 3c 86 5a 0a c0 6c 52 8c bc
       0.33630452 0.008769434 -2.161775 -0.017129146
000290 a9 b8 8b 40 21 b1 a3 be fc 73 ed 3e f6 0d 07 bf
       4.3662915 -0.31971076 0.46377552 -0.5275568
0002a0 fb 4c 32 bf 72 04 b7 bf 4b f7 b1 be fe 6d 51 3e
       -0.6964871 -1.4298232 -0.34758982 0.20452115
0002b0 dc 96 5e be 72 74 ee 3e bc 3a a7 bf 92 fa d6 be
       -0.21737236 0.46573216 -1.3064799 -0.41988045
0002c0 29 10 fb 3e 39 5c ff be 02 0d e3 bd 47 1b 5c 3f
       0.49035767 -0.49875048 -0.110864654 0.8597912
0002d0 b1 3b 5d 3f ec 80 74 3d b4 d1 4f bf a2 19 f1 be
       0.86419207 0.059693262 -0.81179357 -0.4708987
0002e0 db ec 08 bd 72 ec 38 3f 74 d4 7a 3e 57 c4 4d 3e
       -0.033429008 0.72235787 0.24495107 0.20094429
0002f0 05 b0 cd be 7d 88 dd 3e da 45 34 3d bc a7 10 3e
       -0.40173355 0.43268195 0.04401193 0.14126486
000300 88 43 f5 3f 18 91 17 bf fd 04 1d 3d 8a d8 f0 bf
       1.9161234 -0.5920577 0.038334835 -1.8816082
000310 fd 75 0c 3d b9 5a ad bf d5 0c 9a be bd d4 76 3e
       0.03429221 -1.3543311 -0.30087915 0.2410459
000320 0f 73 a0 bd 86 6e 5b c0 21 f9 8a bf 57 5e 31 bf
       -0.07834446 -3.4286208 -1.0857278 -0.69284576
000330 67 72 84 3f 8f a4 8d be 42 de 52 3e db b8 38 be
       1.0347413 -0.2766461 0.20592597 -0.18039267
000340 39 f0 07 3e d1 eb 01 3e c8 16 30 be d7 9a 98 be
       0.13275231 0.12687613 -0.1719619 -0.29805633
000350 13 6e 45 3e e9 15 e6 3e f9 00 3d bf 83 4a a7 bf
       0.19280271 0.4493859 -0.7382961 -1.3069614
000360 80 ca aa 3d 8a 74 3d 3e 87 48 cf 3c 39 73 ed bc
       0.08339405 0.18501487 0.025303138 -0.028985607
000370 a4 57 e0 bd a2 85 e9 bd f7 75 e5 3d a0 be 2d be
       -0.10954216 -0.114024416 0.11204141 -0.16967249
000380 e9 de 15 3f 11 1c ce 3f 7a 81 58 bf 64 d1 72 3c
       0.5854326 1.6102315 -0.84572566 0.01482043
000390 91 0e c5 bf e7 cc df bc 3e 10 03 c0 fd e6 09 be
       -1.539507 -0.027319385 -2.0478663 -0.13467021
0003a0 eb 9b 00 bf 7b 0b b6 be 09 2a 4c 3f 6c 89 78 be
       -0.5023791 -0.35555634 0.7975164 -0.24271172
0003b0 7d c2 a6 bf 1b 81 4f 40 c3 c2 ef bd 29 f8 26 bf
       -1.3028103 3.242255 -0.1170707 -0.6522241
0003c0 94 44 84 3e 60 10 bd bd c1 c9 82 3e 22 b9 10 3e
       0.2583357 -0.09231639 0.2554455 0.14133123
0003d0 ad 5f 63 bb d9 c0 49 3f c8 ab 38 3e 74 c1 0a 3f
       -0.0034694478 0.7880989 0.1803428 0.54201436
0003e0 c6 72 1c 3f 23 81 34 40 a9 81 74 bf 58 33 21 be
       0.6111263 2.8203819 -0.95510346 -0.15742242
0003f0 af 5d 3b 3d 10 d3 c4 bd 72 fd 77 bd f5 1c 64 bd
       0.04574364 -0.096105695 -0.06054444 -0.055691678

fcs1.bias f4 [400]
000000 a9 2a 0f c0 db 31 36 c0 a9 34 f8 bf 90 a6 28 c0
       -2.2369788 -2.846793 -1.9391071 -2.6351662
000010 1c 29 13 c0 85 fb 01 c0 95 18 db bf 4f 2b f0 bf
       -2.299384 -2.0309765 -1.7116877 -1.8763217
000020 e2 c0 ca bf 8f a1 0d c0 1c 3f f9 bf a9 ae 37 c0
       -1.5840113 -2.2129858 -1.9472384 -2.8700354
000030 39 87 0d c0 fd 6d c1 bf 2b c5 23 c0 88 3a 8b bf
       -2.2113783 -1.5111691 -2.5589092 -1.0877237
000040 86 21 d1 bf f1 03 02 c0 c8 13 eb bf 09 76 20 c0
       -1.6338356 -2.0314906 -1.8365412 -2.5072043
000050 fa 70 35 c0 0e 75 3d c0 67 b5 2b c0 3f fe 35 bf
       -2.8350205 -2.9602695 -2.682947 -0.71091074
000060 19 df c4 bf 06 7a f1 bf d0 54 ed bf 7b bc 1c c0
       -1.5380584 -1.8865364 -1.8541508 -2.449004
000070 96 93 9e bf b6 f9 f6 bf 4f 53 22 c0 be 21 a4 bd
       -1.238879 -1.9294956 -2.5363348 -0.08014248
000080 78 64 09 c0 1e 56 10 c0 56 d2 ac bf 26 7c 27 c0
       -2.1467571 -2.2552562 -1.350169 -2.6169524
000090 03 0e 1c c0 80 bc c8 bf d5 48 fc bf 1f e0 fb bf
       -2.4383552 -1.5682526 -1.9709727 -1.9677771
0000a0 0d 1a 3a c0 96 66 08 c0 8f 9f e5 bf ce 95 1a c0
       -2.90784 -2.1312613 -1.7939318 -2.4153934
0000b0 aa cb 8f bf 78 d1 04 c0 b8 b5 c9 bf c2 40 06 c0
       -1.1234028 -2.075285 -1.5758581 -2.0977025
0000c0 2d 70 15 c0 0c d1 9e bf 4b 7e 7d bf 2e 72 0d c0
       -2.3349717 -1.2407546 -0.9902083 -2.210094
0000d0 4d 06 a1 bf c5 de 07 c0 a0 aa d1 bf 3c 32 2c c0
       -1.2580048 -2.1229718 -1.6380196 -2.690566
0000e0 fd b0 eb bf d2 9d 1a c0 08 36 aa bf 14 62 21 c0
       -1.8413388 -2.4158826 -1.3297739 -2.5216112
0000f0 78 7f b1 bf e4 3b 2a bf b4 73 ca bf 67 9f b1 bf
       -1.3867025 -0.66497636 -1.581656 -1.3876771
000100 05 bc a8 bf 8e 4a 1b c0 a9 71 13 c0 38 fe af bf
       -1.3182379 -2.4264255 -2.3038123 -1.3749456
000110 dc 95 8c bf b1 8c 17 c0 c0 42 07 c0 94 da c0 bf
       -1.0983233 -2.3679621 -2.113449 -1.5066705
000120 47 14 f4 bf 54 a5 29 c0 8a c6 13 c0 5a 78 9c bf
       -1.9068688 -2.6507158 -2.3089929 -1.2224228
000130 9f 93 05 c0 9f f6 f9 bf 8c e6 6e bf 89 05 31 bf
       -2.087135 -1.9528388 -0.93320537 -0.6914907
000140 2b 14 e0 bf 95 db 03 c0 fa 23 ee bf 25 59 11 bf
       -1.7506155 -2.0602772 -1.8604729 -0.5677665
000150 11 aa 1a c0 19 59 44 c0 ff 4c eb bf f4 c9 63 c0
       -2.41663 -3.067938 -1.8382872 -3.5592012
000160 f2 27 73 c0 e1 b2 f1 bf 16 26 3c c0 07 92 15 c0
       -3.799313 -1.8882715 -2.9398246 -2.3370378
000170 ac 2b 9e bf bf 37 0d c0 02 6a ba bf 7c 1c 14 c0
       -1.2357078 -2.2065275 -1.4563601 -2.3142385
000180 b8 e6 b5 bf 46 3d 07 c0 c7 fb 97 bf 13 63 d9 bf
       -1.4211035 -2.1131148 -1.1873711 -1.698336
000190 e1 e6 23 c0 db 02 e5 bf c1 97 c0 bf c8 8d d9 bf
       -2.5609667 -1.7891496 -1.5046312 -1.6996393
0001a0 89 8b 44 c0 92 eb 9f bf ba c0 5c bf 98 d0 f4 bf
       -3.0710166 -1.2493765 -0.8623158 -1.9126158
0001b0 2b fc 0a c0 71 9f 3e c0 eb e9 fa bf 50 93 14 c0
       -2.171641 -2.9784815 -1.9602636 -2.3214912
0001c0 2b 7c ec bf f5 97 02 c0 8a da e9 bf 7e 7f 07 c0
       -1.8475393 -2.0405247 -1.8269818 -2.1171565
0001d0 66 cc 62 bf 23 df fa bf cd 68 f7 bf 9b 73 07 c0
       -0.8859314 -1.9599346 -1.9328858 -2.116431
0001e0 9a b3 13 c0 70 8d 1a c0 7b f5 97 bf 7a 7c 9b bf
       -2.307837 -2.4148827 -1.187179 -1.2147362
0001f0 e2 80 02 c0 87 66 ad bf 62 17 a7 bf 62 98 03 c0
       -2.0391164 -1.3546914 -1.3054011 -2.0561757
000200 dc 98 07 c0 b0 30 ea bf eb e4 02 c0 c8 25 eb bf
       -2.1187048 -1.8296108 -2.045222 -1.8370905
000210 4c 06 0a c0 f3 6d cd bf 9d ef c3 bf b9 f6 02 c0
       -2.1566343 -1.6049179 -1.5307499 -2.0463088
000220 9e 92 14 c0 9b 88 25 bf 7e 70 1d 3d 45 c5 32 c0
       -2.3214488 -0.6466157 0.03843736 -2.7932904
000230 ad 64 a5 bf 32 58 fb bf b3 75 42 c0 02 52 01 c0
       -1.2921349 -1.963629 -3.0384338 -2.0206304
000240 32 7e fe bf fb 94 18 c0 43 03 59 c0 36 11 93 bf
       -1.9882262 -2.384093 -3.390824 -1.1489627
000250 48 a4 38 c0 3c a7 04 c0 63 c3 d9 bf 12 61 8a bf
       -2.885027 -2.0727072 -1.7012752 -1.0810874
000260 cb 2a dd bf 58 77 17 c0 3b a2 9d bf 69 36 f9 bf
       -1.7278684 -2.3666592 -1.2315134 -1.946973
000270 6a 3b 1e c0 78 d1 2b c0 58 7f ca bf 02 6e 14 c0
       -2.4723763 -2.68466 -1.5820112 -2.3192143
000280 12 f9 0c c0 95 cc d5 bf 8f bb 2a c0 24 8c 04 c0
       -2.202702 -1.6703058 -2.6676977 -2.0710535
000290 4d db e9 bf 42 6d c7 bf 7e 87 4e c0 fc b0 ba bf
       -1.827005 -1.5580218 -3.2270198 -1.4585261
0002a0 13 43 c2 bf f4 1e ab bf 23 c3 23 c0 46 76 d0 bf
       -1.517672 -1.3368821 -2.5587852 -1.6286094
0002b0 6d 5e 05 c0 d0 ca 02 c0 d2 a4 2a c0 51 09 84 bf
       -2.0838883 -2.0436287 -2.6663098 -1.0315343
0002c0 26 65 da bf fa d2 e0 bf 75 3d d2 bf 08 c1 e1 be
       -1.7062118 -1.7564385 -1.6425005 -0.44092584
0002d0 86 e2 15 c0 13 b1 16 c0 e3 93 e8 bf d0 56 38 c0
       -2.341951 -2.3545578 -1.8170131 -2.8802986
0002e0 80 9d e2 bf 02 4f 61 3e 94 cc 12 c0 16 7c 0f c0
       -1.7704315 0.22002795 -2.2937365 -2.2419486
0002f0 40 6e 25 bf 1e b1 38 c0 79 1f 13 c0 40 45 5e bf
       -0.64621353 -2.8858104 -2.298796 -0.8682442
000300 d1 75 36 c0 1e c1 25 c0 a5 d1 6d bf 45 f2 fc bf
       -2.850941 -2.589912 -0.9289802 -1.9761435
000310 5f 0f 07 c0 46 90 12 c0 73 85 15 c0 7c 9e bf bf
       -2.1103132 -2.2900558 -2.33627 -1.497024
000320 38 54 36 c0 29 95 53 c0 bb ad 5c c0 e9 2a 0e c0
       -2.8488903 -3.305979 -3.4481037 -2.221369
000330 d1 84 5b c0 3c c7 d5 bf f5 82 0e c0 65 74 fd bf
       -3.4299815 -1.6701427 -2.226743 -1.9801146
000340 eb 43 2a bf fb 90 0f c0 c1 c8 18 c0 02 98 fb bf
       -0.66509885 -2.243224 -2.387253 -1.9655764
000350 44 be b6 bf 64 05 15 c0 7b 0e 06 c0 a9 22 de bf
       -1.4276814 -2.328454 -2.0946338 -1.7354327
000360 e9 a2 0d c0 a3 6d 04 c0 82 63 10 c0 af eb 19 c0
       -2.2130682 -2.0691917 -2.2560735 -2.40501
000370 dc 7a 2f c0 18 39 d2 bf d1 b5 6a bf 02 20 47 c0
       -2.7418737 -1.6423674 -0.9168368 -3.1113286
000380 e8 d9 b0 bf 74 23 f3 bf 6c dc 00 c0 67 e6 e3 bf
       -1.38165 -1.8995194 -2.0134535 -1.7804688
000390 d9 1e 6e bd c9 f2 5b c0 0f f2 11 c0 4c 8a 36 c0
       -0.058134887 -3.4366934 -2.280399 -2.852191
0003a0 73 d4 35 bf 8e 69 37 bf ef 7a 0b c0 ad c7 62 3f
       -0.71027297 -0.7164544 -2.1793783 0.8858593
0003b0 85 97 2b c0 23 24 ad bf 45 cc 07 c0 a7 c9 09 c0
       -2.681123 -1.3526653 -2.1218426 -2.152933
0003c0 de cb 14 c0 1c e6 1b c0 6c 75 e1 bf 76 5e aa bf
       -2.324943 -2.4359198 -1.7613959 -1.3310077
0003d0 3b 14 08 c0 55 b7 2d c0 af 28 36 c0 70 f3 d4 bf
       -2.1262348 -2.7143147 -2.8462331 -1.6636791
0003e0 34 bc 0c c0 3f c2 13 c0 e6 49 f8 bf c9 16 a6 bf
       -2.198987 -2.3087308 -1.9397552 -1.2975703
0003f0 eb 9d e0 bf 57 16 27 c0 31 8a 05 c0 2e 25 1a c0
       -1.7548193 -2.6107385 -2.0865595 -2.4085193

fc2.weight f4 [300, 404]
000000 5e 9d b5 3c 4e e0 d2 bc ed 95 69 bd 33 64 6b bc
       0.022169765 -0.025741722 -0.057027746 -0.014367151
000010 ce 6a ed bb 82 50 1d 3c 89 ed 55 bd d1 11 fe 3c
       -0.007245398 0.009601714 -0.052228484 0.031014355
000020 6a f0 56 3d 39 25 20 bc f5 4d 62 3c dc fa bb bc
       0.05247537 -0.0097745 0.013812532 -0.022946768
000030 15 5f 77 3c cf e1 02 3a ed 65 8a bd dd 1e 7d bd
       0.015098353 0.00049927545 -0.06757722 -0.06179701
000040 7d c3 44 3b a8 f0 83 bc cd 33 5c 3c a7 34 9b bc
       0.0030023747 -0.016105965 0.013440085 -0.018946005
000050 e0 7c 0c bc 8e f7 27 bd 80 6f 58 bd b4 b0 63 bd
       -0.008574694 -0.04100757 -0.05284071 -0.05558844
000060 6d b6 86 3c 44 bb 3d bd 46 81 f0 bc fe e9 bc bd
       0.01644441 -0.04632117 -0.029358517 -0.09224318
000070 ab ef aa bd 5c a4 5a bd 47 84 7b 3c ea 7f 90 bc
       -0.08346494 -0.0533794 0.015351362 -0.01763912
000080 ce 27 9d bd c4 a2 4c 3c 94 6b f0 bc c4 f5 46 3c
       -0.07673608 0.012489978 -0.029348172 0.012143556
000090 18 17 5a bd 1c 33 29 bd 42 79 18 bd c3 c7 91 bd
       -0.05324468 -0.041308507 -0.037225015 -0.0711818
0000a0 02 5d ee bb 53 59 37 bd e9 68 45 bd d6 25 7c 3b
       -0.007274271 -0.04476292 -0.048195753 0.00384747
0000b0 5d 5e ae bd 37 1e fb bb 90 7d 85 bc 7d 66 73 bc
       -0.08514092 -0.007663514 -0.016295224 -0.014855978
0000c0 42 ad cd ba 55 39 1d bd b3 1a f1 bc a1 ae 36 bd
       -0.0015691894 -0.038384754 -0.029431676 -0.044600133
0000d0 a6 c6 99 bc 9c 05 81 bd 3f b7 b0 3c 51 a2 a7 bd
       -0.01877148 -0.06299898 0.021571754 -0.08185256
0000e0 62 dd 55 bc ee 32 18 bd 20 fc 93 bd 5c 25 13 3d
       -0.01305327 -0.037157945 -0.072258234 0.0359243
0000f0 25 fe 7e bd 3a b5 e9 bd b7 84 90 bb d4 e1 30 bd
       -0.06225409 -0.11411519 -0.004410352 -0.043184116
000100 86 5e 29 bd 6e 50 b7 ba 16 6f 9b bd ef b3 78 bc
       -0.04134991 -0.0013985762 -0.07589547 -0.015179618
000110 2c d4 68 3b 05 e6 8a 3b 85 52 b0 bc 72 14 8f 39
       0.0035526855 0.0042388462 -0.021523723 0.00027290318
000120 e5 80 d3 3b e0 6c 29 bd bb 8f 43 bd 68 5b 2d 3d
       0.0064545744 -0.041363597 -0.047744494 0.0423235
000130 7a 41 eb bc 62 f5 8d bd 7e b4 b1 bc 28 e6 54 bd
       -0.028717745 -0.06931569 -0.02169251 -0.051977307
000140 dd d3 d0 bd de 91 67 3c 06 12 0a be db ab 18 be
       -0.1019666 0.014133899 -0.13483438 -0.14909308
000150 9a 49 cd bd 57 d5 24 3b 59 2f 37 3d ed 0e cf bd
       -0.10023804 0.0025151575 0.04472289 -0.10110269
000160 08 06 a8 3c 7f 97 8f bd 69 4c 73 3c 9a cd 4c bd
       0.020510688 -0.070113175 0.014849761 -0.050000764
000170 19 cf 86 bd 65 58 09 bd cc 91 dd bd b9 6d 51 bd
       -0.065824695 -0.033531565 -0.10818824 -0.05113003
000180 1e d9 ad bd 91 71 03 be 70 15 0a be 1e 47 86 bc
       -0.084886774 -0.12836291 -0.1348474 -0.016391333
000190 c4 c7 03 3d 37 85 39 bd 75 da 67 bd bf 9a 48 bc
       0.032172933 -0.04529306 -0.05660482 -0.012243926
0001a0 08 d6 c9 3c 1a c0 9f bd 5d e8 9d bc a6 cb 93 bd
       0.02463819 -0.07800312 -0.019275839 -0.07216577
0001b0 0a 4a c2 bc b0 6d 38 3b 77 b0 00 3d 3f 59 0c bc
       -0.023716945 0.002814155 0.03141829 -0.0085662
0001c0 62 79 95 bb a6 7a c7 bd 1d af 16 be 41 e5 93 bd
       -0.004561589 -0.0974019 -0.14715238 -0.07221461
0001d0 de bc 11 bc 39 36 71 bd 03 72 a3 bd 8e ee 71 bd
       -0.008895127 -0.0588896 -0.079807304 -0.059065394
0001e0 5f ee 16 3c 3b 1e 5c bd 42 be 28 bd c7 fc a6 bd
       0.009212106 -0.053739768 -0.04119707 -0.08153682
0001f0 46 6d a1 bd 26 27 db 3c 29 ee a5 bd 91 f6 ae 3c
       -0.078821704 0.026752066 -0.08102066 0.021357806
000200 23 9d 1a 3c 59 47 b4 bd b1 57 f6 3c ab 44 4c bd
       0.009436878 -0.08802671 0.030071111 -0.049870174
000210 38 89 91 3b 5c 3c 15 bd c5 50 a8 3c 50 99 33 bd
       0.0044414066 -0.036434516 0.020546326 -0.043847382
000220 13 81 71 bd 54 71 ef 39 d8 13 e2 bd cb 53 19 bc
       -0.058960985 0.00045670068 -0.11038941 -0.009358357
000230 16 49 4f bd f3 1f b4 bc 69 de 3c ba 31 85 9c bd
       -0.05060681 -0.02198789 -0.00072047726 -0.07642592
000240 f4 d2 1d b8 0f 3c 9f bd 64 0f cc 3b 22 60 76 bd
       -3.7628182e-05 -0.07775127 0.0062274206 -0.060150273
000250 5f dc 40 3c 74 e9 09 bd 06 5e e5 bc 71 43 41 bd
       0.011771291 -0.033669904 -0.027998935 -0.047183458
000260 a8 7f 1b bd bb b6 87 bc d6 e5 c8 3c c5 55 85 bd
       -0.03796354 -0.016566625 0.024523657 -0.065105
000270 6b 8f 18 be c6 b6 1b bd 44 75 a3 bc 0f 67 81 3d
       -0.1489846 -0.038016103 -0.019953378 0.06318485
000280 ac 5a 9b 3c 2c e9 e4 bc 50 91 9d 3b b8 cf 28 bd
       0.018964134 -0.027943216 0.0048085824 -0.04121372
000290 bb 2e 97 bd 23 5b da 3c 91 6c 75 3c eb 2a de bc
       -0.0738196 0.026654785 0.0149794975 -0.027120074
0002a0 22 df cd bd d5 46 18 bd b9 bb ab bc cc 20 43 bd
       -0.10052325 -0.037176926 -0.020963537 -0.0476387
0002b0 1b 59 e2 bc e5 94 2d bd 1d 86 36 bd 2d 3d ed bc
       -0.02763038 -0.042378325 -0.044561494 -0.028959835
0002c0 b2 79 13 bc eb dd 01 3c 90 3d 61 bd 4c 17 87 bc
       -0.009001182 0.0079264445 -0.05499035 -0.016490601
0002d0 4e 38 0c bb c9 41 41 3c 7f 30 f9 3a 50 2b 67 bd
       -0.0021395865 0.01179547 0.0019011645 -0.05643779
0002e0 b4 2e 33 3d 86 88 14 3c cb 41 3e bd c3 c5 86 bd
       0.04374571 0.009065753 -0.046449464 -0.06580689
0002f0 1f 93 21 bc 18 b8 5b 3d 84 bd ab bc f5 11 52 bc
       -0.009861737 0.053642362 -0.020964392 -0.012821664
000300 44 5f 33 bd be b4 b9 bd e1 17 f7 bc 29 ba 0b 3d
       -0.043792024 -0.09067677 -0.030162754 0.034113083
000310 3b a7 0f bd be 36 bf bc bb 5f 4d bd b7 db e3 bc
       -0.035071593 -0.023341533 -0.050140124 -0.02781473
000320 7b 8b 53 3d dc b2 74 bd 11 7c ca bb 62 80 65 3c
       0.05164669 -0.059740886 -0.0061793406 0.01400766
000330 2f 3b 9f bd 70 8b a7 bc 1b 7c 1e bd 49 b3 f1 3c
       -0.0777496 -0.020452231 -0.038692575 0.029504435
000340 58 14 a0 bd 90 8c 17 3d 8e 7e 06 bd 7d 2a 19 bd
       -0.0781638 0.036999285 -0.032835536 -0.037394036
000350 9d 4b 29 bc 26 6d 3e bd 4e 8e 63 bc 20 1a ea 3c
       -0.010332969 -0.04649081 -0.013888909 0.02857691
000360 0e e9 ba bc 28 ce c3 bb 0e ea f1 bb c0 30 01 be
       -0.022816207 -0.0059755035 -0.007382638 -0.12616253
000370 b1 1a 90 3c 11 71 cb bc b9 b1 b4 bd 8e da f4 3c
       0.017590852 -0.024834188 -0.088229604 0.029889371
000380 0b 4f 47 3d e8 3c c5 bc 69 81 5a bc bf 8a a3 bd
       0.048659366 -0.024076894 -0.013336518 -0.07985448
000390 1e af 5d bd c4 13 e2 bb 58 90 17 bd 3c 7c bb bc
       -0.054122083 -0.006899329 -0.03700289 -0.022886388
0003a0 e2 86 5a bd da 11 dd bd 0e e9 29 bd a1 0e 93 bd
       -0.05335129 -0.107944205 -0.041482024 -0.071805246
0003b0 24 5a 77 bc ba e5 78 bd 57 19 b8 bd b5 71 79 bd
       -0.015097175 -0.06076596 -0.08989208 -0.060899455
0003c0 fd f7 05 bd 5e 72 09 bc 07 46 4b 3c 72 78 eb bd
       -0.032707203 -0.008389084 0.012406833 -0.114975825
0003d0 1c 2d 9b bd 50 53 d0 3b a9 d3 a8 bd 35 7d 37 ba
       -0.07576963 0.006357588 -0.08243496 -0.00069995533
0003e0 8e 69 bc bd 74 e3 f9 bc b7 38 db bb c2 7e 82 bd
       -0.091998205 -0.030503966 -0.0066901105 -0.063718334
0003f0 48 a4 88 bc 28 8b bd bd f1 39 14 3d 7e 46 56 bd
       -0.016679898 -0.092550576 0.03618807 -0.05231332

fc2.bias f4 [300]
000000 8b bc 04 be 58 7b 91 bd 53 38 31 be f8 11 19 be
       -0.12962548 -0.07103604 -0.17306642 -0.14948261
000010 99 0b d7 bd 18 00 18 bf a8 53 d4 bd b0 82 1a c0
       -0.10500259 -0.59375143 -0.10367519 -2.4142265
000020 44 58 51 40 48 b4 e6 bd d8 15 8e bd 33 57 3f bf
       3.2710123 -0.11264855 -0.0693776 -0.7474243
000030 90 b2 07 be 90 f7 96 be fe 64 00 be 50 a1 cb bd
       -0.1325171 -0.2948575 -0.12538525 -0.09942877
000040 3f 9e 2e be ef 1e 2c be 19 6c 13 40 e1 f0 fb bd
       -0.17052554 -0.16808675 2.3034728 -0.123018034
000050 6b e1 48 be 9c c4 50 be 1d 46 e6 be 8d 67 10 be
       -0.1961724 -0.203875 -0.44975367 -0.14102001
000060 90 2e 90 3e 7b 85 e8 bd 97 6e d3 bd 11 34 c7 3c
       0.28160524 -0.113535844 -0.10323828 0.02431682
000070 d0 e7 d0 bd f9 d0 61 be 5d 74 19 be 18 0a 59 40
       -0.10200465 -0.22052373 -0.14985795 3.391241
000080 68 02 a7 3f 24 e3 e5 bd 1c 31 f2 bd 38 27 f8 bd
       1.3047609 -0.11224964 -0.11825773 -0.121168554
000090 19 71 eb bd 5c c1 c2 be e4 00 3e be c1 1d ce bd
       -0.11496181 -0.38038146 -0.18555027 -0.10064269
0000a0 8c ab 09 be 95 4b 1b c0 74 7f 98 3c 40 ad 06 be
       -0.13444346 -2.4264882 0.018615462 -0.13152027
0000b0 af 01 0c bf 8d d6 6e be ed eb 3b be c9 f9 d9 be
       -0.5469007 -0.23324032 -0.18351717 -0.42573383
0000c0 91 3f 6f bf bd 09 a1 bd 10 83 ee bd d5 a1 b9 3e
       -0.9345637 -0.078631856 -0.11646092 0.3625628
0000d0 cd 8c c6 be 3b b8 93 bd cd 79 ef bd 6e 69 7e bd
       -0.38779297 -0.072128735 -0.116931535 -0.062112264
0000e0 49 7c 09 bf 23 b6 05 bf f9 9f e6 bd 6c 2f 59 40
       -0.5370527 -0.52231044 -0.11260981 3.3935194
0000f0 7f 37 a9 bd 4b c4 78 be c6 b4 05 be 8b 45 a7 bd
       -0.08262538 -0.2429363 -0.13057241 -0.08167561
000100 c0 b9 cf bd 42 47 05 bd 86 b1 c8 bd 88 21 38 be
       -0.10142851 -0.03253866 -0.09799485 -0.17981541
000110 10 cc fd bd 95 02 b1 be 30 58 00 be c2 87 af bd
       -0.123924375 -0.34572282 -0.12533641 -0.085708156
000120 a6 1f 36 be 02 7b 98 3f ba 70 3d be 78 63 ff bd
       -0.1778551 1.1912539 -0.18500033 -0.12470144
000130 83 89 d2 bd 12 bf 29 bc 33 82 00 be 2a 42 52 40
       -0.102801345 -0.010360496 -0.12549667 3.2852883
000140 89 ab 75 3b 80 92 a7 bd 0f 21 15 be 06 c2 05 40
       0.0037486276 -0.081822395 -0.14563392 2.0899673
000150 3e 35 35 bf 36 fc 18 bf 94 c0 e1 bd 5d 7b 47 bd
       -0.70784366 -0.59759843 -0.110230595 -0.048701633
000160 31 d3 02 3f 47 c1 14 be a3 64 32 c0 2e 4e f3 bd
       0.511035 -0.14526854 -2.7873924 -0.11880146
000170 6f 56 ba bd 3e d2 62 be d5 cd 95 be c9 29 13 be
       -0.09098517 -0.22150514 -0.292586 -0.14371409
000180 eb dd f7 bd 61 60 84 be 54 5a ab be 7a 34 55 bf
       -0.12102874 -0.2585478 -0.33467352 -0.832832
000190 7c 0c d6 bd 3e b8 7a bd 52 cd e6 bd 81 45 aa bd
       -0.104516 -0.061210863 -0.112696305 -0.08314038
0001a0 4c d8 d7 bd 19 22 ac bf 2d 37 66 bd 41 dc 6b 3e
       -0.10539302 -1.3447906 -0.056204963 0.23033239
0001b0 e2 dc 0e be 2c 19 d2 bd a5 61 2f bd db 37 b3 be
       -0.13951448 -0.102587074 -0.04281773 -0.35003552
0001c0 6e a7 28 be 87 5e a4 bd d7 72 15 be 1c 01 dc bd
       -0.1647012 -0.08025842 -0.14594589 -0.10742399
0001d0 c4 3f 10 be f4 6b 77 3f 98 bd 16 be 10 b1 07 bf
       -0.14086825 0.966491 -0.14720762 -0.5300455
0001e0 56 88 04 be 1a 06 f9 bd 5e 2d 0c be 3d 81 e8 bf
       -0.12942633 -0.12159367 -0.13689181 -1.816444
0001f0 c3 f1 14 3d 0a cd 9d bd a2 42 06 be f0 ce 47 be
       0.036363374 -0.07705124 -0.13111356 -0.19512534
000200 34 ee ef be 79 9e d5 bd 18 0b 9d bd 62 c2 68 bd
       -0.46861422 -0.10430617 -0.076681316 -0.056826003
000210 84 57 87 be 95 9b ef bd ea 4a 23 be 92 8e 42 be
       -0.26433957 -0.11699597 -0.15946546 -0.18999699
000220 03 d7 16 be 9a f5 e8 be e6 22 3d be ff 4f ff bd
       -0.14730458 -0.4549988 -0.18470344 -0.1246643
000230 b3 4b 2d be f3 91 9f bd 90 05 2e be a4 71 0f be
       -0.16923408 -0.077915095 -0.1699431 -0.14008194
000240 52 a1 a3 bd db dc 84 bd fd fa fd bd 15 70 f7 bd
       -0.07989754 -0.06487437 -0.12401388 -0.12081925
000250 14 3b 45 be 94 40 c8 bd 07 3e 10 be 7d 30 0d be
       -0.19260818 -0.09777942 -0.14086162 -0.13788028
000260 75 26 3f bd ca ca 24 be 25 30 52 be dc a9 07 be
       -0.046667535 -0.16092983 -0.20526178 -0.1324839
000270 d5 89 1f be 5b 2d 9d bd 80 14 88 3d 64 a4 b8 bd
       -0.15579922 -0.076746665 0.06644535 -0.0901573
000280 71 cb 07 be 90 e3 b8 3f 46 a5 0c bf 92 18 1a 3f
       -0.132612 1.4444447 -0.5493969 0.6019374
000290 30 13 0d be 89 83 23 bd c3 d3 c6 bd 9b 23 c9 bd
       -0.1377685 -0.039920364 -0.09708359 -0.09821244
0002a0 bf 48 43 be b9 d9 6d 3d 52 d8 97 bd 2f 89 fa bd
       -0.19070719 0.058068965 -0.07414307 -0.12233197
0002b0 94 65 60 bd 73 37 83 be ea d1 fd be 95 a3 ce 3c
       -0.054784372 -0.25628242 -0.49574214 0.025224486
0002c0 34 96 de bd 20 7b c3 bd 14 0f a2 be 07 d3 9e bd
       -0.10868493 -0.095449686 -0.3165213 -0.07755094
0002d0 ba 8d 29 be 23 92 0a be 8b 5c 04 bf 0d cb d7 bd
       -0.1655797 -0.13532309 -0.5170371 -0.10536776
0002e0 2e e8 e6 be f6 d1 0d be 11 5c ac bd 74 32 f7 bd
       -0.45099014 -0.13849625 -0.08415998 -0.1207017
0002f0 21 f5 78 bd 78 ea 8f bd 20 dd 9b bd 49 3e 3a be
       -0.06078065 -0.07027143 -0.076105356 -0.18187822
000300 4d 93 70 bd 09 dd 1e 3f 15 80 53 bf 19 01 09 be
       -0.058734227 0.6205602 -0.8261731 -0.13379325
000310 95 d4 1a be 17 61 94 bd 94 3b 1a be cc f4 92 bd
       -0.15120156 -0.07245081 -0.1506179 -0.071755975
000320 2e ea ff bd 15 c2 73 3f 37 e2 87 bd 97 ee 61 3f
       -0.12495838 0.9521802 -0.06634944 0.88254684
000330 82 86 8f be dd b7 a4 bd 67 3d 98 bd e0 10 8c be
       -0.2803231 -0.08042882 -0.074335866 -0.27356625
000340 41 2e fc bd 85 5d 23 be 2e 53 8f 3f b7 05 97 bd
       -0.1231351 -0.15953644 1.119726 -0.07374137
000350 6d 3e 49 bd df 9e 06 be 56 80 31 be 70 65 fd bd
       -0.0491318 -0.13146542 -0.17334113 -0.12372863
000360 eb 3c f7 bd ff bd 2c be 1e 9f 01 be 04 51 8d bd
       -0.12072166 -0.16869353 -0.12658355 -0.06900218
000370 54 ee 05 be 85 ca 94 bd 46 91 02 be 53 23 07 be
       -0.13079196 -0.0726519 -0.1275073 -0.13197069
000380 25 64 ad bd ec 58 4a bd d9 f5 48 bd 4e 05 4c bf
       -0.08466367 -0.04940121 -0.049062584 -0.79695594
000390 ba bf 10 be fe c3 58 bd e3 d0 f2 bd 82 f7 bc bd
       -0.14135638 -0.052921288 -0.11856248 -0.09226896
0003a0 6c 12 8d be 6d 92 c4 bd 92 b3 89 bd ff 73 13 be
       -0.27553117 -0.09598241 -0.067237034 -0.14399718
0003b0 a3 64 d7 bd 21 a8 a2 bd 6a 8e 0a be c9 54 2c be
       -0.10517242 -0.07942224 -0.13530889 -0.16829218
0003c0 48 11 19 be c9 81 2e be 16 20 0c be 0f 41 ba 3d
       -0.14947999 -0.17041697 -0.13684115 0.0909444
0003d0 66 b0 9f bd 07 54 0d be 24 3f 34 be 8d 0c 0b be
       -0.07797317 -0.13801585 -0.17602211 -0.13579006
0003e0 02 d4 32 bf f1 5f a1 be 95 a6 3d be 55 7d a8 bd
       -0.6985475 -0.3151851 -0.18520577 -0.0822703
0003f0 81 d3 6d bd 81 0b 04 be 70 47 0b be 86 7f 94 bd
       -0.058063034 -0.12895013 -0.1360147 -0.07250886

fc3.weight f4 [1, 300]
000000 65 75 a6 3c 9a 01 b2 bc cb 74 78 3c d7 36 46 3c
       0.02031965 -0.02172928 0.015164564 0.012098036
000010 b5 36 89 bc 27 84 b2 3c bd 9f 47 3b 3b b9 aa bc
       -0.01674972 0.02179153 0.0030460202 -0.020840278
000020 26 f2 c1 3c c7 b0 38 bc 63 53 1a bc 50 89 20 bd
       0.023675036 -0.011272616 -0.009419295 -0.03919345
000030 dd 5e 5b 3b 30 7e 6b bd f9 81 7e 3c 6c 26 43 bc
       0.003347329 -0.05749339 0.015533918 -0.011911016
000040 14 05 b5 bc 62 e4 0c 3c c4 aa 8a 3c 03 a7 de 3c
       -0.022097148 0.008599373 0.01692713 0.027179247
000050 07 cc 25 bd 45 80 a9 bb 6d a4 12 3d 40 8c a9 3c
       -0.04047778 -0.0051727616 0.03580134 0.02069676
000060 6a 18 c4 3c ca d5 ee bb 72 2e 1f bd b7 61 b1 3c
       0.023937423 -0.0072886692 -0.038862653 0.02165304
000070 92 77 7f 3b 4c 05 d7 bc 94 1b 0e bd 59 0c 03 3d
       0.0038981182 -0.026247643 -0.03469427 0.031994198
000080 47 6d c6 3c 59 78 65 3b db 6d 2e bc df fe c1 3b
       0.02422203 0.003501436 -0.010646309 0.0059202756
000090 5d 8d 48 3b 2e da a4 3c 37 a1 82 bc 40 2e 5d 3c
       0.0030601837 0.020123567 -0.015946014 0.013499796
0000a0 4d 6e dd 3c ee b4 2a bc 78 e6 f2 bc df 04 65 bc
       0.027030135 -0.010419114 -0.029650912 -0.013978212
0000b0 b4 4e 77 3c 9b ff 84 3c 3d 00 4d 3b 9e 2a 5a 3c
       0.015094448 0.016235163 0.003128066 0.013315825
0000c0 8d 13 8c 3c 33 27 a7 3c f4 12 cb bc a2 47 91 3c
       0.017099166 0.020404434 -0.024789311 0.017734352
0000d0 a9 31 aa bc ab 39 ca bc 99 2c 0f 3c 80 e8 aa 3b
       -0.020775633 -0.024685701 0.00873866 0.0052157044
0000e0 7a 6d b4 bc 2c 8f cb 3c 87 4a 41 bc 72 39 c3 3c
       -0.022024859 0.024848543 -0.011797554 0.023831103
0000f0 69 58 3b bc d8 83 c2 3c bd 0b d3 bc 0e 99 90 bc
       -0.011434653 0.023744509 -0.025762433 -0.017651107
000100 95 62 82 3c 8f 6e 26 bb 5a c0 f5 bb 14 f0 b0 bc
       0.015916148 -0.0025395488 -0.0074997367 -0.021598853
000110 cc 77 bd 3c 48 0c 7c 3b b1 89 e6 bc e7 d8 a0 3b
       0.023128413 0.0038459469 -0.028141828 0.0049086693
000120 80 24 0f 38 34 f9 51 3c 3d e7 af bc 97 bf a3 3b
       3.412785e-05 0.012815762 -0.021472568 0.0049972045
000130 04 e0 e1 3c 98 eb 5a bc 64 92 7a bd 77 14 db 3c
       0.02757264 -0.013361834 -0.061174765 0.026743157
000140 dd d9 ce 3c d4 06 af b8 a5 ee a3 3a 32 82 84 3c
       0.02525037 -8.345922e-05 0.0012507035 0.016175363
000150 75 0a 99 bd b9 43 d9 bc 86 15 b1 3c bf 37 44 3c
       -0.07472698 -0.02652155 0.021616708 0.0119761815
000160 a3 e3 09 3d 8a f5 b7 bc f8 a9 84 bc 03 d0 22 3c
       0.033664357 -0.02245595 -0.016194329 0.009937289
000170 12 f4 d7 bc dc 96 24 3b eb 17 0b bd 1d ed fe 3b
       -0.026361499 0.0025114333 -0.033958357 0.007779731
000180 f1 b0 c7 bc 88 42 7d 3c f1 d5 4a be d1 47 f5 3c
       -0.024376364 0.015457757 -0.19808175 0.029941471
000190 50 8e 2a 3b 96 a5 96 bc 30 27 f4 39 db 80 d2 bc
       0.0026024766 -0.018389504 0.00046568504 -0.025696209
0001a0 6d c0 9b bc 03 fb ca bc 33 a1 9e 3a 87 b7 6b bc
       -0.019012654 -0.024777895 0.0012102484 -0.014387018
0001b0 dd 63 0f bd 03 94 1c 3c a9 25 a0 bb 80 e1 95 bb
       -0.035007346 0.009556773 -0.004887302 -0.004574001
0001c0 80 32 95 bc fb b6 d3 bc 5a 11 9c 3c 50 1d f8 3c
       -0.018212557 -0.025844088 0.019051243 0.030287415
0001d0 2a ef 99 3c a5 03 82 3c ed 4f 9b bc 05 6f 0a bd
       0.0187908 0.015870878 -0.01895901 -0.033797283
0001e0 5d 8f ea 3c 2a e9 b4 bc b6 8e f9 bc 13 69 54 bc
       0.028632814 -0.022083838 -0.030463558 -0.012964505
0001f0 bc 54 b9 bd c4 1f 0d ba 07 5a 52 ba 0f 0b ba 3c
       -0.09049365 -0.00053834566 -0.00080242794 0.022710351
000200 3a 05 ba bc 94 e4 b4 bb d7 d6 42 bc d7 99 91 3c
       -0.02270757 -0.0055204127 -0.011892042 0.017773552
000210 15 54 76 bc 1e 2a c8 3c 94 48 80 3a 08 76 68 bd
       -0.015034695 0.024434146 0.0009787255 -0.05675319
000220 20 c8 b8 bc 1d b8 61 3b 90 37 7e bc 44 39 76 3c
       -0.022556365 0.0034442015 -0.015516177 0.015028302
000230 00 13 e4 bc 42 c1 1b 3c f1 db 0c 3c b2 ac 91 39
       -0.027841091 0.0095065255 0.00859736 0.00027785223
000240 84 91 d8 3c 8e 41 92 3b 25 1e 4a 3c 81 d8 af 3c
       0.026436575 0.004463381 0.012336289 0.021465542
000250 48 b3 76 3b 8b 3f d7 bb eb 85 c7 bc de 1e e9 3c
       0.003764348 -0.006568854 -0.02435585 0.028457101
000260 20 5d 93 bc 20 9b 52 bb 96 6e ba bc b3 66 b4 bc
       -0.017988741 -0.0032135919 -0.02275781 -0.022021627
000270 f4 ce 86 b9 fe ea be bc 38 86 dc 3c 42 a7 ff 3b
       -0.00025712664 -0.023305412 0.02691947 0.007801921
000280 d8 07 0a 3c 05 b0 dc 3c e1 35 ed bc 39 fd bb 3c
       0.008424722 0.026939401 -0.028956356 0.022947894
000290 e9 1b ee bb c8 b9 58 ba 2c 4e cd 3c b0 f8 a4 bc
       -0.0072665107 -0.00082674297 0.02506169 -0.020138115
0002a0 b9 51 55 3c de 4a e5 3c a2 ca 8b ba 0e 06 f1 bc
       0.0130199725 0.027989801 -0.0010665248 -0.029421832
0002b0 88 e3 d7 bc 00 f2 c1 bc 38 27 ea bc e5 d1 0d 3d
       -0.026353613 -0.023674965 -0.028583154 0.034624
0002c0 dc 0a f9 bb 3e 1d 4b bc 4e 60 15 3c 17 4e 53 3c
       -0.0076001715 -0.012397109 0.009117199 0.012897036
0002d0 ef 28 01 bc 93 a5 21 bc a9 42 82 3c 5a fa e0 3b
       -0.0078832945 -0.009866136 0.015900927 0.0068657817
0002e0 eb 71 fc bd 0e 9d ca 3c e0 78 ac 3b ba 7a 39 3c
       -0.12326416 0.024733093 0.005263433 0.011320764
0002f0 13 2a d6 bc 9c 31 60 bc a9 1c b5 39 8b 8a 74 be
       -0.02614311 -0.013683703 0.00034544364 -0.23880975
000300 06 23 56 bc 84 05 9d 3c 0b 58 1e be d0 b6 9e 3c
       -0.013069874 0.01916767 -0.15463273 0.019374281
000310 24 f9 88 3b 47 87 a8 3c 6c d1 bf 3c 49 43 8a 3c
       0.0041800905 0.020572318 0.02341529 0.016877787
000320 5b d5 ac 3c f0 ad 77 3c 51 0c f1 bc 25 87 9d 3c
       0.02109783 0.0151171535 -0.029424818 0.019229481
000330 1e bc 3c bd b6 a5 d5 bc 77 ca d8 3c 59 bb 00 bd
       -0.04607784 -0.026079994 0.02646373 -0.03142867
000340 5e 7a 8e 3c 41 86 66 bc 29 1a 9c 3c b8 34 6d 3c
       0.017392334 -0.014070095 0.019055443 0.014477901
000350 f8 80 8e bd 5d 1e 8f bc 8e e3 78 3c ab 60 d1 bc
       -0.069581926 -0.017470533 0.015190972 -0.02555879
000360 2c 5e 57 ba cd b1 4d 3c 17 9e 18 3c f8 62 74 3c
       -0.0008215632 0.012554598 0.009315035 0.014916174
000370 de 51 37 bc 9b b4 0a 3d 41 4c 7d bb 42 e3 99 bb
       -0.011188952 0.033863645 -0.0038650187 -0.0046962807
000380 e1 fb 00 3c 57 20 3c bd 9f b7 1d 3a f4 49 17 bc
       0.007872553 -0.04592928 0.00060164364 -0.00923394
000390 cb a3 c9 bc 39 42 36 3c 7a 04 d4 3b 03 ba a8 bc
       -0.024614235 0.011124187 0.00647026 -0.02059651
0003a0 87 95 d7 bb 42 73 e3 3c a4 31 2b 3c 2f 81 e3 3c
       -0.0065791043 0.02776492 0.010448847 0.02777156
0003b0 89 f2 d6 bc 6b fe 56 3c bd d3 4f bc 14 c5 c6 3c
       -0.026238697 0.013122181 -0.01268476 0.024263896
0003c0 5d 0f 95 bc 10 57 ae bd 33 7b 81 3c df 33 ca 3c
       -0.018195802 -0.085126996 0.015805816 0.024682937
0003d0 8b 0e 9a 3b 52 7a c1 3c be 41 1a 3d 29 53 76 3c
       0.0047014407 0.023617897 0.037660353 0.015034475
0003e0 26 9b ad 3c bf cb 77 bd 01 b4 83 bc 43 c9 57 bc
       0.021192145 -0.06049704 -0.016077043 -0.013170543
0003f0 72 9e 99 bc fa a7 b7 bc eb ef cd bc a5 6d 8b 3c
       -0.01875231 -0.022418965 -0.025138816 0.017020056
