checkpoint_Critic.pth (torch_old, 542616 bytes, 5 tensors)

fcs1.weight f4 [400, 33]
000000 41 ec b5 3e 7e 4e 33 be 69 0c d6 bd 5f 99 8e bf
       0.3553181 -0.17510411 -0.10451586 -1.1140555
000010 c0 94 a8 bf 0b 21 68 3f e2 a2 1f 3f 5b 9d 69 be
       -1.3170395 0.9067542 0.62357914 -0.22813933
000020 75 c8 f5 be 5e c7 d2 be 6c e4 87 be 8d 87 88 be
       -0.480045 -0.4116773 -0.2654146 -0.26665917
000030 57 4b 8e bd ad d9 d2 bd d2 7f bf 3e 6f ef bf b9
       -0.06947964 -0.102954246 0.37402207 -0.0003660875
000040 34 3f 26 3c 31 29 20 be 9a 40 a3 be 39 0e 7d bf
       0.010146905 -0.15640713 -0.31885225 -0.9884983
000050 f0 05 55 be cf 91 84 3e ee c3 b7 3e 8d b9 a9 be
       -0.20803046 0.25892493 0.3589167 -0.33149377
000060 0a 51 f9 3d 7c c2 14 be 41 0f 3c be 02 f5 9b 3f
       0.1217366 -0.14527315 -0.18365194 1.2184145
000070 e4 7e 0c 3d 76 7f 9a 3c b4 00 9d bf e4 87 79 3c
       0.0343007 0.018859606 -1.226584 0.015230153
000080 68 86 38 3f 4b ae 91 bd d8 d2 dc be 6b fe ab be
       0.7208009 -0.07113322 -0.4312961 -0.33592543
000090 35 01 e1 3d 00 72 c5 bf 2e 66 b5 3e 0b b4 94 3f
       0.10986558 -1.5425415 0.3542952 1.1617445
0000a0 0b 6f 28 3e c0 6a 0f 3f 70 1c 19 3f 5c 05 a7 be
       0.1644861 0.5602226 0.5980902 -0.32621276
0000b0 2a a0 fb bd 1b 0b 16 3e f6 57 de 3d 0d e8 92 3e
       -0.12286408 0.14652674 0.10856621 0.28692666
0000c0 19 a3 cd bd 5b 96 1f 3f 72 0e 42 3f 88 51 f1 3e
       -0.10040874 0.623388 0.7580329 0.47132516
0000d0 17 02 84 3f 14 f4 0f bd b5 0c 96 3e 52 80 32 be
       1.0313138 -0.03514488 0.2930657 -0.17431763
0000e0 e9 2e 2f 3e 7e 05 0f 3e 3e e4 89 be e2 8e 97 be
       0.17107739 0.13966939 -0.26931947 -0.29601198
0000f0 3e 58 c5 3f f1 da a6 3e 50 bf b4 bc aa f8 c8 bf
       1.5417554 0.32588914 -0.022063881 -1.5700886
000100 d5 e6 40 3d 19 1f 67 bf 51 f7 a3 bd 8e 4c 01 3e
       0.04709514 -0.90281826 -0.08006156 0.1262686
000110 04 5c 90 be 2f 9f ca 3f f6 8b 10 3f a2 c4 5f bf
       -0.28195202 1.5829829 0.56463563 -0.8740941
000120 ca 55 d3 3f e4 4b 95 be 7b cd 44 3e d3 20 3b 3f
       1.6510556 -0.29159462 0.1921901 0.7309696
000130 6a a9 70 be b2 b2 51 bd b0 9c 8a be 16 c1 68 3e
       -0.23502126 -0.051195808 -0.27072668 0.22729906
000140 2f 76 b1 3e 70 6e 59 3e e4 3c 3a bf 41 da 52 bf
       0.3466048 0.21233535 -0.7274916 -0.8236428
000150 81 92 1f 3d 95 69 d7 3d 1b bc 96 be a1 c9 d8 bc
       0.038958076 0.10518185 -0.29440388 -0.026463332
000160 84 a7 55 3c 06 49 33 3e 4e a6 6d 3e 87 c8 80 3d
       0.013040427 0.17508325 0.23207971 0.062882476
000170 ab ab 54 be 22 a4 88 3f a8 54 ca 3d e8 34 23 3c
       -0.20768611 1.0675089 0.09879428 0.009961344
000180 3e 3f 83 bf 30 62 14 bd fe 78 79 bf ed f3 63 3f
       -1.0253675 -0.03622645 -0.97450244 0.89044076
000190 53 4a 95 3e cb a1 3d be f5 60 13 bf 73 9c f8 bf
       0.29158267 -0.1851875 -0.5756982 -1.9422745
0001a0 40 ee c7 3f b8 e2 50 3e ca ce 29 bb bb e7 80 be
       1.5619583 0.20398986 -0.002591061 -0.25176796
0001b0 9a ce dd 3d ec 7d d0 3d 75 b3 01 be da 7d 70 be
       0.10830422 0.10180268 -0.12666114 -0.23485509
0001c0 1a 4e 8e be f1 01 ec 3e 72 6a 3f 3e b3 f0 88 bc
       -0.27793962 0.4609523 0.1869295 -0.016716337
0001d0 df 8d fa bd a7 d7 a4 3f d5 fd 29 bd 11 0e 7b be
       -0.12234091 1.2878312 -0.04150184 -0.24517085
0001e0 00 ae 24 3e e4 23 0e be 08 4a d3 bd 3f 9a 60 3e
       0.16082 -0.13880879 -0.10316855 0.2193384
0001f0 62 e7 c5 be aa d5 e4 bc 60 e2 03 3f f1 42 10 3c
       -0.38653094 -0.027933914 0.51517296 0.008805023
000200 34 02 8a bc d6 1a e5 be 98 6c 40 bc 92 11 90 3f
       -0.016846754 -0.44747037 -0.011744641 1.1255362
000210 f5 47 0a bf a5 24 05 be 76 11 b7 3e 9d 2e 89 be
       -0.5401605 -0.1300226 0.3575551 -0.26793376
000220 fe 7d 19 40 c1 65 d0 3d c0 bf b0 3e a8 a9 ed bd
       2.398315 0.10175658 0.34521294 -0.11604625
000230 f3 9b cd bc a8 be 8d 3c 2c b1 96 be 11 38 a5 3c
       -0.025098776 0.017302826 -0.29432046 0.020168336
000240 c6 5c 40 be ab 49 72 bd 52 c5 22 3c b0 86 21 be
       -0.1878539 -0.059152286 0.00993474 -0.15774035
000250 b7 54 02 c0 25 59 d7 bd 3a 82 88 3f 8a de b3 bf
       -2.0364206 -0.1051505 1.0664742 -1.4052289
000260 05 e8 05 3e bd 72 67 bd 85 5e 65 3e 0e 4e 9b be
       0.1307679 -0.056505907 0.22399338 -0.30332989
000270 f3 98 9c bc 16 53 8f bd d8 2f 56 be 01 62 59 3f
       -0.0191159 -0.06998269 -0.20916688 0.8491517
000280 44 4f 77 bd ac ad 0f 3c d9 5d 63 bf 6c 52 8c bc
       -0.060378328 0.008769434 -0.88815075 -0.017129146
000290 81 8f ad 3f c2 9d d1 3d f6 56 54 bd da 63 a0 bd
       1.3559419 0.10235168 -0.051840745 -0.07831545
0002a0 be b7 dd 3d 39 9c a2 bf 07 7b d0 be 72 e9 a0 be
       0.10826062 -1.2703925 -0.40718862 -0.31428105
0002b0 7a a3 da 3d 50 8d d1 3e 31 45 e1 be 9e 79 1d bc
       0.10675712 0.40928125 -0.439981 -0.009611515
0002c0 1c 08 f1 bd 7a 8f 2f 3e eb 60 95 3e ce f3 a1 bd
       -0.11769125 0.17144576 0.29175505 -0.0790783
0002d0 f7 dc 97 3e 3b 12 53 3f b8 fd 76 bf 9d 44 84 be
       0.2966077 0.8244969 -0.96480894 -0.25833598
0002e0 19 38 b7 3d ee 28 b4 3e 21 67 57 3e 51 79 54 3d
       0.08946247 0.35187477 0.21035434 0.05187351
0002f0 7a 47 44 be f3 39 75 be 23 57 8a 3e 96 9e bb bd
       -0.19167891 -0.23947887 0.27019605 -0.09161107
000300 b5 f4 ce 3f f8 c3 8c bd fd 04 1d 3d 9d 89 ca bf
       1.6168429 -0.068733156 0.038334835 -1.5823246
000310 fd 75 0c 3d 17 91 c9 bf 41 88 ba bd a7 61 a3 3e
       0.03429221 -1.5747403 -0.091080196 0.3191044
000320 ac 44 cf 3d c3 5d ad 3f d9 5e 91 3f 2e ba 93 3e
       0.1012052 1.3544239 1.135707 0.2885298
000330 6d 6b 99 be a1 81 5e bd f2 47 67 39 b8 23 55 3e
       -0.29964772 -0.054322843 0.00022056678 0.20814407
000340 ee 6c bb bd 6b 37 31 3d ea b9 a4 be 25 45 97 be
       -0.09151636 0.04326574 -0.3217309 -0.2954494
000350 53 07 e0 bd b0 43 ac 3d b8 fb 19 3e 33 69 4f 3e
       -0.10938897 0.08411348 0.1503743 0.20254974
000360 fc df b2 bf 3d c8 87 be d3 db d9 3c fb 26 9c 3e
       -1.3974605 -0.26519957 0.026594078 0.3049849
000370 c8 93 c6 3e c0 b0 4d bd 5a c0 2b 3e d5 a1 f4 bd
       0.38784623 -0.05021739 0.16772595 -0.119449295
000380 93 cf 5f 3d cc 7e 90 3f 93 1d 47 be 64 d1 72 3c
       0.054641318 1.1288695 -0.19444875 0.01482043
000390 55 71 87 bf e7 cc df bc ec 0a 91 be 8f 37 83 be
       -1.0581461 -0.027319385 -0.28328645 -0.25628325
0003a0 93 1b 62 be 78 57 d6 3e ff 45 08 c0 8f ac 9b bf
       -0.22080831 0.41863608 -2.1292722 -1.2162036
0003b0 d1 32 09 3f 0a 5f 4c be a0 ef 43 3e 22 58 6b 3e
       0.53593165 -0.1995813 0.19134378 0.22982839
0003c0 06 a0 b8 3e 85 71 36 bd 79 a6 fd bc e6 19 74 bc
       0.36059588 -0.044541854 -0.03096317 -0.014898753
0003d0 03 59 c7 3e 6a a0 a4 be dc 55 48 be dd 8a a5 bd
       0.38935098 -0.32153636 -0.19564003 -0.08083127
0003e0 db 26 9d 3f 67 7f 82 be df 69 20 3f 64 7e 6d 38
       1.2277483 -0.25487825 0.62661546 5.6622914e-05
0003f0 81 ea d1 3b 03 68 a5 bd 7f be 83 3e 91 4b 3b 3c
       0.006406129 -0.08076479 0.25731274 0.011431591

fcs1.bias f4 [400]
000000 12 de a2 bf a9 15 d0 bf 93 71 62 bf d5 a7 ee be
       -1.272402 -1.625661 -0.8845455 -0.4661242
000010 db 4c 83 bf 63 a8 dd bf e3 7a 9d bf 0f d4 62 bf
       -1.025783 -1.7317013 -1.2303127 -0.88604826
000020 41 d5 87 bf aa 6c ec bf d4 59 d9 be 54 36 b3 bf
       -1.0611955 -1.8470662 -0.42451346 -1.4000955
000030 0d 17 9b bf 97 1e 88 be e7 9d 3a bf ec 53 7c bf
       -1.211641 -0.26585838 -0.7289719 -0.98565555
000040 90 5a 90 bf 2d a3 8e bf cb 76 b1 bf e7 d6 60 bf
       -1.1277637 -1.1143547 -1.3864378 -0.87827915
000050 9b 5c 8f bf cc 03 a3 bf 60 41 2a bf 17 f1 24 bf
       -1.1200136 -1.2735534 -0.66506004 -0.64430374
000060 c1 d9 8c bf f6 16 8d bf fa 0f 8d bf c8 1f 9e bf
       -1.1003953 -1.1022632 -1.1020501 -1.2353449
000070 6f 75 83 bf a1 15 95 be de 1d 67 bf 17 3b 11 bf
       -1.0270213 -0.29118064 -0.9027995 -0.5673079
000080 cc ff 53 bf d4 7d 83 bf 66 48 9c bf 65 32 fc be
       -0.8281219 -1.0272775 -1.2209594 -0.49257198
000090 2e 6d 81 bf c8 3b 43 bf de 32 d9 be 7c 6f f7 be
       -1.0111444 -0.76263094 -0.4242162 -0.48327243
0000a0 07 d9 01 bf f3 d8 20 bf 20 9d 29 bf 97 c7 ac bf
       -0.5072178 -0.6283104 -0.6625538 -1.349841
0000b0 39 61 a7 bf 6b d7 24 bf d4 2d af bf 96 79 a3 bf
       -1.3076545 -0.643912 -1.3685861 -1.277148
0000c0 aa 4b 92 bf 5a 59 a4 bf bf d9 45 bf 19 9f c8 bf
       -1.1429341 -1.2839768 -0.7728538 -1.5673553
0000d0 a0 c5 1a bf 29 85 1d bf 2f 56 88 bf ba 4e 6c bf
       -0.604578 -0.6153131 -1.0651301 -0.9230763
0000e0 3d a0 9e bf 10 8c 90 bf 4b 41 80 bf 2f 06 3b bf
       -1.2392651 -1.1292744 -1.0019926 -0.7305631
0000f0 4a b3 02 bf eb ef 78 bf 22 c2 be bf 1a f1 82 bf
       -0.51054823 -0.97241086 -1.4902995 -1.0229828
000100 cf 62 44 bf 36 82 8e bf 3b 7c 44 bf ca 3a 63 bf
       -0.7671327 -1.1133487 -0.7675206 -0.8876158
000110 f7 5b a9 bf e8 fb 8f bf c1 f4 82 bf 20 58 8f be
       -1.323119 -1.1248751 -1.0230943 -0.27996922
000120 fd d0 b1 bf 85 57 52 bf 5c d8 80 bf db 0b 59 bf
       -1.3891903 -0.82164794 -1.0066028 -0.84783715
000130 7c 46 98 bf dc 01 bf bf 86 a2 94 bf a8 e6 9a bf
       -1.189651 -1.4922442 -1.1612098 -1.2101641
000140 d9 6c 88 bf 30 eb 43 bf 8b ef 27 bf 09 d6 af bf
       -1.0658218 -0.7653074 -0.6559989 -1.3737193
000150 a5 d1 03 bf a4 8a cf be cf d9 19 bf 6a bb 9b bf
       -0.5149177 -0.40535462 -0.60097975 -1.2166569
000160 f4 2d c1 3c 9f 49 83 bf 47 42 84 bf 44 43 d9 be
       0.023581482 -1.0256842 -1.0332726 -0.42434132
000170 ad 3f 41 bf 9d 65 a5 bf e2 61 8d bf a3 e2 b8 bf
       -0.75487787 -1.2921635 -1.1045496 -1.4444164
000180 20 a2 d2 bf 35 19 3d bf 38 4b 30 be 20 41 7e bf
       -1.6455727 -0.7386659 -0.17216194 -0.9931812
000190 de 56 89 bf c3 76 75 bf 76 57 70 bf aa fc 31 bf
       -1.0729635 -0.9588434 -0.93883455 -0.6952616
0001a0 99 2a 90 bf 0f 8c a0 3e d2 8a ed be fc 04 97 bf
       -1.1263 0.31356856 -0.46394974 -1.1798396
0001b0 a9 df 5d bf 63 2c 18 bf f3 0f 18 bf a6 d5 9d bf
       -0.86669403 -0.5944273 -0.59399337 -1.2330825
0001c0 c9 5a 7d bf 38 6a 97 bf d1 88 6e be c5 e3 65 bf
       -0.9896665 -1.182929 -0.23294379 -0.89800674
0001d0 1e 9d 7d be eb 42 05 bf 96 cd 2b bf a4 fc b6 bf
       -0.24766967 -0.52055234 -0.67110574 -1.429585
0001e0 1a 8f b1 bf 7b 7e 49 bf f6 e4 dc bf 5e c7 05 bf
       -1.3871796 -0.7870862 -1.7257373 -0.52257335
0001f0 a4 f7 8e bf 77 4e 1a bf 0e c0 8d bf 26 eb 30 bf
       -1.1169324 -0.6027598 -1.1074235 -0.6910881
000200 5b 86 87 bf 78 66 94 bf 9c e1 6d bf f4 b3 80 be
       -1.0587877 -1.1593771 -0.9292238 -0.25137293
000210 73 b0 59 bf c4 d3 91 bf 69 6d b0 bf 2a f6 b5 bf
       -0.85034865 -1.1392751 -1.3783389 -1.4215748
000220 3c 3c a4 bf f2 6e 6b bc 51 54 26 bf b8 8e a1 3d
       -1.2830882 -0.014369713 -0.64972407 0.078885496
000230 23 19 e6 be df 95 76 bf f9 fa 60 bf 86 ef 2c bf
       -0.44941053 -0.96322435 -0.87882954 -0.67552984
000240 90 a9 78 bf 3b ad 62 bf e5 9e d0 3d f2 f0 93 bf
       -0.9713373 -0.8854558 0.10186557 -1.1557906
000250 b7 ba c9 bf fa 56 74 bf 6c 17 8e bf 64 7c 15 bf
       -1.5760106 -0.95445216 -1.1100898 -0.5839293
000260 88 1f 45 bf 75 09 b1 bf 73 fe 0d bf 4d 5f 34 bf
       -0.7700124 -1.3831011 -0.55466384 -0.7045792
000270 01 4b d2 bf 8a ce 9e bf de 3a 77 bf b3 6d 1f bf
       -1.6429139 -1.2406781 -0.965742 -0.6227676
000280 46 62 05 bf 99 89 b5 bf 5d 17 48 bf f9 f7 8a bf
       -0.5210308 -1.4182616 -0.7816065 -1.0856925
000290 2f 3c 65 bf 11 b0 9b bf fa 4b 94 bf c9 11 3e bf
       -0.8954496 -1.2163106 -1.1585686 -0.7424589
0002a0 52 f3 9a bf 01 5b 53 bf 85 0b 47 bf 08 43 99 bf
       -1.2105505 -0.82560736 -0.7775195 -1.1973581
0002b0 f6 75 91 bf 14 94 51 bf 7e 08 86 bf a4 c1 26 be
       -1.1364124 -0.81866574 -1.0471342 -0.16284806
0002c0 f7 02 34 bf 46 91 96 bf af 8a 88 bf 97 ac 3d bf
       -0.70317024 -1.1763084 -1.0667323 -0.74091476
0002d0 c7 5b 48 bf 6e 6b 97 bf 35 aa 8d bf f4 ab 79 bf
       -0.7826504 -1.182966 -1.1067568 -0.97528005
0002e0 ce 30 85 bf cc 16 a7 bf 20 82 8c bf b4 e9 17 bf
       -1.0405519 -1.3053832 -1.0977211 -0.5934098
0002f0 a2 41 96 bf 4e 36 14 bf a4 e3 a7 bf 1b d2 83 bf
       -1.173878 -0.5789536 -1.3116345 -1.0298494
000300 93 fa 24 bf 46 e5 3b bf 3b 83 48 bf 25 a4 63 bf
       -0.64444846 -0.7339672 -0.7832524 -0.8892234
000310 d2 e2 cc bf 60 01 bc bf 35 ef 5a bf 8c 8b 72 bf
       -1.600672 -1.468792 -0.8552125 -0.9474418
000320 38 a1 20 bf 95 8d cc bf bd 01 8f bf 37 fd ac bf
       -0.62746 -1.5980707 -1.1172405 -1.3514775
000330 d1 c2 8d bf 31 7a 4e bf ca 82 9c bf 3b d8 ad bf
       -1.1075078 -0.806552 -1.2227414 -1.3581613
000340 5c b6 56 bf 32 43 66 bf 10 93 83 bf ec 6a 09 bf
       -0.8387201 -0.8994628 -1.0279255 -0.53678775
000350 0f 07 82 bf dc b7 92 bf 6d 02 93 bf 3f 11 84 bf
       -1.0158404 -1.146236 -1.1485115 -1.0317763
000360 bd 1b e4 bf fa f1 bc bf 6d 17 5e bf cf ef 36 bf
       -1.7820965 -1.4761345 -0.86754495 -0.7145967
000370 97 72 9f bf b7 ce 9c bf 71 01 3a bf d1 1c 92 bf
       -1.2456845 -1.2250584 -0.7265845 -1.1415044
000380 85 9a 4f bf fd 3e 9c bf cc 3e fd be 40 e8 8c bf
       -0.81095153 -1.2206722 -0.49461973 -1.1008377
000390 97 f5 1b bf 50 61 4c bf 05 d4 4a bf 92 e1 8c bf
       -0.60921615 -0.7983599 -0.79229766 -1.1006339
0003a0 ff 1d b2 bf 4c 30 91 bf 65 29 8d bf 4e 74 e0 bc
       -1.3915404 -1.1342864 -1.1028258 -0.027399208
0003b0 e4 bc 83 bf 59 47 db bf b6 67 6c bf c4 ae 7a bf
       -1.029202 -1.7131149 -0.9234575 -0.9792292
0003c0 1a 2b 64 bf ac 2e 78 bf 2b 54 b5 bf 3e 8a 48 bf
       -0.8912827 -0.96946216 -1.4166311 -0.7833594
0003d0 94 ac 9c bf ea 7e 7c bf 9f 71 1e bf 7d 3c 8e bf
       -1.2240167 -0.98631155 -0.6189212 -1.111221
0003e0 39 8f 59 bf 41 4c b1 bf d3 6b 98 bf 3b 58 d3 bd
       -0.84984165 -1.3851396 -1.1907905 -0.10319563
0003f0 6c a6 a5 bf 2f 78 aa bf 9b ff 88 bf 63 56 36 bf
       -1.2941413 -1.3317927 -1.0703005 -0.71225566

fc2.weight f4 [300, 404]
000000 43 f4 0b bf 5f 4a 74 bf f2 a0 d3 3c db db 8e 3c
       -0.5466959 -0.9542598 0.02583358 0.01743882
000010 8c 91 0f 3f f1 a5 32 3e c2 fb a2 3e 85 a6 87 3e
       0.5608146 0.17446114 0.318327 0.26494232
000020 64 03 16 3e fe 13 a3 3d 5b d9 78 be 69 dc 29 be
       0.14649731 0.079627976 -0.24301665 -0.16587986
000030 f8 8c ca bc 80 f5 ca bf 80 d1 8e bf 24 78 d8 3d
       -0.024725422 -1.5856171 -1.1157684 0.1056979
000040 a4 69 3b be 1c 24 1f 3f c3 40 98 bf 21 2d e8 be
       -0.18302017 0.62164474 -1.1894764 -0.4534693
000050 a8 9a 21 be 16 fe be be a2 e5 93 be 0a e1 b3 be
       -0.15781653 -0.37303227 -0.28886133 -0.3513263
000060 c3 2a ae 3e f3 88 4c bf 04 c1 89 be 20 22 67 3e
       0.34017 -0.7989647 -0.26905072 0.22571611
000070 44 12 10 3f 3b a7 52 be 5b 5f 35 bd a0 0e 3d be
       0.5627787 -0.20571606 -0.04428039 -0.1846261
000080 a9 0c 37 3c fc f5 9b bf 1f 34 8f 3d 2c b6 47 3c
       0.011172452 -1.2184443 0.06992363 0.012189429
000090 d7 ea a9 bf e3 c7 9e 3e 16 36 ee be 0f 49 30 bd
       -1.3274792 0.31011876 -0.4652564 -0.043038424
0000a0 53 86 4d 3e 55 f3 d7 be 98 07 85 be ff c7 b6 3d
       0.20070772 -0.42177835 -0.25982356 0.08924865
0000b0 51 65 29 be ab 64 6a 3e 53 ea 50 bf ed bc 16 3e
       -0.16542555 0.22889964 -0.8160755 0.14720507
0000c0 23 28 09 3f 20 b9 15 3f 7a bd cc be f6 ce dc be
       0.5357687 0.58485603 -0.3998831 -0.4312665
0000d0 fc 84 de 3d a3 f1 cc 3d 40 c0 d0 3d 83 66 26 bf
       0.108652085 0.10007026 0.10192919 -0.6500017
0000e0 f2 db ac 3e 08 db 10 bf 81 5a 11 3d da d8 db be
       0.33761555 -0.56584215 0.035486702 -0.42938882
0000f0 61 6a 9b 3e f5 4d 87 3e a4 b4 27 3f c8 45 88 be
       0.30354598 0.26426664 0.6551001 -0.2661574
000100 8d eb ce be bd 3b 5b 3d 6e 5c be 3e 24 8f be bc
       -0.40414086 0.053523768 0.37179893 -0.023261614
000110 96 30 03 bf df 6c cd 3e f2 7b c2 3e 7a 7d 7f bf
       -0.5124601 0.40122125 0.37985188 -0.9980084
000120 ec 8d 2d 3f d4 4d c0 be 84 40 c0 3e 4f d9 2e be
       0.6779468 -0.37559378 0.37549222 -0.17075084
000130 b4 fd 2d 3f b7 22 38 be 82 ef c1 ba d5 1b 73 3e
       0.67965245 -0.17981993 -0.001479611 0.23741086
000140 8c 49 87 be 89 d1 a8 be e8 2a 39 bf d4 10 d1 3e
       -0.264233 -0.32972363 -0.72331095 0.4083315
000150 cf a9 f9 be 32 95 65 bf a6 37 20 be 40 54 0f bd
       -0.48762366 -0.8968078 -0.15646228 -0.034992456
000160 ba 8a 0a 3e 7d 85 45 bf fc 9b 86 3c 1b e4 66 be
       0.13529482 -0.7715681 0.016431801 -0.22547953
000170 f0 9a ab 3d 38 ef af be 38 d4 6f be eb 15 f8 3e
       0.08379161 -0.34362197 -0.23420799 0.48454222
000180 1c 48 4e be 84 e3 02 bf aa de ab bf db a1 b2 bd
       -0.20144695 -0.5112841 -1.3427327 -0.08722278
000190 92 b5 eb be 66 57 01 3f e1 ca f4 be cc 80 a2 3d
       -0.46036965 0.50523984 -0.47811034 0.07934722
0001a0 ec 33 68 bf 3e 71 3e c0 5d d0 cc 3e 02 c5 07 bf
       -0.90704226 -2.9756618 0.4000272 -0.53034985
0001b0 72 29 da 3e 0f 81 f5 bc 7c 4e fb 3c fc 8c d3 be
       0.42609745 -0.029968766 0.030677073 -0.413185
0001c0 3b 3b 20 bf 23 8d 78 3e fe c2 08 ba fb c4 da 3e
       -0.6259038 0.2427259 -0.00052170444 0.4272841
0001d0 28 0a 33 bf b3 e4 0b bf 7c 0e d5 be c8 70 b5 3c
       -0.6993737 -0.5464584 -0.41612613 0.022148505
0001e0 26 d0 de 3e 34 41 5c bf da 93 ee bd 7f 95 22 bf
       0.4351818 -0.8603699 -0.11649294 -0.6350936
0001f0 2e e2 e8 be 2e ba 95 be 32 74 55 3a b2 69 d0 3e
       -0.4548506 -0.29243606 0.00081426196 0.4070564
000200 3a 1b 13 3f d9 86 1a 3e 43 65 3f bf dd 59 83 bd
       0.5746342 0.15090503 -0.7476389 -0.064136244
000210 c1 e7 75 be 45 bc a4 bc 91 0b 1c be 7b 4f b2 3d
       -0.24014188 -0.020109305 -0.15238787 0.08706566
000220 27 03 04 3f a6 8d 75 bd 15 23 02 3e 64 87 dc 3d
       0.5156731 -0.05994954 0.12708695 0.10768011
000230 b7 c7 c0 be 9c 3f 7e bd 68 80 db bd 69 72 2d be
       -0.3765237 -0.06207238 -0.10717851 -0.16938175
000240 7d a3 8e 3e f8 8b 28 be 17 24 50 bf cf e4 8e bf
       0.27859107 -0.16459644 -0.8130507 -1.1163577
000250 3a 17 12 3f 35 2c 93 3d a5 6d bc 3e e3 eb 06 bf
       0.5706669 0.07186166 0.36802402 -0.52703685
000260 2f 9d 83 3e 9a e7 08 3f 97 a0 2d be 61 8d ca b9
       0.2570586 0.53478396 -0.16955791 -0.00038633778
000270 5e dc af 3e f9 80 61 3f 57 8a cb bd eb d2 85 be
       0.34347814 0.8808742 -0.099384956 -0.2613748
000280 80 49 24 3d bd f4 31 3e b5 00 31 bf c2 ec 41 3d
       0.040109158 0.17378516 -0.69141704 0.04734493
000290 a7 c2 9d bf 12 ad 22 3c 05 ea 17 bf c2 ef 93 3e
       -1.2325028 0.0099289585 -0.5934146 0.28893858
0002a0 37 18 fb be 60 a6 17 bf 23 2a 5e bf 98 32 84 bd
       -0.49041912 -0.59238243 -0.86783046 -0.064549625
0002b0 af 60 9b 3d 48 56 cf be ee 7d 41 bf ba 4b 08 bf
       0.075868 -0.40495515 -0.7558278 -0.5324055
0002c0 36 24 f7 3e ee ad 0e bf c5 81 d2 be bc e6 17 be
       0.48269814 -0.55734146 -0.4111463 -0.14834112
0002d0 53 d1 38 bb d2 9a 0a bf 50 30 11 be bb 37 2a be
       -0.0028200939 -0.5414249 -0.14178586 -0.16622822
0002e0 be f2 e9 be 7a 38 08 3d d0 8e 20 bd 00 ea 09 bd
       -0.4569301 0.033256985 -0.039198697 -0.033670425
0002f0 22 a5 16 bf 68 83 5c bf 51 e7 91 3d 2b f8 3c bf
       -0.5884572 -0.8613801 0.07124198 -0.73816174
000300 4e 1e ed bd 04 73 24 bf 13 ea c6 3e cf 45 ab 3d
       -0.11578046 -0.64238 0.3885046 0.08362924
000310 01 92 4a be e9 1f 3d bd a6 d1 4c bf 71 38 a8 3e
       -0.19782259 -0.04617301 -0.800074 0.3285556
000320 cd ce a0 3e 58 e2 fc be e6 9d 02 bf 2e 6d 21 bf
       0.31407776 -0.49391437 -0.51022184 -0.6305722
000330 11 6a ef bd e8 4b 0f be 19 6c b2 bf c5 da ba 3e
       -0.116901524 -0.139938 -1.3939239 0.36495033
000340 92 4e ba bd d5 5e db be 7b 89 d9 be dc 75 48 3e
       -0.09097017 -0.4284579 -0.42487702 0.1957621
000350 43 d7 4b be e7 95 1b 3f e7 42 92 3e 69 51 5c be
       -0.19906335 0.6077561 0.28566667 -0.2151543
000360 9c 6a 81 3d c5 cb b7 be 87 5e 39 be df 4b 73 3e
       0.06319162 -0.3589765 -0.18102466 0.23759411
000370 98 05 81 3e 98 ff 39 3e c7 27 ca bd a7 db 61 bf
       0.2519958 0.18163908 -0.09870868 -0.8822579
000380 3f 19 ae 3e 9d 76 ed bd 56 8b 35 be 80 cd 6e 3d
       0.34003636 -0.11594889 -0.17728934 0.05830145
000390 28 e0 03 be fc 34 0a 3e fd 2b 9e bf 0a 61 a8 3d
       -0.12878478 0.13496774 -1.2357174 0.08221634
0003a0 98 46 86 bc dd e8 8f be 35 a0 b7 3e 22 f3 8e 3e
       -0.016391084 -0.28107348 0.35864416 0.2791987
0003b0 34 c4 a7 bf 0a 54 c0 bd e1 8a 91 3d 23 6b e8 be
       -1.3106751 -0.09391029 0.07106567 -0.4539424
0003c0 53 b5 aa 3d fc 9a 94 3e e3 04 ee be bc 67 d7 be
       0.08335366 0.29024494 -0.46488103 -0.4207133
0003d0 82 ce d3 be 8d 3a 61 bd 4a dc f2 be fc 2c 89 be
       -0.4136849 -0.05498748 -0.47433692 -0.26792133
0003e0 15 b8 90 bc bf a0 81 bf f1 d9 ab 3e 39 ee 07 c0
       -0.017665902 -1.0127181 0.33564714 -2.123915
0003f0 06 74 31 3e 7f e0 32 bd 46 ed 25 bf 79 04 04 bf
       0.17329416 -0.043671127 -0.64815176 -0.51569325

fc2.bias f4 [300]
000000 b0 91 a3 3f d4 c4 ea bd 7e 47 f6 3d 1b f2 fe 3f
       1.2778835 -0.11463323 0.12025355 1.9917635
000010 c4 a5 13 be 94 ba 50 3f 0d ae f5 bd 3f 25 07 be
       -0.14418703 0.81534696 -0.11996088 -0.13197802
000020 1d 46 97 3f 6b d8 2b be d5 48 64 bd ab 2b 9c bd
       1.1818272 -0.16781776 -0.05573352 -0.076255165
000030 4e ec 21 be 1f 13 34 be 32 45 56 be 2a f4 f2 bd
       -0.158128 -0.17585419 -0.20924833 -0.11862977
000040 17 7f df 3f cb c5 0d be b4 53 18 be c8 26 b9 bd
       1.746066 -0.13844983 -0.1487568 -0.090406
000050 07 25 a4 3f c4 81 16 be 93 7a d8 bd 7a 66 94 be
       1.28238 -0.14697939 -0.10570254 -0.28984433
000060 8b 21 5a be a0 01 d1 3d a0 ca 14 be 3c bf e5 bd
       -0.21301858 0.10205388 -0.1453042 -0.11218116
000070 e2 14 fe be 63 de c0 bd 21 a6 86 be 0e ab 83 be
       -0.49625307 -0.09417417 -0.2629862 -0.25716442
000080 56 99 12 be 1f 3d f6 bd b2 6c a4 be 1a 47 11 be
       -0.14316306 -0.12023377 -0.32114178 -0.1418728
000090 17 39 b1 bd 32 31 d4 bd df 86 8c be 7d 51 e2 bd
       -0.08653467 -0.10360946 -0.27446648 -0.11050699
0000a0 92 a5 5e be 04 f1 08 be 80 f9 64 be cd a8 f9 bd
       -0.21742848 -0.1337319 -0.22360802 -0.12190399
0000b0 40 be 00 be 4d fc 34 be 8d 3f 0e be ae e4 c9 bd
       -0.12572575 -0.1767437 -0.1389143 -0.0985807
0000c0 ed dd 13 bf c4 9b 92 bc 19 56 17 bf ec 8c a8 be
       -0.57760507 -0.01789654 -0.5911575 -0.32920015
0000d0 ee e9 30 40 22 03 f1 bd bd b4 d3 bd 8f dd a1 bd
       2.764278 -0.11768176 -0.103372075 -0.07903587
0000e0 21 ca 87 bd 0a 55 1b be 5b 1e 2e be a4 fd c3 3d
       -0.0663035 -0.15169159 -0.17003767 0.095698625
0000f0 77 7f bc bd fe 92 68 3f 1a 71 f6 bd 9d cd 17 be
       -0.092039995 0.9084929 -0.12033291 -0.14824529
000100 5c a4 0f be 4b fc ac bd 22 7a 8b be a0 8a 73 be
       -0.14027542 -0.084465586 -0.27241617 -0.2378335
000110 d3 ea c4 bd d4 ca d8 bd c7 37 f7 3f 50 40 08 be
       -0.09615102 -0.105855614 1.9313897 -0.13305783
000120 ef 9d f6 bd b1 ef fe bd 8a cf e8 bd e8 ee ff be
       -0.12041842 -0.12448061 -0.1136771 -0.49986959
000130 a1 90 36 be 40 a0 e4 bd c2 34 83 be 7c 11 67 3f
       -0.17828609 -0.11163378 -0.2562619 0.90261054
000140 b3 68 cd 3e 9e aa 9c bd aa ca 2e be a1 a4 d1 bd
       0.40118942 -0.0764973 -0.17069498 -0.102364786
000150 e0 82 03 be d8 09 34 be a8 0b 26 be d5 9d 65 bd
       -0.12842894 -0.1758188 -0.16215384 -0.056058723
000160 d9 4a 83 3f 3c a6 0f be c9 39 a2 3f a1 8e 22 be
       1.0257217 -0.14028257 1.2673885 -0.15874721
000170 14 01 01 be 83 f6 1e be 6a 32 f9 bd 3b d2 0a be
       -0.12598068 -0.15523724 -0.12167819 -0.13556759
000180 b4 a0 95 bd 96 ac 80 bd e9 17 2f be 31 45 ce bd
       -0.07306042 -0.06282918 -0.17098965 -0.10071791
000190 8d 71 98 be 0b d9 e8 3e 7a 51 f2 bd 2b d6 45 3f
       -0.29774132 0.4547809 -0.11831947 0.7727992
0001a0 e1 4c 9a bd fd 91 c9 bd de 1a 80 bd be f6 21 be
       -0.07534195 -0.09842298 -0.062551245 -0.15816781
0001b0 e9 6d a0 bd b6 a1 9d bd ad 51 35 be 7a 08 05 be
       -0.07833464 -0.076968595 -0.17706938 -0.12991515
0001c0 fb 68 22 be 1a 74 31 be 31 a3 8d bd e6 40 0f be
       -0.1586036 -0.17329445 -0.06915892 -0.139896
0001d0 f0 51 0b be 1c e7 74 3f b7 45 91 bd aa 3d fb bd
       -0.13605475 0.95665145 -0.07093375 -0.12267621
0001e0 08 87 e6 bd eb b9 cb 3e f3 d8 c1 bd 79 58 21 be
       -0.11256224 0.39790282 -0.09465208 -0.15756406
0001f0 21 e6 fe bd e5 ee 01 be 8a b0 c9 3d 03 63 e9 3e
       -0.12446237 -0.12688787 0.09848125 0.45583352
000200 ef 50 0d bd b3 c9 b9 bd 4c 86 aa 3e c9 53 16 bd
       -0.034501012 -0.09071674 0.33305585 -0.036700998
000210 a9 01 ac 3f e3 8d b2 3e c5 21 43 be dc 50 57 bf
       1.3438007 0.34873876 -0.19055851 -0.84107757
000220 22 98 c2 3f 70 52 2a be 94 4f 13 be 79 34 5f 3f
       1.5202677 -0.1663301 -0.14385825 0.8718944
000230 90 56 29 3e b1 6f db 3e 7c 0d fd 3e c2 90 99 3d
       0.16536927 0.4285865 0.4942435 0.074983135
000240 18 7a eb bd da 5c 9c bd 9a 8a b0 bd ff fb ba bd
       -0.11497897 -0.076348975 -0.08620186 -0.09130096
000250 d0 7a 22 be 0a a7 00 be 61 b0 86 be 60 2b 82 3e
       -0.15867162 -0.1256372 -0.2630644 0.25423717
000260 62 3f 0b be 0c 89 96 bd 82 91 3b 3f 94 80 13 be
       -0.13598397 -0.07350358 0.732689 -0.14404517
000270 f7 9d 26 be 4b cb a6 be 35 f5 2c be 36 32 de bd
       -0.16271196 -0.32576975 -0.16890414 -0.10849421
000280 77 29 85 3f 36 67 2e be 65 60 14 be ec e7 13 be
       1.0403279 -0.1703156 -0.14489897 -0.1444394
000290 54 26 fa bd 99 d5 b4 bd aa bf 89 bd 07 07 c7 be
       -0.12214342 -0.08829803 -0.0672601 -0.3887255
0002a0 47 92 36 be e9 b4 23 3f 42 cc e2 3f e4 29 88 bd
       -0.17829238 0.6394792 1.7718585 -0.06648615
0002b0 d6 60 53 be ce 2e ef bd 1e 5c 0d be 40 a2 ba bd
       -0.20642409 -0.11678849 -0.13804671 -0.09112978
0002c0 e9 87 18 be 67 68 b3 be 03 fd 1b 40 13 57 40 bd
       -0.14895596 -0.3504059 2.4373176 -0.04695804
0002d0 ba d4 57 be bd bf 15 be 8c b0 fd bd a1 e5 07 be
       -0.21077242 -0.14623924 -0.12387189 -0.1327119
0002e0 36 8d f5 3e dc 53 d8 bd b3 2a 3c be c4 49 cc 3e
       0.47959298 -0.1056287 -0.18375663 0.3990003
0002f0 a4 d7 e7 bd d1 b4 e9 bd 57 4e a7 bd 1b 40 1a 3f
       -0.11320427 -0.11411441 -0.08169239 0.6025407
000300 88 fb 52 bd 18 71 de bd 3c 91 c4 bd f6 48 e7 bd
       -0.05150941 -0.10861415 -0.09598014 -0.11293213
000310 2d 2e 8f bd 3b 67 06 be bc 01 21 be 7c 9c d1 bd
       -0.06991229 -0.13125317 -0.15723318 -0.10234925
000320 42 0e bc bd d7 ce 1d be 3b f9 aa bd 35 a9 55 be
       -0.09182407 -0.15410934 -0.08348318 -0.20865329
000330 50 eb 21 be e2 b7 15 be e7 39 53 be ce d0 01 be
       -0.15812421 -0.14620927 -0.20627557 -0.12677309
000340 1d b9 c5 bd fe 1c f3 bd d4 74 03 be c2 1a af bd
       -0.09654448 -0.11870764 -0.12837535 -0.085500255
000350 df 87 e7 bd d4 30 dc bd 09 ef 0e bf fc 06 0d be
       -0.11305212 -0.10751501 -0.5583349 -0.13772196
000360 d3 1a f9 be 5a ef c4 be 67 2f 2f be 0c 1c 3b be
       -0.48653278 -0.3846386 -0.17107926 -0.18272418
000370 18 30 31 be 98 62 13 be fc 4d 25 be 66 c6 ab bd
       -0.17303503 -0.1439308 -0.1614303 -0.08387451
000380 96 0d 4f 3f c4 8c 1e 3f 3b c2 a6 bd 3e 2b ab 3e
       0.80880105 0.6193354 -0.08142515 0.3343143
000390 69 11 6c 3f d8 ea ce bd c9 da 58 3d b1 47 4a 3c
       0.92214066 -0.10103387 0.052943025 0.012346194
0003a0 f6 5b c1 bd d8 d6 a9 bd 7b 1b ee bd 10 a9 8f be
       -0.09441368 -0.08292931 -0.11626335 -0.28058672
0003b0 14 b3 be be ef a8 ea be cb 7a 94 bd 61 25 2b be
       -0.37246 -0.4583201 -0.072499834 -0.16713478
0003c0 f0 4c 14 be 13 5f ba 3e e3 d1 96 bd 66 61 ae bd
       -0.14482474 0.3640066 -0.073642515 -0.08514671
0003d0 d5 33 f9 bd 75 76 04 be df f1 08 be 7f e0 27 be
       -0.12168089 -0.12935813 -0.13373516 -0.16394232
0003e0 5d 0c 90 3e 34 25 ee be 88 97 76 be 6e ff c0 bd
       0.28134432 -0.4651276 -0.24081242 -0.09423719
0003f0 46 98 a4 be dc 47 90 bd 6f f5 d2 bd f3 5e 12 be
       -0.32147425 -0.07044956 -0.10300719 -0.14294033

fc3.weight f4 [1, 300]
000000 81 f3 18 3d ff b3 eb 3c e5 ae b8 3c a6 53 01 3d
       0.0373416 0.028772352 0.022544334 0.031573914
000010 2f 6d 6c 3c ff 1a 18 3d 14 10 66 3c af dc c7 bb
       0.014430328 0.03713512 0.014041919 -0.0060993056
000020 d9 d0 00 3d 94 25 10 3c 3b 73 98 bc ca b0 b8 bb
       0.031449173 0.008798022 -0.018609634 -0.0056363093
000030 65 02 e3 bc cb c7 69 3c a7 e3 28 bc 3f 6e 27 bc
       -0.027711103 0.014268826 -0.010308183 -0.010219156
000040 77 45 27 3d 7f 2f 27 bc 28 c2 ee bb 9f 93 ec 3b
       0.04083773 -0.010204195 -0.007286329 0.0072197462
000050 be 5f 2f 3d fd 49 c2 bc fb ea 94 bc 26 e6 41 3c
       0.042815916 -0.023716921 -0.018178454 0.011834657
000060 e3 60 98 bc 0c a0 ab 3d 0e 47 4a 3b b2 96 07 b9
       -0.018600887 0.08380136 0.0030865106 -0.00012930742
000070 4d 45 47 be 99 57 37 3c e8 e8 22 bd d4 60 ea be
       -0.1946003 0.0111903185 -0.039772898 -0.45777
000080 e0 dd 4c 3c 93 38 5a 3b 0c ad 58 3c 60 37 3b b8
       0.012504071 0.003329788 0.013224851 -4.4635846e-05
000090 e7 1b 5b bc 9b 86 d7 bc d6 54 7f bd 9a 28 a1 bc
       -0.013373352 -0.026309302 -0.062336765 -0.01967268
0000a0 6e 1b bf 3d ac e2 ae ba 1f 56 a4 bd 0c cd 58 3c
       0.09331404 -0.00133427 -0.08024239 0.013232481
0000b0 aa 2f 6b 3c a7 78 87 3d 71 fe f9 3a 47 5a fb bc
       0.014354626 0.066148095 0.0019073022 -0.030682696
0000c0 78 74 44 bc bb 96 82 3d 1b af 3c bd 8e d2 d5 bd
       -0.011990659 0.06376406 -0.04606543 -0.10440551
0000d0 df be 14 3d 42 90 0e bb d3 08 bf 3b 33 5b 0a bb
       0.03631484 -0.0021753465 0.0058299094 -0.0021111488
0000e0 b2 d8 ad be ce 45 ac 3c f4 16 0b bc 85 70 ba bd
       -0.33954388 0.02102938 -0.008489359 -0.09103493
0000f0 e7 a4 61 3b bc 03 26 3d cf 7b 8f 3c 8c 03 19 3c
       0.0034430565 0.040530905 0.017515091 0.009339225
000100 2f 5a 52 3c 72 fb 8b 3c 1d d0 0d bd 1c 93 90 bc
       0.012838884 0.017087672 -0.0346223 -0.017648272
000110 4d 37 fa bb 1f ea 3c bc 89 a5 41 3d 53 63 bb 3c
       -0.007635987 -0.011530428 0.047277007 0.02287451
000120 bb b8 95 3b bf fb 7b 3c b2 87 cc 3c f9 05 9a bd
       0.0045691407 0.015379845 0.024967048 -0.075206704
000130 9a d7 df 3c d6 8a fd bc 22 b4 ad bd 12 b6 28 3d
       0.027324487 -0.030949991 -0.08481623 0.04118926
000140 9e c3 01 3d 70 a2 98 3c 51 5f 26 bd 81 0d 3e 3c
       0.031680696 0.018632144 -0.040618245 0.011599899
000150 b4 e7 c0 3c e5 cd dc 3c 63 4a 1d bb 2f 30 91 3b
       0.023547985 0.026953647 -0.0024000637 0.0044307928
000160 b6 48 b8 3c 5b 0e 82 bc 99 2c fc 3c b1 ca 54 3d
       0.022495609 -0.015875986 0.030782985 0.051951114
000170 3b 90 87 bc 81 87 9b 3c 11 69 fa 3a ba 59 45 3b
       -0.016548267 0.018985512 0.0019104799 0.0030113296
000180 af d6 31 bc 8f 1b 8c bc d4 64 57 bc be 4c 5d 3b
       -0.010854407 -0.017102985 -0.013146598 0.0033767666
000190 35 64 42 bd 2f b6 1b 3d cf 91 35 3c 08 f7 0b 3d
       -0.047458846 0.03801554 0.011082127 0.034171134
0001a0 bf be 88 ba 62 17 b8 bc c8 e3 b4 bc 72 4f cc bc
       -0.0010432823 -0.022472087 -0.02208127 -0.024940226
0001b0 c4 12 8a bb 1a 1a b0 bc cc 5c 0d bd 9c 3b b5 3c
       -0.004213663 -0.021496821 -0.034512326 0.02212315
0001c0 b8 3c a2 3c 13 f8 cc 3c 5a 34 20 3d c8 0b bd bc
       0.019804344 0.025020635 0.039112426 -0.023076907
0001d0 f6 a2 c2 b9 43 de 18 3d 84 77 45 3c a8 aa 07 bc
       -0.0003712398 0.03732134 0.0120524205 -0.008280434
0001e0 52 1f a3 bb 42 85 93 3d 43 6c 77 3c 20 7f 18 3c
       -0.004978099 0.07203151 0.015101495 0.009307653
0001f0 70 33 db bc 26 a3 88 bc de ca 8b 3d 05 b9 3a 3d
       -0.026757926 -0.016679358 0.06825803 0.045586605
000200 4d cf f3 bc 64 41 fc bb 9e 51 5d 3d 2b 56 b2 3c
       -0.029761935 -0.007698225 0.054032914 0.021769604
000210 0d 2e 13 3d 1d 0f 0f 3d 6d d8 2c bc 8d 8f 3f bd
       0.03593259 0.034926523 -0.010549647 -0.04676776
000220 c1 b9 c8 3c 6a 54 45 3c 43 e3 c9 bc 71 ab 56 3d
       0.024502637 0.012044052 -0.0246445 0.052409593
000230 83 a3 44 3d 5a 44 7f 3d a2 90 e3 3c 6d 7c 44 3d
       0.0480075 0.062321045 0.027778927 0.047970224
000240 19 cb 2b bb 28 52 32 bd 65 c8 07 3d c7 a4 98 bc
       -0.0026213585 -0.04353538 0.033150095 -0.01863326
000250 36 76 d1 3c 44 f6 7e bc 2f a4 e0 bb 46 b2 2e 3d
       0.025569063 -0.015561644 -0.0068555097 0.042650484
000260 42 d8 67 bc e1 46 82 3c e5 f1 11 3d 84 eb e6 3a
       -0.014150681 0.015902938 0.03563108 0.0017617797
000270 b4 0a 06 bb b6 ca 89 bd 50 52 5c 3c 43 59 b8 3c
       -0.0020453157 -0.06728117 0.013447359 0.0225035
000280 91 e0 21 3d f8 92 39 3c 8b 83 39 bc 19 06 be 3c
       0.039520804 0.011326544 -0.011322866 0.023196267
000290 97 20 9e ba a5 34 7d bc b9 28 9c 3d 6f 40 62 bd
       -0.0012064156 -0.015454446 0.07624955 -0.05523723
0002a0 be 21 5a bd 3e 21 3c 3d e5 af 04 3d 1f f8 2a 3c
       -0.053254835 0.04593014 0.03239431 0.010435133
0002b0 81 5d 14 be 4b a5 d2 bd 71 0e 7f bc 47 99 e2 3c
       -0.14488794 -0.102854334 -0.015567408 0.027660979
0002c0 42 d2 f9 39 76 50 2f bd 5d cf 36 3d 08 2c 7d 3c
       0.00047649635 -0.042801343 0.04463135 0.015452392
0002d0 fd 44 ff 3b 49 ca c1 bc ef 52 4b bc 1f 0e de bc
       0.0077902065 -0.023656027 -0.01240991 -0.027106343
0002e0 d9 41 fd 3c 37 6f c1 3c 72 3c 0b be 16 b5 8c 3d
       0.030915188 0.023612602 -0.13597277 0.06870477
0002f0 f2 31 ff 3c 3e be f6 bb 36 36 df bb 62 1b 63 3d
       0.031151745 -0.007530003 -0.0068118824 0.055446036
000300 da c6 54 bb eb 3d 4c 3b e9 1b ea 39 f9 1e 89 bb
       -0.0032467158 0.0031164836 0.00044652753 -0.0041846004
000310 42 8f cf 3c 2b dd b4 bc 73 39 7c ba 45 3f b7 3b
       0.025336865 -0.022078117 -0.0009621598 0.005592259
000320 7b 56 ea bc ab 84 7e 3c 90 03 b8 3b 7a 96 73 bd
       -0.02860569 0.01553456 0.005615659 -0.059469678
000330 e0 a4 c0 39 13 8b ba bb 16 b6 86 bd 49 da 85 3d
       0.00036743935 -0.0056928485 -0.06577699 0.06535775
000340 85 10 82 3c d7 d5 6a bc a7 85 87 bc 04 d1 d1 bc
       0.015877018 -0.01433321 -0.016543223 -0.025612362
000350 fe 88 b9 3c a6 e5 15 bb be 19 b6 bd a4 55 c9 3c
       0.02264833 -0.0022872477 -0.08891629 0.02457697
000360 e7 f0 53 bd c2 43 84 bd 47 a1 fa ba 3c c7 33 bd
       -0.051743414 -0.06458236 -0.0019121551 -0.043891177
000370 55 63 a7 ba e5 b6 45 3b c9 5f 2c bb dd 5e e1 bc
       -0.0012770692 0.0030168828 -0.002630221 -0.027511055
000380 73 aa 43 3d aa aa 23 3d 54 a0 e4 bc 26 ca 1d 3d
       0.047769975 0.03995768 -0.027908482 0.038522862
000390 5c 33 1c 3d 85 5e 3a bc 4d ed 17 3d 2d 98 32 be
       0.038134918 -0.011375074 0.037091542 -0.17440863
0003a0 f9 60 a7 bc e6 4c 6b 3c 0d 8b 91 3c b5 9c b4 be
       -0.020431982 0.014361596 0.0177665 -0.35275808
0003b0 eb ff 3b bd 7f 03 3e bd 7a 33 b7 bc 60 05 ab 38
       -0.04589836 -0.046390053 -0.022363413 8.1549166e-05
0003c0 eb 3f c9 bb 53 46 30 3d 1d 6a 16 3b dd 6a f9 3a
       -0.006141653 0.043035816 0.0022951432 0.001902904
0003d0 8b df ae bc f2 8a 40 3c cb 6a a2 bc 65 91 f6 bc
       -0.021346828 0.011751877 -0.019826313 -0.030098626
0003e0 aa d5 15 3d 82 77 2b be 23 99 08 be 87 b6 00 3b
       0.03658072 -0.16744807 -0.13339667 0.0019640045
0003f0 8a f3 1a 3d 1f 00 35 3c c4 2e 9b b8 84 66 ed 3c
       0.037829913 0.011047392 -7.399687e-05 0.028979547
