checkpoint_Actor.pth (torch_old, 41035 bytes, 5 tensors)

fcs1.weight f4 [132, 33]
0.037805084 0.2742651 -0.018966787 -0.56295246 -0.41029516 -0.07991661 0.86408687 -0.09827337
-0.5160228 -0.726641 -0.029344084 0.28336278 -0.025638286 0.06491599 0.2828049 0.2104758
0.2449802 1.5395898 0.5171288 -0.05166038 -0.4496538 0.19712415 -0.49815506 0.010399025
-0.058141917 -0.21771955 0.40610707 -0.04063845 0.027336933 -0.028464667 0.0102920765 -0.026728105
-0.043292284 -0.13234523 -0.2033628 -0.117247276 0.44326675 0.10390092 0.5042607 -0.7908141
-0.025149804 0.21586344 -0.1048835 0.27029976 0.0182701 0.34452945 -0.09210449 0.11003937
0.2395584 -0.14587514 0.19870014 -0.13586102 -0.25506333 -0.10654886 -0.11878288 -0.10083328
0.19710709 0.32041195 -0.24997577 -0.12601288 0.94066125 -0.21509726 -0.06369769 -1.0138955
0.064138785 1.9042121 -0.51849675 0.12090076 -0.22780663 -0.24119124 -0.62673163 0.8897351
0.4650381 -0.19711983 0.012706783 -0.08402703 -0.0021733423 0.15957682 -0.14984292 0.31272256
-0.0786026 0.074411705 0.39061636 1.062227 0.6250842 -0.3025885 -0.13343827 0.2733027
0.17125653 0.1012727 0.26700038 0.04060029 -0.38747042 0.7187306 -0.31928396 -0.08633014
-0.72785515 0.0819757 -1.7324024 -0.2568531 -0.006064674 -0.14113803 -0.4090285 0.9273323
0.6958362 0.17711928 -0.33339718 -0.44234654 0.54639673 0.2635325 0.13589875 0.1622289
0.19188787 -0.027702501 -0.010974337 0.85923374 -0.32033032 -0.31763017 0.28293562 0.070046626
0.08851967 -0.3004288 0.28070742 0.10278377 -0.033855587 0.15798725 1.0135098 -0.13108706
-0.023386195 -0.9927583 -0.07814305 1.450906 0.45557427 0.016595563 0.33584422 -0.09195027
0.29767138 0.19729963 -1.4265102 -0.059481077 0.643455 -0.34601805 -0.043858312 0.026555719
-0.07152445 -0.055085514 0.16481566 -0.08675072 -0.44296506 -0.8903072 0.41674492 1.0493393
0.11308528 -0.0031773301 -0.053368323 -0.15155119 -0.06772394 -0.045556456 0.41178107 0.40391546
0.41019788 -0.051891107 -0.4547488 0.063332126 -1.4470438 -0.7050761 0.24282299 0.38434353
-0.7350585 1.5199788 -1.0321449 -0.0076848962 0.03761122 -0.38246906 0.061376 -0.058109194
0.40260065 0.03601362 -0.017224474 0.2689907 0.3674111 -0.4064366 -0.93045986 0.67273927
-1.4762789 -0.17967626 0.16360143 -0.3543555 0.12385589 0.14467041 -0.40597966 -0.18385215
0.44420606 -0.07977862 0.054335847 -0.50492686 -0.03780102 -0.46482593 -0.41503158 -0.15354611
-0.26439953 -0.07180647 -0.90129405 -0.031747412 0.6169558 -0.22885732 -0.3512169 0.16021575
-0.21148705 0.127492 0.34247038 0.19461656 -0.003471927 0.037281077 0.73560923 -1.0969977
0.7974952 -0.7686578 -0.5174723 -0.3462056 -0.13529384 0.16755131 0.051339965 0.171321
0.12553532 0.38712445 -0.098293915 -0.0463534 -0.29240844 0.05773829 1.1093117 -0.018350776
0.018020166 -0.41978583 -0.16460724 -0.10337736 1.7495682 -0.15344435 -0.14181083 0.09073913
-0.6817631 -0.22234948 0.23477143 0.039935827 0.033526864 -0.13595687 -0.10483811 0.17985927
-0.9362646 -0.4456666 0.07816859 -0.026172103 -0.016075851 0.09142958 -0.14528427 0.033437524
00000000: 81d9 1a3d 7a6c 8c3e 3c60 9bbc a71d 10bf
00000010: 3512 d2be 52ab a3bd cc34 5d3f 8c43 c9bd
00000020: 121a 04bf 2505 3abf 0163 f0bc ed14 913e
00000030: 6207 d2bc adf2 843d cecb 903e f886 573e
00000040: 17dc 7a3e 4711 c53f 8e62 043f d699 53bd
00000050: 0639 e6be eada 493e 2e0e ffbe ac60 2a3c
00000060: 3826 6ebd e0f1 5ebe 44ed cf3e 8174 26bd
00000070: b4f1 df3c bc2e e9bc 19a0 283c e6f4 dabc
00000080: 4053 31bd 8285 07be 563e 50be 571f f0bd
00000090: dcf3 e23e 01ca d43d 3b17 013f cb72 4abf
000000a0: f606 cebc 4e0b 5d3e 29cd d6bd bb64 8a3e
000000b0: 2dab 953c 2a66 b03e 47a1 bcbd 525c e13d
000000c0: cc4e 753e 4b60 15be 0d78 4b3e 271f 0bbe
000000d0: a997 82be 4a36 dabd 7044 f3bd ae81 cebd
000000e0: 71d6 493e 090d a43e a6f9 7fbe 8509 01be
000000f0: 2dcf 703f 7542 5cbe ef73 82bd 54c7 81bf
00000100: 325b 833d 39bd f33f 34bc 04bf d19a f73d
00000110: 2446 69be d6fa 76be 7c71 20bf aec5 633f
00000120: 7919 ee3e c8d9 49be 1c30 503c 5d16 acbd
00000130: a26e 0ebb 1b68 233e 6c70 19be 2c1d a03e
00000140: 66fa a0bd 2a65 983d defe c73e 0ef7 873f
00000150: 8505 203f e1ec 9abe 0ba4 08be 55ee 8b3e
00000160: df5d 2f3e 1068 cf3d 46b4 883e 7d4c 263d
00000170: 8662 c6be bbfe 373f 3079 a3be dbcd b0bd
00000180: b754 3abf e0e2 a73d 5dbf ddbf 4082 83be
00000190: 2cba c6bb 7d86 10be 2f6c d1be a665 6d3f
000001a0: 5222 323f c25e 353e 09b3 aabe 3f7b e2be
000001b0: a8e0 0b3f bbed 863e 0b29 0b3e 551f 263e
000001c0: 417e 443e 5bf0 e2bc b5cd 33bc bef6 5b3f
000001d0: 5602 a4be 6ca0 a2be f0dc 903e 9b74 8f3d
000001e0: cd49 b53d ced1 99be e2b8 8f3e 4c80 d23d
000001f0: 28ac 0abd 69c7 213e b0ba 813f b03b 06be
00000200: 6894 bfbc 6825 7ebf 7709 a0bd 4ab7 b93f
00000210: 0841 e93e 6bf3 873c c6f3 ab3e 6c50 bcbd
00000220: 6268 983e ea08 4a3e e397 b6bf 6ea2 73bd
00000230: 78b9 243f 4729 b1be c6a4 33bd 618b d93c
00000240: 697b 92bd 59a1 61bd 70c5 283e 5daa b1bd
00000250: 51cc e2be 2ceb 63bf 975f d53e c050 863f
00000260: 4199 e73d c13a 50bb be98 5abd 3c30 1bbe
00000270: d9b2 8abd 6899 3abd f8d4 d23e 02ce ce3e
00000280: 7505 d23e c58b 54bd d6d4 e8be 46b4 813d
00000290: bb38 b9bf de7f 34bf 97a6 783e adc8 c43e
000002a0: cb2c 3cbf aa8e c23f 531d 84bf 95d1 fbbb
000002b0: 390e 1a3d fcd2 c3be 6765 7b3d e803 6ebd
000002c0: ac21 ce3e 0583 133d 571a 8dbc 26b9 893e
000002d0: 4f1d bc3e 7518 d0be 9e32 6ebf a438 2c3f
000002e0: b5f6 bcbf 0efd 37be 2287 273e 166e b5be
000002f0: 28a8 fd3d 7b24 143e 91dc cfbe bd43 3cbe
00000300: fa6e e33e f962 a3bd 448f 5e3d e342 01bf
00000310: 3ed5 1abd aafd edbe 057f d4be 313b 1dbe
00000320: 605f 87be 450f 93bd 35bb 66bf 9309 02bd
00000330: d1f0 1d3f 9359 6abe b4d2 b3be 990f 243e
00000340: 1090 58be 438d 023e 4758 af3e 9049 473e
00000350: 4589 63bb 0bb4 183d e350 3c3f 6c6a 8cbf
00000360: a528 4c3f c2c6 44bf 1179 04bf dc41 b1be
00000370: 788a 0abe 9292 2b3e db49 523d c66e 2f3e
00000380: 558c 003e 2d35 c63e 524e c9bd 10dd 3dbd
00000390: 8fb6 95be fc7e 6c3d edfd 8d3f 5e54 96bc
000003a0: 079f 933c 2bee d6be cd8e 28be 82b7 d3bd
000003b0: daf1 df3f 8420 1dbe dc36 11be 70d5 b93d
000003c0: 0788 2ebf 95af 63be ec67 703e c093 233d
000003d0: 7753 093d 4738 0bbe 5db5 d6bd 072d 383e
000003e0: 09af 6fbf 6a2e e4be db16 a03d e166 d6bc
000003f0: 81b1 83bc 6e3f bb3d 66c5 14be c9f5 083d

fcs1.bias f4 [132]
-0.054695196 -1.0164752 -0.9182382 -1.170701 -0.42795932 -0.57531863 -0.16431183 -0.29759163
0.5851177 -0.41717196 -0.30039158 -0.7126636 -0.64407563 -0.48839825 -0.71158814 0.2921622
-1.2493176 -0.93570364 -0.6384661 -0.7402339 -0.6391798 -0.15325695 -0.59202117 -0.15418053
-0.35403794 -0.5996066 -0.856327 -0.42409804 -0.8346883 -1.1174026 -0.48566172 -0.4615256
-0.4256947 -0.26055318 -0.57702935 -0.713914 -0.4707375 -0.31590453 -0.20267344 -0.15647343
-0.73802483 -0.6407096 -0.92756927 -0.81443286 -0.76928955 -0.5969103 -0.6971926 -0.35140702
-0.19837491 -0.8121098 -1.0530678 -0.5624512 -0.09566627 -0.7932257 0.23382448 -0.6279291
-0.60456264 -0.3759842 -0.20464103 -0.41765344 -0.5070893 -0.52682 -0.19761784 -1.0122721
-0.5120861 -0.31805584 -0.40905735 -0.6351262 -0.7372608 -1.0389291 0.021542119 -0.35125598
-0.5895317 -0.5884459 0.17804907 -0.1321491 -0.21336173 -0.7095902 -0.32131103 -0.43052754
-0.15257643 -0.18852617 -0.6771213 -0.6414433 -0.9849795 -0.5470959 -0.05568613 -0.14294538
0.27963328 -0.4730836 -0.4046248 -0.3121694 -0.895387 -0.38603625 -0.63189024 -0.26161355
-0.88312304 -0.42462453 -0.15789539 -0.6430336 -0.46579152 -0.047327783 -0.32185394 -1.0227715
-0.118888855 0.043265607 -0.6098912 -1.2030247 -0.37782896 -0.23783654 0.0461167 -0.9215218
-0.6517258 0.31913382 -0.5671551 -0.5185757 -0.6424476 -0.53381485 -0.38231662 -0.029133717
-0.3290201 -0.20786823 -0.25017774 -0.28756112 -0.7239878 -1.0017413 -0.3733292 -0.36817196
-0.3324757 -0.10618792 -0.15803157 -0.9156233
00000000: 1208 60bd dc1b 82bf a911 6bbf 88d9 95bf
00000010: 7c1d dbbe 1548 13bf 5c41 28be ee5d 98be
00000020: 46ca 153f 9097 d5be edcc 99be 1f71 36bf
00000030: 24e2 24bf 560f fabe a42a 36bf 4996 953e
00000040: a4e9 9fbf 468a 6fbf 8472 23bf f87f 3dbf
00000050: 4aa1 23bf 64ef 1cbe b38e 17bf 80e1 1dbe
00000060: 7644 b5be d17f 19bf 3f38 5bbf 6123 d9be
00000070: 22ae 55bf 0c07 8fbf a7a8 f8be 154d ecbe
00000080: a8f4 d9be 3a67 85be 32b8 13bf 11c3 36bf
00000090: 8104 f1be 3dbe a1be a089 4fbe 923a 20be
000000a0: 32ef 3cbf 8b05 24bf 2e75 6dbf ac7e 50bf
000000b0: 29f0 44bf 1dcf 18bf 377b 32bf 9feb b3be
000000c0: cb22 4bbe 6ee6 4fbf edca 86bf cdfc 0fbf
000000d0: adec c3bd d710 4bbf af6f 6f3e f6bf 20bf
000000e0: 9ec4 1abf 0081 c0be 6b8d 51be acd6 d5be
000000f0: 9bd0 01bf addd 06bf 555c 4abe 2292 81bf
00000100: 1318 03bf 37d8 a2be f76f d1be a197 22bf
00000110: 20bd 3cbf a1fb 84bf 1979 b03c d3d7 b3be
00000120: 8deb 16bf 64a4 16bf 7f52 363e 1852 07be
00000130: 7f7b 5abe b4a7 35bf e182 a4be 1b6e dcbe
00000140: ff3c 1cbe 010d 41be d257 2dbf a135 24bf
00000150: 9e27 7cbf 7a0e 0cbf 2417 64bd 4660 12be
00000160: 182c 8f3e 0338 f2be fb2a cfbe abd4 9fbe
00000170: 1538 65bf 8ba6 c5be 8fc3 21bf 36f2 85be
00000180: 5a14 62bf 6368 d9be 54af 21be da9d 24bf
00000190: 3a7c eebe c7da 41bd 0aca a4be 2dea 82bf
000001a0: 007c f3bd 4737 313d d421 1cbf b7fc 99bf
000001b0: cc72 c1be 6c8b 73be dde4 3c3d dae8 6bbf
000001c0: 81d7 26bf 8265 a33e 1431 11bf 61c1 04bf
000001d0: 7277 24bf 17a8 08bf 01bf c3be d5a9 eebc
000001e0: 5375 a8be 69db 54be 4c17 80be 363b 93be
000001f0: 4457 39bf 0f39 80bf 0125 bfbe 0981 bcbe
00000200: 413a aabe 0d79 d9bd 07d3 21be 4a66 6abf

fc2.weight f4 [40, 136]
0.26875746 0.008644709 0.122307196 -0.55505323 0.41853422 -0.49804103 -0.021264387 0.18268737
0.3106559 0.11998467 0.1860458 -0.22384316 0.3809747 -0.29588577 -0.12896389 0.22499697
-0.5519978 -0.39974865 -0.057092432 -0.38708133 0.11986776 -0.337057 -0.09585187 0.10927652
0.04018694 0.08814919 -0.4491295 -0.5184156 -0.2988322 -0.57232875 -0.35994992 -0.54859227
-0.06505143 0.6646033 0.06803569 -0.14178799 -0.2667258 -0.19901529 -0.8021538 -0.14068034
-0.19533025 0.010586337 -0.5426386 -0.66397357 0.2486189 -0.51805645 -0.43759564 0.058880594
-1.0448346 -0.559898 -0.64437914 0.30314934 0.3331059 -0.39957646 0.023695318 0.176299
0.0755117 -0.1620596 0.12829863 0.41833422 -0.0882917 0.23586966 0.10133356 -0.9442809
-0.011143559 0.28966585 0.34729397 0.2779255 -0.19386926 -0.3220593 0.21134424 -0.09596015
0.18267992 -1.3842497 0.38361534 0.15315704 0.12645556 -0.0012767754 0.2850924 0.24354139
0.23791765 -0.0023213092 -0.112198286 -0.22103982 0.005563722 -0.12568069 -0.00987309 -0.5219993
0.3121192 -0.3378521 -0.07802134 -0.45425123 -0.8061482 -0.33306268 0.072089784 0.32685584
-0.022890678 0.5808991 -0.5347982 0.18483154 0.4185556 0.06091001 -0.33558255 0.002812873
-0.43305087 0.3403623 0.19723986 0.33815834 0.30579334 -0.40830505 0.21001524 -1.4249622
-0.27827138 -0.1029466 0.6326475 -0.049336553 -0.062936 -0.19496952 0.19698736 0.29777697
-0.39465526 -0.5101158 -0.17398195 0.16514707 -0.30875427 0.10501199 0.40581584 -0.0037115775
-0.29186422 0.11334032 0.0053031826 -0.22744995 -0.0114615355 0.038398642 -0.047919895 -0.13518047
0.008360186 -0.8153319 -0.16079722 -0.52873755 -0.41720298 0.052600227 -0.03452224 -0.13030091
0.2684453 0.17666619 -0.11363164 -0.7041183 -0.33914027 -0.14612736 -0.22672914 0.14151074
0.0033283152 0.059838574 0.19782612 -0.5462704 0.07755631 0.4543451 -0.102210954 -0.4388668
0.009053131 -0.23459801 -1.1622912 -0.23538846 -0.021695435 -0.3618369 0.31615654 0.40466875
-0.43968117 -0.019679874 0.27492592 -0.6496777 0.21662267 -0.38055995 0.06369573 0.57103604
-0.89727354 0.06714037 -0.03018177 0.39656866 -0.109046 -0.9419019 -0.23339176 0.19611928
-0.24546738 -0.5857206 -0.4362365 0.24873772 -0.07116609 -0.41587302 0.20061076 -0.94204843
-0.27305752 -0.2504878 -0.6583405 -0.6993586 -0.15309215 0.20579717 -0.3464173 -0.51115763
-0.05981236 -0.28020528 0.044261903 -0.09826354 -0.34359613 -0.023415254 0.105690315 -0.46024397
-0.29621392 -0.35075998 0.046693668 0.22347172 -0.28098246 -0.026564501 0.5901424 -0.008469422
0.5080467 -0.31800362 0.1475522 0.33985183 -0.62165225 -0.3439433 0.18834573 -0.6342371
0.17597915 -0.71912766 -0.16169295 0.16690403 0.48917246 0.11944842 0.47430813 -0.2884247
-0.058836382 -0.29856658 -0.0020249968 -0.45207724 -0.3817952 -0.036832668 -0.1934068 -0.8654185
0.58062154 -0.07225326 -0.023718165 -0.8348003 -0.9347715 -0.4114364 -0.40402427 0.0630292
0.13563557 0.28414834 0.06699802 -0.33859465 0.11950697 -0.09637819 -0.017424688 -0.14247257
00000000: 949a 893e 8aa2 0d3c 327c fa3d f817 0ebf
00000010: 1e4a d63e 3cff febe a732 aebc 6612 3b3e
00000020: 4a0e 9f3e 86ba f53d ca82 3e3e 2437 65be
00000030: 1e0f c33e 577e 97be 1c0f 04be 9b65 663e
00000040: ba4f 0dbf dbab ccbe c1d9 69bd 862f c6be
00000050: 3a7d f53d bc92 acbe fc4d c4bd 5ecc df3d
00000060: 109b 243d 9087 b43d 4df4 e5be e2b6 04bf
00000070: 8900 99be 2384 12bf 5b4b b8be 8b70 0cbf
00000080: af39 85bd 7123 2a3f 4c56 8b3d df30 11be
00000090: 4990 88be aaca 4bbe f459 4dbf 820e 10be
000000a0: a704 48be 5172 2d3c 5dea 0abf 2cfa 29bf
000000b0: f495 7e3e 599f 04bf 890c e0be c72c 713d
000000c0: 24bd 85bf 7a55 0fbf 08f6 24bf 6436 9b3e
000000d0: db8c aa3e 4995 ccbe af1c c23c ba87 343e
000000e0: e1a5 9a3d f4f2 25be b760 033e e72f d63e
000000f0: 47d2 b4bd d187 713e f887 cf3d 65bc 71bf
00000100: 7993 36bc 154f 943e 84d0 b13e 404c 8e3e
00000110: aa85 46be f5e4 a4be a06a 583e c186 c4bd
00000120: 7210 3b3e 182f b1bf 3b69 c43e 33d5 1c3e
00000130: 917d 013e 7959 a7ba a2f7 913e ea62 793e
00000140: afa0 733e 1b21 18bb 37c8 e5bd 4358 62be
00000150: e24f b63b 70b2 00be bec2 21bc bfa1 05bf
00000160: 16ce 9f3e f3fa acbe a7c9 9fbd 9e93 e8be
00000170: ba5f 4ebf 3187 aabe cfa3 933d a659 a73e
00000180: 3b85 bbbc ceb5 143f 89e8 08bf 7b44 3d3e
00000190: eb4c d63e c67c 793d 7ad1 abbe 2e58 383b
000001a0: d8b8 ddbe f843 ae3e 3ff9 493e 1723 ad3e
000001b0: f290 9c3e 5c0d d1be 3c0e 573e 2965 b6bf
000001c0: 9679 8ebe abd5 d2bd 30f5 213f 2015 4abd
000001d0: 97e4 80bd 17a6 47be 0eb7 493e 3976 983e
000001e0: 4110 cabe f396 02bf 5328 32be 501c 293e
000001f0: 0a15 9ebe 8710 d73d 18c7 cf3e f03d 73bb
00000200: 3a6f 95be f81e e83d 52c6 ad3b a4e8 68be
00000210: 2ac9 3bbc e547 1d3d a747 44bd c06c 0abe
00000220: 29f9 083c 97b9 50bf 07a8 24be 585b 07bf
00000230: a19b d5be 5673 573d 3167 0dbd 9a6d 05be
00000240: aa71 893e fbe7 343e b5b7 e8bd 1941 34bf
00000250: cba3 adbe 69a2 15be af2b 68be 31e8 103e
00000260: dd1f 5a3b 4b19 753d ee92 4a3e 60d8 0bbf
00000270: d8d5 9e3d ec9f e83e fa53 d1bd 26b3 e0be
00000280: 9553 143c 763a 70be f5c5 94bf ac09 71be
00000290: a0ba b1bc b042 b9be 45df a13e be30 cf3e
000002a0: e41d e1be b037 a1bc 17c3 8c3e 4751 26bf
000002b0: 55d2 5d3e c1d8 c2be e872 823d 6b2f 123f
000002c0: b8b3 65bf e480 893d c23f f7bc 0c0b cb3e
000002d0: 8253 dfbd 7c20 71bf 40fe 6ebe 7ed3 483e
000002e0: cd5b 7bbe c9f1 15bf 645a dfbe 1ab5 7e3e
000002f0: 87bf 91bd 4fed d4be e86c 4d3e 162a 71bf
00000300: 32ce 8bbe f03f 80be 0189 28bf 2a09 33bf
00000310: 30c4 1cbe 7ebc 523e 9c5d b1be 3adb 02bf
00000320: cefd 74bd 1177 8fbe f84b 353d 653e c9bd
00000330: d5eb afbe 59d1 bfbc 2a74 d83d 19a5 ebbe
00000340: 5aa9 97be d096 b3be dc41 3f3d c5d5 643e
00000350: efdc 8fbe cc9d d9bc 9313 173f 55c3 0abc
00000360: 590f 023f 5fd1 a2be ed17 173e 0f01 ae3e
00000370: 9a24 1fbf 5619 b0be b4dd 403e 5d5d 22bf
00000380: e133 343e c018 38bf d692 25be e4e8 2a3e
00000390: d074 fa3e 60a1 f43d 84d8 f23e 67ac 93be
000003a0: 6bfe 70bd b8dd 98be cfb5 04bb ab76 e7be
000003b0: a97a c3be dadd 16bd 6f0c 46be 118c 5dbf
000003c0: 9da3 143f 84f9 93bd 994c c2bc 79b5 55bf
000003d0: 2f4d 6fbf cba7 d2be 45dc cebe 7415 813d
000003e0: 0de4 0a3e e47b 913e 4236 893d 475c adbe
000003f0: 12c0 f43d ee61 c5bd 38be 8ebc 54e4 11be

fc2.bias f4 [40]
0.52666605 0.20625736 -0.068977274 -0.09264247 0.08105748 -0.05357106 -0.124931715 0.60935897
-0.07039917 -0.20036931 0.07319033 -0.20592251 0.4052191 -0.16893266 0.21079473 0.038047954
0.096138164 -0.07810142 0.18617873 -0.13489945 0.53352404 0.2453249 -0.18778014 -0.2093096
0.20159146 -0.21842009 -0.13040863 -0.22145998 -0.14785321 0.015695367 0.80038834 -0.01939977
-0.065306254 -0.17198296 -0.14089198 0.028625218 0.14808248 -0.0027807686 -0.11283672 -0.066416174
00000000: 96d3 063f 2135 533e f543 8dbd 56bb bdbd
00000010: 7701 a63d 546d 5bbd 33dc ffbd f3fe 1b3f
00000020: 712d 90bd 9d2d 4dbe d0e4 953d 5add 52be
00000030: e178 cf3e affc 2cbe 93da 573e 2cd8 1b3d
00000040: 16e4 c43d a3f3 9fbd a3a5 3e3e 1523 0abe
00000050: 0895 083f 7336 7b3e 7049 40be 4155 56be
00000060: fe6d 4e3e 84a9 5fbe d789 05be 68c6 62be
00000070: d566 17be 9293 803c 40e6 4c3f 44ec 9ebc
00000080: 49bf 85bd 4d1c 30be fd45 10be 6f7f ea3c
00000090: efa2 173e 8e3d 36bb f016 e7bd 3405 88bd

fc3.weight f4 [1, 40]
0.045466863 -0.061695885 -0.020453285 -0.019389639 -0.055682454 -0.016128456 -0.015203803 0.061744437
0.0072384737 0.017176786 -0.004429734 -0.027246477 0.18497905 -0.019957615 0.084145375 -0.07569709
-0.083599254 0.01798996 -0.08729116 0.013172971 0.06162958 0.06799332 -0.0021729255 0.0027349407
-0.036225207 -0.033775527 -0.019428683 0.025856763 0.014789622 -0.120581165 0.029732384 0.0042959163
0.01376707 0.011444853 0.0036003212 -0.05229581 -0.032272022 -0.09640305 0.0026203925 -0.12485345
00000000: 763b 3a3d d3b4 7cbd a68d a7bc 05d7 9ebc
00000010: 4913 64bd d31f 84bc 5f19 79bc bce7 7c3d
00000020: b830 ed3b 55b6 8c3c 4d27 91bb 0134 dfbc
00000030: 266b 3d3e 277e a3bc 6954 ac3d 1307 9bbd
00000040: 1636 abbd ae5f 933c b5c5 b2bd 72d3 573c
00000050: 4c6f 7c3d 1540 8b3d a467 0ebb b13c 333b
00000060: e260 14bd 3558 0abd e728 9fbc 90d1 d33c
00000070: 2c50 723c 42f3 f6bd 5491 f33c c2c4 8c3b
00000080: 478f 613c 3183 3b3c 5ef3 6b3b 2234 56bd
00000090: ab2f 04bd f66e c5bd e4ba 2b3b 2ab3 ffbd
