checkpoint_Actor.pth (torch_old, 541425 bytes, 6 tensors)

fc1.weight f4 [400, 33]
0	0x3f07e1bd	0.53078824
1	0x3f5501ae	0.8320569
2	0x3f9e5b5a	1.2371628
3	0x3f13af42	0.576893
4	0x3e8f881a	0.28033525
5	0x3d3d5a35	0.046228606
6	0xbf848989	-1.0354472
7	0x3f3dd591	0.74154
8	0x3ec799b0	0.38984442
9	0xbf1c2c60	-0.6100521
10	0xbed2585d	-0.4108304
11	0x3ed7237d	0.42019263
12	0x3ee79038	0.45227218
13	0x3ed7e75d	0.42168704
14	0xc01a3b02	-2.4098516
15	0xbe868c99	-0.26279142
16	0x3e8b20ab	0.2717336
17	0xbf21abf4	-0.63153005
18	0xbde0da66	-0.10979156
19	0x3f25a22f	0.647006
20	0xbeaa4a48	-0.33259797
21	0x3e9aeb54	0.30257666
22	0x3e344a93	0.17606573
23	0x3eda690e	0.42658275
24	0xbf45c7be	-0.7725791
25	0x3e04227d	0.12903781
26	0xbed88905	-0.42292038
27	0xbf04c08c	-0.51856303
28	0x3e14a207	0.14514934
29	0x3d4b65c9	0.049657617
30	0x3f03cfe1	0.51489073
31	0xbcea4fb7	-0.028602464
32	0x40d4674c	6.6376095
33	0xbe6ba0de	-0.23010585
34	0x3fb50ef1	1.4145185
35	0xbf34cd58	-0.7062583
36	0xbf739bee	-0.95159805
37	0xbf823a2c	-1.0174003
38	0xbfb03cd4	-1.3768563
39	0x3f8e8516	1.1134365
40	0xbe2c76ae	-0.16842148
41	0x3fe4d0d7	1.7876233
42	0xbf3a6b98	-0.72820425
43	0xbf30703d	-0.6892126
44	0xbeac13cf	-0.33608863
45	0x3dc149d6	0.09437911
46	0x3e5f58d8	0.21811235
47	0x3eaee983	0.3416253
48	0x3f11ec23	0.5700094
49	0xbe7bd7de	-0.24594066
50	0x3e85932e	0.26088852
51	0x3f8090a0	1.0044136
52	0xbe85fb53	-0.26168308
53	0x3f677536	0.90413225
54	0x3dc89a23	0.09795024
55	0xbf111a09	-0.5668035
56	0x3f5c488f	0.86048216
57	0x3ee16a45	0.4402639
58	0xbf10f541	-0.5662423
59	0x3ecb4926	0.39704245
60	0x3fc75bae	1.5574853
61	0xbedab496	-0.427159
62	0xbd28afc3	-0.041183244
63	0xbfc21b9c	-1.5164676
64	0xbc3b03ec	-0.011414509
65	0x409834e4	4.7564564
66	0xbf15e6a8	-0.5855508
67	0xbf8c1681	-1.0944368
68	0x3f68f695	0.91001254
69	0x3f318759	0.6934715
70	0x3f4ad453	0.7923023
71	0xbedbdcbc	-0.42941844
72	0x3f18eb7c	0.5973432
73	0xbf882f4d	-1.0639435
74	0xbefbed93	-0.49204692
75	0x3f1e20ec	0.61768985
76	0x3e87262e	0.26396316
77	0xbf0de1d3	-0.55422705
78	0x3fbdada1	1.4818612
79	0x3f04e7a0	0.5191593
80	0x3f9ddaad	1.233236
81	0xbf53af2c	-0.82689166
82	0xbf026ae6	-0.50944364
83	0xbfa94d30	-1.3226681
84	0x3ee4a5d8	0.4465778
85	0x3f247b6f	0.64250845
86	0xbf078791	-0.5294123
87	0x3fb897ce	1.4421327
88	0x3f5afcd2	0.85542023
89	0xbef37711	-0.47551778
90	0x3ecc1561	0.3986006
91	0xbf150efa	-0.5822598
92	0xbefcaa52	-0.49348694
93	0x3f405fbb	0.75146073
94	0x3f391804	0.7230227
95	0xbd0bd4ec	-0.034138605
96	0xbf501d4f	-0.8129472
97	0x3d3cb22b	0.04606835
98	0x40325d04	2.7869272
99	0xbe938b6a	-0.28817302
100	0x3f2dd1f3	0.6789848
101	0xbf0aea30	-0.5426359
102	0xbea74676	-0.32670945
103	0xbbfd88bd	-0.0077372477
104	0x3f3aa473	0.7290718
105	0xbe40a0f4	-0.18811399
106	0xbf553a3d	-0.8329199
107	0x3f495b35	0.78654796
108	0x3dcde19e	0.10052799
109	0x3ea2ffe3	0.3183585
110	0x3ce52243	0.027970439
111	0x3e578f3f	0.21050738
112	0x3fcf2525	1.6183211
113	0x3fbd7442	1.4801104
114	0x3eea9fc6	0.45825022
115	0xbea28865	-0.31744686
116	0x3fa30e05	1.2738653
117	0x3d299048	0.041397363
118	0xbeb2e0de	-0.34937185
119	0xbef08f34	-0.46984255
120	0xbebe4f80	-0.3717003
121	0xbdee6e5e	-0.116421446
122	0x3e9202a8	0.28517652
123	0x3fc28560	1.5196953
124	0x3d8942f7	0.06702226
125	0xbecb39ac	-0.39692438
126	0x3f0f35b9	0.5594135
127	0xbe06d5c0	-0.13167477
128	0xb8545800	-5.0626695e-05
129	0xbf192765	-0.59825736
130	0xba080380	-0.000518851
131	0x40978061	4.7344213
132	0x3e9efed1	0.31053784
133	0xbe8cd2e0	-0.27504635
134	0x3fe485a9	1.785329
135	0x3f644af6	0.8917688
136	0x3eee816c	0.46583116
137	0x3d609612	0.05483062
138	0xbee3f984	-0.44526303
139	0xbec81027	-0.39074823
140	0x3f035190	0.5129633
141	0x3f62fd43	0.88667697
142	0x3e3fb1fd	0.18720241
143	0x3c14843d	0.009064731
144	0x3f9fa82f	1.24732
145	0xbdcb2242	-0.099186435
146	0x3eace266	0.33766478
147	0xbfa7b0c6	-1.3100822
148	0xbf2e9023	-0.68188685
149	0xbf5b650d	-0.85701066
150	0xbf549762	-0.8304349
151	0x3eddb2d6	0.43300503
152	0xbea900a5	-0.33008304
153	0x3f6f3481	0.9343949
154	0x3ea26590	0.3171811
155	0xbe958778	-0.29204917
156	0xbe1cc658	-0.15310037
157	0xbf2b1135	-0.6682313
158	0x3d4fe756	0.05075773
159	0x3f34f5a4	0.7068732
160	0xbfa5ffc6	-1.2968681
161	0xbd1b80e0	-0.0379647
162	0xbf3b78b6	-0.73231065
163	0xbc19c468	-0.009385206
164	0xc09d127b	-4.908506
165	0xbfb662a1	-1.4248849
166	0x3fd20c0b	1.6409925
167	0x3f44ad17	0.76826614
168	0xbf856980	-1.0422821
169	0xc0168865	-2.3520749
170	0x3ecb8305	0.39748397
171	0x3f89d903	1.0769352
172	0xbee8159b	-0.45328984
173	0xbf0b1c19	-0.5433975
174	0xbfa1a0db	-1.2627214
175	0xbe828692	-0.25493294
176	0x3fb8965d	1.4420887
177	0x3e144702	0.14480212
178	0xbf801071	-1.0005018
179	0x3f71772f	0.94322485
180	0x3e4129ec	0.18863648
181	0xbf331488	-0.69953203
182	0x3d19fa75	0.03759237
183	0xbf0a82c3	-0.54105777
184	0xbf4d315c	-0.8015344
185	0x3f13d6d6	0.5774969
186	0xbf87f862	-1.0622675
187	0xbf998742	-1.1994402
188	0xbf154125	-0.5830253
189	0x3f2b2dbc	0.6686666
190	0xbf583853	-0.84460944
191	0xbcc49a53	-0.023999369
192	0x3f83691a	1.026645
193	0x3eee1dfa	0.46507245
194	0x3d402789	0.046912704
195	0xbf7b1d02	-0.9809114
196	0x3a713ec0	0.0009202771
197	0x3ff8e171	1.9443799
198	0x3e1b7a34	0.15183336
199	0xbf246a9e	-0.64225185
200	0xbe139ac7	-0.14414512
201	0x3fc618fe	1.5476377
202	0xbfba65af	-1.4562281
203	0xbeea80df	-0.45801446
204	0xbf0fcfbe	-0.56176364
205	0x3f0b4a33	0.54410094
206	0xbe0eaf16	-0.13933977
207	0xbf4c45b9	-0.7979389
208	0xbf5650a5	-0.83716804
209	0xbe5bedf3	-0.21477489
210	0x3bc4366b	0.0059879324
211	0x3ee6772a	0.4501279
212	0x3fcc4b6e	1.5960519
213	0xbf1abc26	-0.6044334
214	0xbee376f0	-0.4442668
215	0xbf60b46e	-0.87775314
216	0x3ffd6c15	1.9798609
217	0x3ef3bc4a	0.4760459
218	0x3d9e852a	0.07740243
219	0xbe2da051	-0.16955687
220	0xbf66e641	-0.9019509
221	0x3edeca97	0.4351394
222	0x3d47b6db	0.04875837
223	0xbf33a151	-0.70168024
224	0xbf37765f	-0.71664995
225	0x3fc055f8	1.5026236
226	0x3e44bec6	0.192134
227	0xbd2f707f	-0.042831894
228	0xbfc30248	-1.5235071
229	0x3c2ce8ac	0.01055352
230	0xbf376495	-0.7163785
231	0xbee8bd6e	-0.45457023
232	0xbee75ed4	-0.45189536
233	0xbdd81752	-0.10551323
234	0xbd9bf900	-0.07615852
235	0xbca255b8	-0.019816265
236	0xbe26bafb	-0.16282265
237	0xbf5aa9bf	-0.8541526
238	0x3f8ba5ed	1.0910012
239	0x3eb4ee90	0.3533826
240	0xbf4e2d4d	-0.80537874
241	0xbd30db2e	-0.043177776
242	0x3f261b54	0.6488545
243	0xbe89b46e	-0.2689547
244	0xbefad460	-0.48990154
245	0x3f4fbc40	0.8114662
246	0x3f41d37a	0.7571331
247	0xbd71d6c2	-0.0590427
248	0x3f23c7d9	0.6397682
249	0x3e97214a	0.29517585
250	0xbf90211d	-1.1260105
251	0x3d32c26e	0.043642454
252	0xbf360365	-0.7109893
253	0xbec000f2	-0.3750072
254	0xbecab335	-0.3958985
255	0xbf20a3e7	-0.62750095

fc1.bias f4 [400]
0	0x3ed6d0b2	0.41956097
1	0xbfcdd5b2	-1.608084
2	0xbf1dc5a7	-0.6162972
3	0xbf0e4399	-0.55571896
4	0xbf57705e	-0.84155834
5	0xbf947d2a	-1.1600697
6	0xbfd06cc0	-1.6283188
7	0xbfabdef2	-1.3427413
8	0xbf9384d1	-1.1524907
9	0xbf55a819	-0.8345962
10	0xbe9e9555	-0.30973306
11	0xbff84b49	-1.9397975
12	0xbf897447	-1.073861
13	0xbf764943	-0.9620554
14	0xbfbc3373	-1.4703201
15	0x3e96a1cd	0.2942032
16	0xbf38b6a7	-0.72153705
17	0xbf7d2133	-0.98878783
18	0xbeede8c2	-0.46466643
19	0xbf2ea7d3	-0.6822483
20	0xbf96f52a	-1.1793568
21	0xbe444852	-0.19168213
22	0xbeca76f9	-0.39543894
23	0xbe8d7715	-0.27629915
24	0xbf916313	-1.135836
25	0xbf8ad031	-1.0844785
26	0xbf7cad49	-0.9870191
27	0xbe6e115e	-0.23248813
28	0x3eff7233	0.49891815
29	0xbf4ca031	-0.7993193
30	0xbebafd44	-0.3652135
31	0xbea03606	-0.31291217
32	0xbfb34e13	-1.4008201
33	0xbc0a26bb	-0.008432086
34	0x3ecc4ff6	0.39904755
35	0xbf91053e	-1.1329725
36	0xc0122300	-2.2833862
37	0x3e2460fc	0.16052622
38	0xbf155981	-0.583397
39	0xbfb7c641	-1.4357377
40	0xbf626f27	-0.88450855
41	0x3f24255f	0.64119524
42	0xbe673e14	-0.22582275
43	0xbeb39a8e	-0.35078853
44	0xbf8a2d97	-1.0795163
45	0xbf2ef2cc	-0.6833923
46	0xc003d292	-2.0597272
47	0xbe5a50b8	-0.21319854
48	0xbe9af901	-0.302681
49	0xc0170a54	-2.3600054
50	0x3f14100c	0.57836986
51	0xbf070c48	-0.52753115
52	0xbf40f9c8	-0.75381136
53	0xbea42aac	-0.32063806
54	0xbe9f52b6	-0.3111779
55	0xbea3568e	-0.31901973
56	0x3de90f46	0.11379866
57	0xbf992478	-1.1964254
58	0xbfb518d5	-1.4148203
59	0xbf9c6e86	-1.2221229
60	0xbfe6c5eb	-1.802915
61	0x3d8c492f	0.06849896
62	0xbe624bb2	-0.22099188
63	0xbfc123f5	-1.5089098
64	0xbef10d98	-0.47080684
65	0xbf64cfff	-0.89379877
66	0xbff69d2c	-1.9266715
67	0xbf266b1e	-0.650072
68	0xbe652650	-0.22377896
69	0xbd703e7d	-0.058653343
70	0xbfad484e	-1.3537691
71	0xbfabb09f	-1.3413275
72	0xbf5be079	-0.85889393
73	0xbf55d3d7	-0.83526367
74	0xbf6ece5a	-0.9328362
75	0xbe866f99	-0.26257017
76	0x3e26ab60	0.16276312
77	0xc0176f9d	-2.3661873
78	0x3efaf2f4	0.49013484
79	0x3db436c2	0.08799507
80	0xbf60df4a	-0.8784071
81	0xbf014490	-0.50495243
82	0xbf0ec50f	-0.5576944
83	0xbe0b1875	-0.13583548
84	0xbe797eed	-0.24364825
85	0xbf0a14e9	-0.53938156
86	0xbfb53aac	-1.415853
87	0xbf58d640	-0.8470192
88	0xbf6e319d	-0.93044454
89	0xbf74bbb3	-0.95598906
90	0xbec17158	-0.37781787
91	0x3f72a65a	0.9478508
92	0x3dd4c5f8	0.10389322
93	0xbfe42689	-1.782426
94	0xbf9bf624	-1.2184491
95	0xbf95e669	-1.1710941
96	0xbe595058	-0.21222055
97	0xbe9c25cd	-0.3049759
98	0xbf1f28c8	-0.621716
99	0x3e92b080	0.28650284
100	0xbf883ec1	-1.0644151
101	0xbf9d0920	-1.226841
102	0xbf964f47	-1.1742944
103	0xbf99c6d8	-1.2013807
104	0xbfa729ec	-1.3059669
105	0x3eb835b7	0.3597848
106	0xbed8f1e2	-0.42372042
107	0xbe5776be	-0.2104139
108	0xbef10a4d	-0.4707817
109	0xbfa2b182	-1.2710421
110	0xbc2f31ef	-0.010693057
111	0xbf5e07b3	-0.867305
112	0xbfc22a2e	-1.5169122
113	0xbc0e8f7c	-0.0087012015
114	0xbeb1762c	-0.3466047
115	0xbf9323dd	-1.149532
116	0xbf12f4cd	-0.57404786
117	0xbfa3141b	-1.2740511
118	0xbf10d2ef	-0.5657186
119	0xbfbc9bce	-1.4735048
120	0x3f8c33bf	1.0953292
121	0xbf23340d	-0.637513
122	0xbfd8334a	-1.6890652
123	0xbd402675	-0.046911675
124	0xbecde16d	-0.4021105
125	0x3d8f89b3	0.07008686
126	0xbe193d97	-0.14964901
127	0xbf513522	-0.817217
128	0x3efd6160	0.49488354
129	0xbef1e666	-0.47246093
130	0xbe68220f	-0.22669242
131	0xbe4c1d4e	-0.19933054
132	0xbfc74831	-1.5568906
133	0xbfd83ebb	-1.6894144
134	0x3dd01203	0.101596855
135	0x3ec55f3b	0.38549218
136	0xbf9d07ca	-1.2268002
137	0xbf0c021d	-0.54690725
138	0xbf6ff5de	-0.9373454
139	0xbf9abefc	-1.2089534
140	0xbf3968ba	-0.72425425
141	0xbf4a68d1	-0.7906619
142	0xbe91cfa1	-0.2847872
143	0x3f6aceea	0.91721976
144	0xc030f946	-2.7652144
145	0xbef900c6	-0.48633403
146	0xbfd5b54d	-1.6695954
147	0xbf905a93	-1.1277641
148	0xbf91ef1b	-1.1401094
149	0xbff09deb	-1.8798193
150	0xbfdc71cc	-1.7222228
151	0xbfcede0d	-1.6161515
152	0x3ee69b7a	0.45040494
153	0xbf826a15	-1.0188624
154	0x3e7699f5	0.24082167
155	0xbf66f68b	-0.90219945
156	0xbefe2753	-0.49639377
157	0xbfcac1f9	-1.5840446
158	0xbf977336	-1.1832035
159	0xbf9c6109	-1.2217113
160	0xbecd9c5f	-0.40158364
161	0xbebe0e96	-0.37120503
162	0xc007f797	-2.1244867
163	0x3c9e4157	0.019318266
164	0xbf45972f	-0.7718381
165	0xbeb64562	-0.3559981
166	0x3f36ff92	0.7148372
167	0xbf37798c	-0.7166984
168	0xbfad0526	-1.3517196
169	0xbf92cc78	-1.1468649
170	0xbe192014	-0.14953643
171	0xbfa7d1bb	-1.311088
172	0xbea2c61d	-0.31791773
173	0xbfe24e85	-1.7680212
174	0xbed61510	-0.41812944
175	0xbf95eae2	-1.1712306
176	0xbff9102f	-1.9458064
177	0xbf8bfed7	-1.0937146
178	0xbf49382e	-0.7860135
179	0xbf388c5a	-0.7208916
180	0xbfa2f513	-1.2731041
181	0xbf7e190b	-0.9925696
182	0x3d9c19f8	0.07622141
183	0xc01f84bc	-2.4924765
184	0xbf0ea468	-0.55719614
185	0xbf8f9467	-1.1217164
186	0xbe814aa8	-0.2525227
187	0xbe846427	-0.2585766
188	0x3f65a299	0.8970123
189	0x3f026dd4	0.50948834
190	0xbe9640a7	-0.293462
191	0xbfe10c6d	-1.7581917
192	0xc0060b03	-2.094422
193	0x3e25ac39	0.16178979
194	0xbf17ebed	-0.5934437
195	0xbfb0f8ff	-1.3825988
196	0xbf37d4bc	-0.7180898
197	0xbf01c28b	-0.50687474
198	0xbeb044f2	-0.344276
199	0xbea36c9a	-0.31918794
200	0x3e002d75	0.1251734
201	0x3bf869a0	0.007580951
202	0xbf81cc08	-1.014039
203	0xc01add84	-2.4197702
204	0xbed5a65f	-0.41728494
205	0xbd63c04a	-0.055603303
206	0xbee1d382	-0.4410668
207	0xbf1472d7	-0.5798773
208	0xbf68332d	-0.9070309
209	0xbf3e6ab2	-0.74381554
210	0x3ea39026	0.31945914
211	0xbf3ac6b9	-0.72959477
212	0xbf83abd4	-1.0286813
213	0x3d6142f6	0.0549955
214	0xbf799a54	-0.9750111
215	0xbea2afde	-0.317748
216	0xbebe9330	-0.3722167
217	0xbdcf909d	-0.10135005
218	0xc03eeae6	-2.983087
219	0xbf28eaf7	-0.6598353
220	0xbf0594e4	-0.52180314
221	0xc01ae5ad	-2.4202683
222	0xbe23d2d7	-0.15998398
223	0xbf8b7e71	-1.0897962
224	0xbe8989a5	-0.26862827
225	0xbf794931	-0.97377306
226	0xbf517507	-0.81819195
227	0xbf99c1f1	-1.2012311
228	0xbea102ec	-0.31447542
229	0xbee7c499	-0.4526718
230	0xbf936cda	-1.1517594
231	0xbd7e75cb	-0.062124055
232	0x3e6004b4	0.21876794
233	0xbec90aa2	-0.39265925
234	0xbf6a4f12	-0.915269
235	0x3d1d66bd	0.038428057
236	0xbecfb242	-0.40565687
237	0xbf92da5d	-1.1472889
238	0xbf7d3bf7	-0.98919624
239	0xbfbbdeca	-1.4677365
240	0xbfa54acf	-1.2913455
241	0xbfbb3f1b	-1.4628633
242	0xbeb02af0	-0.3440776
243	0x3e68d279	0.22736539
244	0x3b0dcbc9	0.0021636358
245	0xbf37149a	-0.7151581
246	0xbfa7f817	-1.3122586
247	0xbf8afbed	-1.0858132
248	0xbf231342	-0.6370126
249	0xbf093601	-0.5359803
250	0xbfbf3559	-1.4938155
251	0x3ef6ed07	0.48227713
252	0xbe8d3f06	-0.27587146
253	0x3ed9c5a3	0.42533597
254	0xbf24bf75	-0.6435464
255	0xbe71d22f	-0.23615335

fc2.weight f4 [300, 400]
0	0xbec3a6ec	-0.3821329
1	0xbea6dbbc	-0.3258952
2	0x3ea552d5	0.32289758
3	0xbf151302	-0.5823213
4	0xbf7a1c1d	-0.9769915
5	0x3dd9f6f6	0.10642807
6	0xbf133da4	-0.5751593
7	0xbde57063	-0.11203077
8	0xbf22e4ec	-0.6363056
9	0x3e9f682a	0.31134158
10	0xbdfc3aa8	-0.12315875
11	0xbdc78975	-0.09743015
12	0xbec9a28d	-0.3938183
13	0xbe2d4919	-0.16922416
14	0xbd8da839	-0.069168516
15	0xbf1bc57e	-0.60848224
16	0xbfa09771	-1.2546216
17	0xbe7cdedd	-0.2469439
18	0xbf3eeaa4	-0.74576783
19	0xbec530f0	-0.385139
20	0xbe11fe7a	-0.14257231
21	0x3e662da1	0.22478344
22	0x3f499444	0.7874186
23	0xbf392ada	-0.7233101
24	0xbd63981e	-0.055564992
25	0x3c4079a2	0.0117477495
26	0xbf11f42c	-0.570132
27	0xbfb44fee	-1.4086893
28	0xbf055b2b	-0.52092236
29	0xbea13e65	-0.31492916
30	0x3b84dab6	0.0040543927
31	0xbe93a39f	-0.2883577
32	0x3f46f0ad	0.7771099
33	0xbe0f69fb	-0.14005272
34	0xbfb57f56	-1.4179485
35	0xbf5a146f	-0.8518743
36	0xbf1ae1c0	-0.6050072
37	0xbea254d7	-0.31705353
38	0xbf8a0aae	-1.0784509
39	0x3eaacf10	0.333611
40	0x3e233de0	0.15941572
41	0x3f207003	0.62670916
42	0xbe9e02b4	-0.30861437
43	0xbe69bc12	-0.2282565
44	0x3f1d6bdf	0.61492723
45	0x3dd15ac0	0.10222387
46	0x3e6d26eb	0.23159377
47	0xbea6d343	-0.32583055
48	0xbf940425	-1.1563765
49	0xbe0a7a28	-0.13523161
50	0xbeafa304	-0.3430406
51	0xbf1e84b4	-0.6192124
52	0xbf752efc	-0.9577482
53	0xbf2393b0	-0.6389723
54	0xbf893911	-1.072054
55	0xbeec20de	-0.46118826
56	0xbdbe7f40	-0.09301615
57	0xbf3b433e	-0.7314948
58	0xbf38ef2d	-0.72239953
59	0xbf2516cc	-0.6448791
60	0xbed4d383	-0.4156762
61	0xbf912d53	-1.1341957
62	0x3f0e8f00	0.5568695
63	0xbf543b23	-0.82902735
64	0xbf3abf64	-0.7294829
65	0xbec0414d	-0.3754982
66	0x3e6f160b	0.23348252
67	0xbda6b2fb	-0.081396066
68	0x3efbf165	0.49207607
69	0xbf2019f2	-0.6253959
70	0xbf7118d7	-0.9417853
71	0xbf27b1f2	-0.655059
72	0xbec941cf	-0.3930802
73	0xbeae401d	-0.3403329
74	0xbf295384	-0.6614306
75	0xbe1f3754	-0.1554845
76	0xbf007798	-0.50182486
77	0x3ee75af3	0.45186576
78	0xbd2512be	-0.040301077
79	0xbef5fb75	-0.4804341
80	0xbebefef4	-0.3730389
81	0x3e2a7585	0.16646393
82	0xbe8568d5	-0.26056543
83	0xbf29e8fc	-0.6637113
84	0xbef428b4	-0.47687304
85	0x3f073a47	0.528233
86	0xbea1a928	-0.31574368
87	0x3eae0aad	0.3399252
88	0x39f47915	0.0004662952
89	0x3e557245	0.20844372
90	0xbda50af5	-0.080587305
91	0x3e3400c9	0.17578425
92	0xbdb3bcae	-0.08776222
93	0xbf3e6003	-0.7436525
94	0xbf263ca1	-0.6493626
95	0xbf8b4e9e	-1.0883367
96	0xbe8f5121	-0.27991584
97	0x3e228a19	0.15872993
98	0xbf43f1a1	-0.7654057
99	0xbf03cc42	-0.5148355
100	0xbf7a0ecc	-0.9767883
101	0xbf81c32d	-1.0137688
102	0xbe85cb4c	-0.26131666
103	0xbe9cb514	-0.30606902
104	0xbd45961d	-0.048238862
105	0xbf0cb565	-0.54964286
106	0xbe7f2b44	-0.24918848
107	0xbdfda558	-0.123850524
108	0xbfa3202e	-1.2744195
109	0xbd091e4c	-0.03347616
110	0x3eefa2b3	0.46803817
111	0xbfa2087f	-1.2658843
112	0xbe893295	-0.26796404
113	0x3e812a30	0.252275
114	0x3f20d01d	0.62817556
115	0x3f59e50b	0.85115117
116	0x3e09ae9a	0.13445511
117	0xbf490997	-0.7853026
118	0xbf3d04ff	-0.7383575
119	0xbe529d1f	-0.2056775
120	0xbefb0388	-0.49026132
121	0x3e48e1a8	0.19617331
122	0xbf1ba6ff	-0.6080169
123	0x3f727c2e	0.94720733
124	0xbda3ff9c	-0.08007738
125	0xbf939c28	-1.153203
126	0xbf071a4f	-0.5277452
127	0xbf1c2eb0	-0.6100874
128	0xbf315d79	-0.6928325
129	0xbee306e1	-0.44341186
130	0xbf66cf84	-0.90160394
131	0xbd7a6677	-0.061132874
132	0x3da39198	0.07986754
133	0xbf07c58e	-0.5303582
134	0xbf1e923a	-0.61941874
135	0x3eb5c3c0	0.35500908
136	0xbef90433	-0.48636016
137	0xbf90d469	-1.1314822
138	0xbe529490	-0.20564485
139	0xbfa1f380	-1.2652435
140	0xbf0d2dc7	-0.55147976
141	0xbef55668	-0.47917485
142	0xbe59d95f	-0.21274327
143	0x3ee24a47	0.44197294
144	0xbdd4b2fe	-0.103857026
145	0xbf8e9062	-1.1137812
146	0xbf1b70c1	-0.60718924
147	0xbf8771b3	-1.0581573
148	0xbf3e9f32	-0.7446166
149	0xbe9b8368	-0.30373693
150	0xbf3a0769	-0.72667557
151	0xbda78b90	-0.08180916
152	0x3bc14845	0.005898508
153	0xbf31bbbc	-0.69427085
154	0xbe3b84d9	-0.18312396
155	0xbfbb25bf	-1.4620894
156	0xbeba7d25	-0.36423603
157	0x3e8ea722	0.27861887
158	0xbf2d6e41	-0.6774636
159	0xbf1bf510	-0.6092081
160	0xbd52f16c	-0.05149977
161	0xbe6026e8	-0.21889842
162	0xbc84e922	-0.016224448
163	0xbf9dbc32	-1.2323058
164	0xbf048fd1	-0.51781946
165	0x3f5bde63	0.8588621
166	0xbe84cbab	-0.25936636
167	0xbf51975b	-0.81871575
168	0xbe7b00fa	-0.24512091
169	0xbe7fb6fe	-0.2497215
170	0x3daceec3	0.08443978
171	0x3da4dcfb	0.08049961
172	0xbf6fd757	-0.9368796
173	0x3f1fbfb5	0.62401897
174	0xbf61302c	-0.8796413
175	0xbe9525a1	-0.2913027
176	0xbdb610d0	-0.088899255
177	0x3e9c8fc9	0.3057845
178	0xbeda42c5	-0.42629066
179	0xbe8b0ca5	-0.27158085
180	0xbf484b63	-0.7824003
181	0x3ccb992e	0.024853315
182	0xbe964111	-0.29346517
183	0xbeac2090	-0.33618593
184	0xbfa6a50c	-1.3019118
185	0xbed1a635	-0.40947118
186	0xbf951d21	-1.1649514
187	0xbeb03ce4	-0.34421456
188	0xbe15a614	-0.14614135
189	0xbf802ef0	-1.0014324
190	0xbf1f1a1e	-0.62149227
191	0xbe8014bd	-0.25015822
192	0xbfc1a38a	-1.5128033
193	0xbd901806	-0.07035832
194	0xbf83c526	-1.029454
195	0x3fbd527a	1.4790795
196	0x3e5d525c	0.21613449
197	0xbf304d10	-0.6886759
198	0xbfafdde2	-1.3739588
199	0x3d15a33f	0.036532637
200	0xbed6aa4f	-0.4192681
201	0xbf15ad9c	-0.5846803
202	0xbffb7bda	-1.9647171
203	0x3f576d4a	0.84151137
204	0xbe2d1dae	-0.16905853
205	0x3dfffef7	0.124998026
206	0xbf2a3155	-0.66481525
207	0xbd375740	-0.044760942
208	0xbd772413	-0.060337137
209	0xc00bbafc	-2.1832876
210	0x3e8bbba0	0.27291584
211	0xbfbbe376	-1.467879
212	0xbfaf691c	-1.3703952
213	0xba2114ab	-0.00061447424
214	0xbe630b3a	-0.22172251
215	0xbf80499d	-1.0022465
216	0xbe9355f3	-0.28776512
217	0xbeec78f9	-0.46186045
218	0xbf148db8	-0.58028746
219	0x3d86630c	0.065618604
220	0xbf21aad2	-0.63151276
221	0xbdb18079	-0.08667082
222	0xbfa65b19	-1.2996551
223	0xbe5da7b9	-0.21646012
224	0x3d193b51	0.037410084
225	0xbe49eeed	-0.19720049
226	0xbecad8dc	-0.39618576
227	0x3efd5536	0.49479073
228	0xbebccd71	-0.3687549
229	0xbf137b2f	-0.5760984
230	0xbe880e5f	-0.26573464
231	0x3ea82bc8	0.32845902
232	0x3e3ff40b	0.18745439
233	0xbfa7d0db	-1.3110613
234	0x3e2619eb	0.16220824
235	0xbee12179	-0.4397085
236	0xbf843827	-1.0329636
237	0xbe1714b3	-0.1475399
238	0xbf22acff	-0.6354522
239	0x3ea51ee3	0.32250127
240	0xbf46862d	-0.77548486
241	0x3eadf28b	0.33974108
242	0xbfcb735c	-1.589458
243	0xbfc4e891	-1.5383474
244	0xbf3b9455	-0.7327321
245	0xbe6c5671	-0.2307985
246	0xbe8c52cc	-0.2740692
247	0xbec80b80	-0.39071274
248	0xbef37ddb	-0.47556958
249	0x3e1e528c	0.15461177
250	0xbeb8ed8c	-0.36118734
251	0x3ea37b9c	0.31930244
252	0xbfaee1de	-1.3662679
253	0xbf2b709a	-0.6696869
254	0xbd482daf	-0.048871692
255	0xbf887e4f	-1.0663546

fc2.bias f4 [300]
0	0xbf1f73fa	-0.6228634
1	0xbe45d695	-0.19320138
2	0xbd1d3aa0	-0.038385987
3	0xbdd50378	-0.10401052
4	0xbf522001	-0.82080084
5	0xbd5db822	-0.05413068
6	0xbe4183e7	-0.18897973
7	0xbc69e348	-0.0142753795
8	0xbf89f7eb	-1.0778784
9	0xbecb5061	-0.39709762
10	0xbf9e62e2	-1.2373927
11	0x3f094f6f	0.5363683
12	0xbf8ab0b7	-1.0835179
13	0x3e27430c	0.1633417
14	0xbee47492	-0.44620186
15	0x3f23f168	0.6404023
16	0xbfc92f4b	-1.5717558
17	0xbeb70c0b	-0.35751376
18	0xbfa60c27	-1.2972459
19	0x3e3edf23	0.18639807
20	0xbf6540e1	-0.8955212
21	0xbf204827	-0.62610096
22	0x3f3774ad	0.7166241
23	0x3ec2be44	0.38035786
24	0x3eac8d47	0.33701536
25	0xbe983e26	-0.29734915
26	0x3eaad1a3	0.33363065
27	0xbd9772cc	-0.07394943
28	0x3d10eaca	0.035380162
29	0xbe11f01f	-0.14251755
30	0xbeb1a0ff	-0.34693143
31	0xbf1589d4	-0.58413434
32	0x3ee459a4	0.4459964
33	0x3ef59234	0.47963107
34	0xbfbdd3a7	-1.4830216
35	0xbe1380ae	-0.14404556
36	0xbed627c4	-0.41827214
37	0xbd45d077	-0.04829451
38	0x3fbea1f8	1.4893179
39	0x3f6543a0	0.8955631
40	0x3ea657b4	0.32488787
41	0xbdf2f9ea	-0.118640736
42	0xbf249f32	-0.6430541
43	0x3f2cf416	0.67559946
44	0x3f83bb4d	1.0291535
45	0x3dca41c3	0.09875824
46	0xbf1b7a12	-0.6073314
47	0xbe210f6d	-0.1572854
48	0xbfb2a63f	-1.3956984
49	0xbf0330ce	-0.51246345
50	0xbf787154	-0.97047925
51	0xbe060b40	-0.13090229
52	0xbf9488f5	-1.1604296
53	0x3d34c64d	0.044134427
54	0x3eebb9bb	0.4604014
55	0xbfef499c	-1.8694339
56	0xbf357d29	-0.70894104
57	0xbddaebf5	-0.106895365
58	0xbdc61d40	-0.09673548
59	0xbf0f5624	-0.55990815
60	0xbe4a3c5e	-0.19749591
61	0xbe2499f5	-0.16074355
62	0x3f3eb2d4	0.7449162
63	0xbf5673c3	-0.8377039
64	0xbe3616f3	-0.17782192
65	0xbf31e023	-0.6948263
66	0xbce0cf55	-0.027442614
67	0xbe90a999	-0.28254393
68	0x3e08621d	0.13318677
69	0xbecabe6c	-0.39598405
70	0xbf9c1541	-1.2193986
71	0xbfa34592	-1.2755606
72	0x3f0638f9	0.52430683
73	0xbeade83c	-0.33966243
74	0xbed03539	-0.40665606
75	0x3f26a830	0.65100384
76	0x3f58eff4	0.8474114
77	0x3e4877f0	0.19577003
78	0x3e10692d	0.14102621
79	0x3e0eb129	0.13934769
80	0x3bb1cade	0.005425795
81	0xbe58cc0f	-0.21171592
82	0xbf6eafad	-0.9323681
83	0x3f3cb868	0.7371888
84	0x3f502140	0.81300735
85	0x3de3dd72	0.11126222
86	0xbe57b1ab	-0.21063869
87	0xbf26d46d	-0.65167886
88	0xbe55ca5a	-0.20877972
89	0x3ede32df	0.43398187
90	0xbfb216aa	-1.3913167
91	0x3f97d617	1.186221
92	0x3c0ad4b6	0.008473566
93	0xbda177b9	-0.078841634
94	0xbf4b34b7	-0.7937731
95	0xbe1e0e1d	-0.15435071
96	0xbec04ca8	-0.37558484
97	0xbf0c845d	-0.5488947
98	0xbfa44ae7	-1.2835358
99	0x3c64c284	0.013962392
100	0xbda584bc	-0.08081958
101	0x3dd92219	0.10602207
102	0xbf3a6869	-0.7281557
103	0xbecc79c2	-0.39936644
104	0xbf8bf811	-1.0935079
105	0x3f72d5e7	0.9485764
106	0xbf0519e0	-0.5199261
107	0xbef9dc3e	-0.48800844
108	0xbf6dfaea	-0.9296099
109	0xbe515115	-0.20441087
110	0xbdad77d3	-0.0847012
111	0xbfa774e8	-1.3082552
112	0xbcab3e45	-0.020903716
113	0xbfab2eef	-1.3373698
114	0xbf8803ea	-1.0626194
115	0xbd57193d	-0.052514303
116	0x3f33623c	0.7007177
117	0x3cb24ed0	0.021766096
118	0xbf83a28f	-1.0283984
119	0x3f392b7e	0.7233199
120	0xbf146288	-0.57962847
121	0xbc0376a7	-0.008023894
122	0x3f7703a0	0.96489906
123	0xbf225f5f	-0.63426775
124	0xbe211db9	-0.15733995
125	0xbe36bbb0	-0.17845035
126	0x3f06be32	0.52633965
127	0xbfbcb912	-1.4743979
128	0xbe878c71	-0.26474336
129	0x3cdac826	0.026706766
130	0xbf7875b6	-0.9705461
131	0x3ebfebd3	0.37484607
132	0x3e2b1a40	0.16709232
133	0x3ec07083	0.3758584
134	0xbf4381c7	-0.763699
135	0xbf8f42af	-1.1192225
136	0xbf0f8a85	-0.5607074
137	0x3e4bcda3	0.19902663
138	0xbcc79c94	-0.024366654
139	0xbf0594cb	-0.52180165
140	0x3dd7909f	0.10525631
141	0xbeaab717	-0.3334281
142	0xc0145ae8	-2.3180485
143	0xbe6aff81	-0.2294903
144	0xbfc1c60b	-1.5138563
145	0xbecffb6e	-0.40621513
146	0x3de88102	0.11352731
147	0x3e9483f9	0.29006937
148	0xbf45e5bb	-0.77303666
149	0xbe13a976	-0.14420113
150	0xbf1f8e7b	-0.6232678
151	0xbe8fd5bf	-0.28092763
152	0xbf4e25ff	-0.8052673
153	0x3d80b430	0.06284368
154	0xbd64a499	-0.055821035
155	0xbe99acfa	-0.30014783
156	0xbe9198d4	-0.2843691
157	0x3e856c9f	0.26059434
158	0xbeec9ecb	-0.462149
159	0xbf4f80b1	-0.8105574
160	0xbf69619d	-0.9116457
161	0x3ec1cf8e	0.37853664
162	0xbf8208cc	-1.0158935
163	0x3ee33c54	0.44381964
164	0xbd91fe67	-0.071286015
165	0x3f7f27c2	0.9967004
166	0x3e1a0410	0.15040612
167	0xbe219e6e	-0.15783092
168	0x3e52dcd9	0.20592059
169	0xbec9d0de	-0.39417166
170	0xbfca13c7	-1.5787286
171	0xbf1f8b5a	-0.6232201
172	0x3ec20628	0.37895322
173	0xbd334f07	-0.04377654
174	0x3da634c2	0.081155315
175	0x3f72c837	0.94836754
176	0x3e0494bd	0.12947364
177	0xbea79e41	-0.32737926
178	0xbed6871f	-0.41899964
179	0x3f079fba	0.529781
180	0xbd5214f6	-0.05128952
181	0xbc03abef	-0.008036598
182	0x3faadb85	1.3348242
183	0xbf0347c2	-0.5128137
184	0xbedf3790	-0.43597078
185	0xbd0bb707	-0.034110095
186	0xbccff051	-0.025383146
187	0xbf886c16	-1.0657985
188	0x3edbd452	0.42935425
189	0x3de8a26f	0.11359107
190	0x3e15f3f1	0.14643838
191	0xbeeae7be	-0.4587993
192	0xbf2696de	-0.65073955
193	0xbe7dc636	-0.24782643
194	0xbddb038a	-0.106940344
195	0xbf0662a4	-0.52494264
196	0xbeca6f34	-0.39537966
197	0x3e12e7f4	0.14346296
198	0xbf7ab144	-0.97926736
199	0xbe032a54	-0.12809116
200	0xbf9a10de	-1.2036397
201	0xbe55cfa1	-0.20879985
202	0x3d0d8ccf	0.034558114
203	0xbf0039f3	-0.50088423
204	0x3eef9c47	0.46798918
205	0x3dbd9100	0.09256172
206	0x3ea99a78	0.33125663
207	0xbf6f6b07	-0.93522686
208	0xbf6f0cb5	-0.93378764
209	0x3f22aad7	0.6354193
210	0xbf6f18bb	-0.9339711
211	0x3e92872d	0.28618756
212	0x3a194b03	0.00058476644
213	0xbcf640ce	-0.030060198
214	0xbf4c224d	-0.7973984
215	0xbc93781e	-0.018001612
216	0x3f3205c1	0.6954003
217	0xbec4ade7	-0.38413927
218	0x3f0bd9d7	0.5462927
219	0xbeeabc14	-0.45846617
220	0x3d369de6	0.044584177
221	0x3f68da48	0.9095807
222	0x3e80cdc4	0.25156987
223	0xbf8c2cf0	-1.0951214
224	0x3f51cc64	0.819525
225	0xbf0fdb6b	-0.5619418
226	0xbf473c83	-0.7782671
227	0x3d680fea	0.0566558
228	0x3d032591	0.032018248
229	0xbf8260ce	-1.0185792
230	0xbf8ce934	-1.1008668
231	0xbc91643b	-0.017747989
232	0x3e9a4018	0.30127025
233	0xbf4e06ce	-0.80479133
234	0x3dcd5c06	0.10027318
235	0xbedabbff	-0.42721555
236	0xbee54037	-0.44775555
237	0xbe583536	-0.21114048
238	0x3f2403a1	0.6406804
239	0x3f231e26	0.6371788
240	0xbf1d5151	-0.61452204
241	0x3ee2b011	0.44274953
242	0xbf1136a6	-0.5672401
243	0xbd363d25	-0.044491906
244	0xbf65a12a	-0.8969904
245	0xbf5f656e	-0.87264144
246	0xbb9ff6f9	-0.0048817364
247	0xbc7a7898	-0.015287541
248	0xbe6b24ba	-0.22963229
249	0xbd991158	-0.07474011
250	0xbd6093a8	-0.054828316
251	0xbf144f2f	-0.57933325
252	0x3f613886	0.8797687
253	0xbecae69f	-0.39629075
254	0xbf3a8ca0	-0.72870827
255	0xbf8bb622	-1.0914958

fc3.weight f4 [4, 300]
0	0xbf53aef6	-0.82688844
1	0x3e3c164b	0.18367879
2	0x3d5957c5	0.05306222
3	0xbf6c5b17	-0.9232649
4	0xbf0b2914	-0.54359555
5	0xbf1bb1a0	-0.6081791
6	0xbed2c298	-0.41164088
7	0x3be37b13	0.006942162
8	0xbd87696f	-0.06611907
9	0x3e90e101	0.28296664
10	0x3dfa2bbf	0.12215375
11	0x40642d3e	3.5652614
12	0xbf86dc7e	-1.0536039
13	0xbfb51cba	-1.4149392
14	0x3facc39d	1.3497196
15	0x3fb10657	1.383006
16	0x3fbb67e4	1.464108
17	0x3f04a320	0.5181141
18	0x3f014484	0.5049517
19	0x3f2f79a6	0.68544996
20	0x3f4dcbc6	0.8038906
21	0x3f2450b1	0.64185625
22	0x3e1b219f	0.15149544
23	0x3fd9fff7	1.7031239
24	0xbea4f66e	-0.3221926
25	0xc02cb76d	-2.6986954
26	0xbe057264	-0.13031918
27	0x3da505fd	0.08057783
28	0x3f3355e7	0.7005295
29	0x3e02aa67	0.12760316
30	0x3f212a21	0.6295491
31	0x3f495122	0.78639424
32	0x3e7071fc	0.23480982
33	0xbf90516c	-1.1274848
34	0x3e69f11b	0.2284588
35	0xbef9ac24	-0.48764145
36	0xbf1339d2	-0.575101
37	0xbf80468d	-1.002153
38	0x3eb1b8e5	0.34711376
39	0xbe943da7	-0.28953287
40	0xbecb1ee7	-0.39672014
41	0xbcbb580e	-0.022869136
42	0x3e4f3e08	0.20238507
43	0xbf188a04	-0.59585595
44	0x3eb8a9b2	0.36066967
45	0xbea61176	-0.32435197
46	0xbebf0814	-0.3731085
47	0xbf19e330	-0.60112286
48	0xbfa014b2	-1.2506316
49	0x3f060b0c	0.52360606
50	0x3faedc2b	1.366094
51	0x3cd250d1	0.025673302
52	0x3f167e36	0.5878633
53	0x3fcd6c83	1.604874
54	0x3f8f5d39	1.1200324
55	0x3f646dd1	0.89230067
56	0x3e834dbe	0.2564525
57	0x3e09ef9a	0.13470307
58	0x3fc00cb3	1.5003875
59	0x3fb44b60	1.4085503
60	0xbf6514d6	-0.8948492
61	0xbd34ebf2	-0.044170327
62	0xbf94d393	-1.1627067
63	0xbf9d767d	-1.2301785
64	0x3e7273be	0.23676965
65	0xbf53f74b	-0.82799214
66	0x3e517dca	0.20458141
67	0x3e5a52a8	0.21320593
68	0x3ec2afea	0.38024837
69	0xbe8ea894	-0.2786299
70	0x3eb5d63b	0.35515007
71	0x3fc8f5ab	1.5699972
72	0x3f5b36a5	0.85630256
73	0xbe8e38a5	-0.2777759
74	0x3e683a90	0.2267859
75	0x3dce9253	0.10086503
76	0xbf20a8ac	-0.6275737
77	0x3f42b218	0.76053
78	0xbf8092bb	-1.0044779
79	0xbcaba7c8	-0.020954028
80	0x3f85b075	1.0444475
81	0xbf1d39d6	-0.61416376
82	0x40128db1	2.2898982
83	0x3ff04a00	1.8772583
84	0xbd30e381	-0.043185715
85	0x3f3dfcca	0.7421385
86	0x3f9dfbdf	1.234249
87	0x3f98f107	1.1948556
88	0x3fc1fdd7	1.5155591
89	0x3fd69172	1.6763136
90	0x3f573b72	0.8407508
91	0xbfaea586	-1.3644264
92	0x3d549f79	0.051909897
93	0xbe8df1b1	-0.27723458
94	0x3f36d1ab	0.7141368
95	0xbeafd9eb	-0.34345946
96	0x3e5ebbd5	0.2175134
97	0x3eb8e43a	0.36111623
98	0x3fadaab8	1.3567724
99	0x3f0eb8a5	0.55750495
100	0xbc4aff66	-0.012389993
101	0x3e1cf7b9	0.15328874
102	0x3ea12ef3	0.31481132
103	0x3dfe0103	0.12402537
104	0x3f7cb503	0.987137
105	0x3f464cf1	0.77461153
106	0x3f3a1806	0.72692907
107	0x3c3e2be4	0.011607144
108	0x3f34b440	0.7058754
109	0x3fb07d62	1.3788264
110	0x40080424	2.1252527
111	0xbe14a7dd	-0.1451716
112	0x3e573ffa	0.21020499
113	0x3edfd5eb	0.43717894
114	0xbe405a8e	-0.18784544
115	0x3df0d7fc	0.11759946
116	0xbf659f93	-0.89696616
117	0xbeb728db	-0.35773358
118	0x400bb29c	2.1827765
119	0xbe86775e	-0.26262945
120	0x3fb4439d	1.4083134
121	0x3df1ae4d	0.11800823
122	0x3f9a465c	1.2052722
123	0xbf79630a	-0.97416747
124	0x3fce2290	1.6104298
125	0x3ce0509f	0.027382193
126	0xbfc0e609	-1.5070201
127	0x4001f3f9	2.030516
128	0xbeb0e5ab	-0.34550223
129	0x402c01cd	2.68761
130	0x3e9df3ad	0.30849972
131	0x3f0c8437	0.54889244
132	0xbef32060	-0.47485638
133	0xbe4ac501	-0.19801714
134	0xbfada102	-1.3564761
135	0x400932ba	2.143721
136	0x3dabf8fd	0.083971
137	0xbf26d97b	-0.651756
138	0xbd6872bb	-0.05675004
139	0x3f57a2b9	0.8423267
140	0x3d358832	0.04431934
141	0xbe52cd11	-0.20586039
142	0x3f27e809	0.6558843
143	0xbf954087	-1.1660317
144	0x4012c6d1	2.2933848
145	0x3ee26250	0.4421563
146	0xbee86700	-0.45391083
147	0x3d512a01	0.05106545
148	0x3f615baa	0.88030493
149	0x3fd31f27	1.6493882
150	0x3f2b1026	0.66821516
151	0xbe09ea8a	-0.13468376
152	0xbec0bc7b	-0.376438
153	0x3ee82c13	0.45346126
154	0xbef94305	-0.48683944
155	0x3eec12cb	0.46108088
156	0x3e0b7b09	0.13621153
157	0xbf04e884	-0.5191729
158	0x3e31fb11	0.1738093
159	0x3f802c4d	1.001352
160	0x40238726	2.5551238
161	0x3fea4344	1.8301778
162	0x3fba1e58	1.454051
163	0x3ee80083	0.4531289
164	0x3f36bebe	0.713848
165	0xbfd36c98	-1.6517515
166	0xbf00da2c	-0.50332904
167	0xbeec855a	-0.4619549
168	0x3eeb3565	0.45939174
169	0x3b8ae9fa	0.004239318
170	0x3fd48437	1.6602849
171	0xbeaced54	-0.33774817
172	0x3ee87f98	0.45409846
173	0xbdb4e7ac	-0.088332504
174	0x3f0b9358	0.54521704
175	0xc0008271	-2.0079615
176	0x3feca6c1	1.8488389
177	0x3f8f9a1b	1.1218904
178	0xbcd0e42f	-0.025499431
179	0xbf4d62a3	-0.8022863
180	0x3f135bca	0.57561934
181	0xbf4525b0	-0.7701063
182	0x3feea100	1.8642883
183	0x3f995022	1.197758
184	0x3f007301	0.5017548
185	0xbec3b23b	-0.38221917
186	0xbd4926bb	-0.049109202
187	0x3e0a1a27	0.13486539
188	0xbfbb2119	-1.4619476
189	0x3ed26e15	0.4109961
190	0xbf1b4cdb	-0.6066415
191	0xbec65c2a	-0.3874219
192	0x3f28d3f7	0.6594843
193	0xbf3cbddd	-0.7372721
194	0x3e0834ce	0.13301393
195	0x3f981865	1.1882445
196	0x3fa8fc9a	1.3202088
197	0xbeb1e5be	-0.34745592
198	0x3f94efed	1.163572
199	0xbf9e45e1	-1.2365075
200	0x40062819	2.0961974
201	0x3ee6bc92	0.45065743
202	0x3f8be01e	1.092777
203	0xbf36322b	-0.711703
204	0x3eb23a48	0.3481009
205	0xbf7041df	-0.9385051
206	0x3f487b5a	0.7831322
207	0x3fd188a9	1.636983
208	0x3f942d1a	1.1576264
209	0x3bce627e	0.0062983623
210	0x3fdbd427	1.7174119
211	0xbf71d1cd	-0.94460756
212	0xc0106838	-2.256361
213	0xbd96a274	-0.07355204
214	0x3eb655b4	0.3561226
215	0x3c95929b	0.018258383
216	0xbe04a248	-0.1295253
217	0x3f3877e8	0.7205796
218	0x3d89dde1	0.06731773
219	0x3f285bb0	0.65764904
220	0x3c476c32	0.012171792
221	0xbfe7e52c	-1.8116813
222	0xbda6e73f	-0.081495754
223	0xbed23fbb	-0.41064247
224	0x402280bf	2.539108
225	0x400a4ad6	2.1608176
226	0xbf730af5	-0.94938594
227	0x3e95dcbc	0.2926997
228	0xbe4cd736	-0.20003971
229	0x3fcfdeec	1.6239905
230	0xbf1a47b3	-0.60265654
231	0x3d0dd9e9	0.034631643
232	0x3ef3b8c7	0.4760191
233	0x3face776	1.3508136
234	0x3f6b2d7c	0.9186628
235	0xbd817c60	-0.06322551
236	0x3d99fbb9	0.075187154
237	0xbe9c4aab	-0.30525717
238	0x3d4c852d	0.049931694
239	0x3d8fd69f	0.070233576
240	0xbeb26f2d	-0.34850445
241	0xbf1d7980	-0.6151352
242	0xbe95ee6a	-0.29283458
243	0x3df76f1a	0.12081738
244	0xbd4d200d	-0.050079394
245	0xbf6e2a7a	-0.93033564
246	0x3f9fab74	1.2474198
247	0x3f123869	0.57117325
248	0xbe0ed38f	-0.1394789
249	0x4010afe4	2.2607355
250	0xbc029a35	-0.007971336
251	0x3f29e52c	0.66365314
252	0xbf4d9eaf	-0.80320257
253	0xbf633a2f	-0.88760656
254	0xbeb39a12	-0.35078484
255	0x3e152601	0.14565279

fc3.bias f4 [4]
0	0xbe83b54e	-0.25724262
1	0x3f02c739	0.5108524
2	0xbde38d3f	-0.11110925
3	0x3ec32007	0.38110372
