checkpoint_Actor.pth (torch_old, 541425 bytes, 6 tensors)

fc1.weight f4 [400, 33]
000000 91 ea 33 bc cb 79 cd bd b9 db b2 3c 13 8e 71 be
       -0.010981218 -0.10032996 0.021833288 -0.23589353
000010 68 10 1a bf 85 b9 f1 bd e7 58 86 be cb ec 9b 3d
       -0.60181284 -0.11802963 -0.26239702 0.07613524
000020 3e 06 f0 3d 1a 2b 53 3d 00 05 96 3b 89 72 4d 3d
       0.117199406 0.051554777 0.0045782328 0.050158057
000030 41 98 45 bc 05 27 49 bd 09 48 47 3e 53 c1 26 be
       -0.012060226 -0.049109478 0.19461073 -0.16284685
000040 2f a4 bc be f4 55 97 3d e9 1a 4b be 30 3e 02 be
       -0.36844012 0.07389441 -0.19834484 -0.12719035
000050 cb d7 73 bd e5 d4 e6 3d 7a 2b 91 bd a8 fb b4 bd
       -0.059531968 0.11271075 -0.070883706 -0.08837062
000060 6e fd 7d 3b 09 e7 1b bd 2d 75 05 3e c3 6e be bd
       0.0038755792 -0.03806213 0.1303298 -0.0929847
000070 04 28 69 3e c9 65 4b 3d 17 ea b6 3d b7 4f ea bc
       0.22769171 0.049657617 0.08931368 -0.028602464
000080 64 b2 44 40 c2 d4 2a bf 59 1c 9c be 86 f1 c8 bd
       3.073388 -0.6673089 -0.30490378 -0.09811692
000090 23 6d 82 3e 77 14 1f 3e a5 80 26 bf 17 9d 5d be
       0.2547389 0.1553515 -0.65040046 -0.21641956
0000a0 ce 2f 8a 3c ba 42 40 be 79 94 fd 3d 6e 41 77 3d
       0.016868498 -0.18775454 0.123818345 0.060365133
0000b0 ad f5 31 bd a6 39 58 3b c4 6f ff 3e d9 ef 88 3e
       -0.043447185 0.0032993346 0.49889958 0.2674549
0000c0 7e 9c bc 3d 52 3c 51 3e 16 e6 13 bf 19 e0 b8 be
       0.09209536 0.20433167 -0.5777296 -0.36108473
0000d0 ab fd 39 3f 7f 2a 2d 3c e9 73 4a 3d 1d d4 0c be
       0.7265269 0.010569214 0.049426947 -0.1375279
0000e0 3e 6b 17 3e f8 fe b9 bd 60 62 0a 3d 7f 67 11 be
       0.14787003 -0.090818346 0.033785224 -0.14199637
0000f0 61 39 32 be a2 13 88 bd c3 af 28 bd 67 39 5c 3e
       -0.17404701 -0.0664437 -0.041183244 0.21506272
000100 ec 03 3b bc 66 08 d5 be 10 6e f0 3e 78 3a be 3e
       -0.011414509 -0.4160797 0.4695897 0.37153983
000110 50 af 89 3e c4 58 59 3e d4 32 e0 3e 44 fd 0d bf
       0.26891565 0.21225268 0.4378878 -0.5546458
000120 bc 6e 2f 3e 0b 05 e9 bd 76 84 a7 3d 98 83 85 bd
       0.17132086 -0.11377915 0.08179562 -0.0651924
000130 bf bf 17 bc e7 54 48 3e c0 fb 59 3e d4 fa 48 3e
       -0.009262024 0.19563638 0.21287441 0.19626933
000140 5d 8e f5 3e 20 ff e9 3d 22 48 04 be 20 27 f4 be
       0.47960177 0.11425614 -0.12918141 -0.476861
000150 19 fc 68 bf 1f 2e b4 bf 53 92 6f 3d 10 3e b8 3d
       -0.9100967 -1.4076575 0.058489155 0.089962125
000160 75 9b 27 3e fb 5c d9 3e df 29 6e 3e 3a fb c0 3d
       0.16367896 0.4245375 0.2325816 0.09422918
000170 be 58 35 be 61 6f 87 3d 0a 9f ba 3d ec d4 0b bd
       -0.17709634 0.06613041 0.091123655 -0.034138605
000180 f5 ac 02 be 2b b2 3c 3d 54 c2 46 bf ba f6 3c bb
       -0.1276129 0.04606835 -0.7764027 -0.0028833584
000190 97 11 06 3f 88 68 96 be 4a 5e 69 be c9 a5 a0 be
       0.5237059 -0.29376626 -0.22789875 -0.31376484
0001a0 17 44 32 bf 80 f6 ea bc a1 12 73 3d 95 b2 41 bd
       -0.69635147 -0.028681993 0.059343938 -0.04728945
0001b0 4e 03 30 bc 41 5e 7a bd 78 0f d5 3d 6c de 75 be
       -0.010742975 -0.061125044 0.10403341 -0.24010628
0001c0 10 b5 58 bd a2 6b be 3e e0 4a b7 be 32 0a 8f bd
       -0.05290705 0.37191492 -0.35799313 -0.069843665
0001d0 c2 59 91 3e ac 87 97 bf 76 23 a7 bd 9e 53 48 be
       0.28388792 -1.1838279 -0.081610605 -0.19563147
0001e0 8f 0d 61 3e a3 e7 c0 3e 40 65 4c 3e 77 38 ec 3d
       0.21977828 0.37676725 0.19960499 0.11534207
0001f0 33 e7 47 be d1 fc e8 3d 68 ed a3 3d 57 41 8a bd
       -0.19521789 0.11376346 0.08004266 -0.06750744
000200 00 58 54 b8 c2 7d f3 bd 80 03 08 ba 77 72 3f bf
       -5.0626695e-05 -0.11889221 -0.000518851 -0.74784034
000210 07 ed 93 be ae ca 1e be 31 97 00 bf 27 4a d6 3d
       -0.28891775 -0.15507004 -0.502307 0.10463362
000220 dd 51 5d 3e 02 8c 6a be 38 0e 41 bf 6e ac 18 3d
       0.2161326 -0.22904971 -0.7541232 0.037273817
000230 5e 65 91 3d 5f 5d 0f bd eb 77 35 bd 49 61 b6 bd
       0.070994124 -0.035001155 -0.044303816 -0.089052744
000240 95 33 9f 3b 70 e6 e2 3d 16 ff d2 be 3c 80 14 3f
       0.004858444 0.11079109 -0.4121024 0.5800817
000250 fa 44 1b bf a2 d6 8b bf 4b 41 bc bd ec 3d 14 bf
       -0.60652125 -1.0924876 -0.09192141 -0.57906985
000260 28 dc 2c bd c5 7a 78 bd e5 33 c5 bd 14 31 c5 bb
       -0.042202145 -0.060663957 -0.09629039 -0.0060178135
000270 ff 8b 04 be 0b 69 c9 3b a2 9b b0 bd 98 d1 13 be
       -0.1294403 0.0061465553 -0.086234346 -0.14435422
000280 53 81 f7 bd e0 80 1b bd e7 86 f3 3d 68 c4 19 bc
       -0.120852135 -0.0379647 0.11890965 -0.009385206
000290 22 9d bb 3d aa e3 97 bc 2b b4 b3 bb b6 03 44 be
       0.0916083 -0.018541176 -0.005484124 -0.1914204
0002a0 ab 12 1c bd f7 b1 44 be 44 d9 0e 3f fa 60 ee be
       -0.03810374 -0.19208513 0.5580027 -0.46558362
0002b0 8a c9 1f bd 34 c9 0b 3e 7a 86 62 3d 2e 96 19 bd
       -0.039010562 0.13650972 0.055304028 -0.037496738
0002c0 b8 9b ff 3d 50 be 12 3c 5b f4 b7 bd 6a 1c 01 3f
       0.12480873 0.008956507 -0.08982154 0.5043398
0002d0 82 52 4e 3e 31 8f 38 3f ba bd 44 3e fa 02 99 bd
       0.20148662 0.7209349 0.19213 -0.07471271
0002e0 5a de 14 3f 66 09 e6 bc 4e ac ab bd bf 8d a4 bc
       0.5815178 -0.028080653 -0.08382474 -0.020087121
0002f0 5a 8c 36 bd 43 9e 1c 3d b7 73 21 3b ef 16 a7 be
       -0.044567443 0.038236868 0.0024635622 -0.32634684
000300 7e b8 db 3d 3a b9 87 be 89 27 40 3d ee 1b 7c bd
       0.107285485 -0.26508504 0.046912704 -0.061550073
000310 c0 3e 71 3a 23 79 d9 bf f5 50 f9 3d 9b 90 b3 3e
       0.0009202771 -1.6990093 0.121736445 0.35071263
000320 75 88 a0 bd 66 29 a2 3d 77 d3 61 3d 9f 1d 4d 3e
       -0.07838527 0.079180524 0.05513331 0.20030831
000330 0c 7e 06 bd 98 1b 40 3e 97 28 76 be 78 5d 30 3d
       -0.03283505 0.18760526 -0.24038921 0.04305789
000340 73 e0 8b bd 8f a7 6d 3d ba 31 2b bd 98 8f 78 bd
       -0.0682992 0.058021124 -0.04179547 -0.060683817
000350 90 13 d5 3c de 8b 15 bd 19 46 48 3e 18 b2 e5 3e
       0.026010305 -0.03651034 0.1955799 0.44862437
000360 9e 20 3f bf e6 24 98 bd c5 2c 5e bd b0 2d f7 3b
       -0.74659145 -0.07428913 -0.054241914 0.007543288
000370 1b fe 5b 3d b6 bb 22 bd a0 b9 5d bd 15 96 81 bc
       0.05370913 -0.039729796 -0.054132104 -0.015818635
000380 40 c5 2f bd b8 fd 32 3e 3e 45 eb bb 7f 70 2f bd
       -0.04291272 0.17479599 -0.007179885 -0.042831894
000390 40 60 48 be ac e8 2c 3c 5f 02 46 40 c9 a3 64 3e
       -0.19567966 0.01055352 3.0938947 0.22328104
0003a0 de 12 33 3e a9 d0 8e bd ac 90 43 bc 09 fc 9d be
       0.17487666 -0.069733925 -0.011936348 -0.3085635
0003b0 67 ac e9 3e 48 82 1d 3f e9 c6 e7 3d d2 9e b9 3e
       0.45639345 0.6152692 0.11317236 0.36253983
0003c0 6f e8 97 bd 16 cf 96 bd f5 a7 9c 3d 7b da fb bd
       -0.0741738 -0.07363717 0.07649223 -0.12297531
0003d0 e5 8d 37 be 45 3d a1 bd 72 8a 22 3d d6 f7 b6 bf
       -0.17925222 -0.07873014 0.039682813 -1.4294384
0003e0 61 33 84 3f d1 fc ac 3f f8 39 23 be c7 ba 92 bc
       1.032818 1.3514653 -0.15940082 -0.017911328
0003f0 f7 bd 4d 3e 43 c3 78 3d f6 b7 7f be d9 45 39 be
       0.20091997 0.06073309 -0.2497252 -0.18093051

fc1.bias f4 [400]
000000 10 12 c5 bb e0 de fc 3d a2 63 8d 3d 64 5b 9c bd
       -0.006014116 0.123471975 0.06903769 -0.07634619
000010 ff 62 1e 3c 65 85 76 be 98 da 99 be 67 fc a7 be
       0.009667157 -0.24074323 -0.30049586 -0.32809755
000020 fb 37 14 be eb d6 5a be 6c 85 5d bc 4b 3e 69 be
       -0.1447448 -0.21371047 -0.01352058 -0.22777669
000030 83 0f ed 3d 26 04 1c bb 72 84 b3 be 88 93 a4 be
       0.11575224 -0.0023806184 -0.35061985 -0.32143807
000040 75 23 cb be 4c f1 9b be aa b3 e1 be 83 4f f6 bd
       -0.3967549 -0.30457532 -0.44082385 -0.120268844
000050 1e a9 c6 be 2c c0 fb be bc a1 47 3e 50 f2 3d be
       -0.388009 -0.49170053 0.1949529 -0.18549466
000060 41 8d 38 bd 95 cc d9 be 66 20 72 be ac a2 b1 3d
       -0.045056585 -0.42538896 -0.23645172 0.08673605
000070 88 b6 df 3d a0 80 06 be d1 16 6e be 8a 39 36 be
       0.10923487 -0.13135004 -0.23250891 -0.17795387
000080 35 1e 44 be ef ba a9 be db e6 c4 bd b7 ab 6f be
       -0.19152148 -0.33150432 -0.09614345 -0.23405348
000090 ff 68 b3 be 47 18 19 3d a1 8b 8c 3d 4f 0c 15 3e
       -0.35041043 0.03737667 0.068625696 0.14555477
0000a0 4d 39 b5 3d f3 49 09 be f3 ab 63 be f1 5a e8 3e
       0.0884882 -0.13407116 -0.22233562 0.45381883
0000b0 03 ab 43 3e d0 08 e0 bd 78 71 cc bd 7f 8e 1d 3e
       0.19108205 -0.10939181 -0.0998258 0.15386389
0000c0 51 2b 3e be 64 cc 79 be 11 60 43 bd 8e 45 b9 bc
       -0.18571211 -0.24394375 -0.047699038 -0.022616174
0000d0 46 0a 94 bd 08 80 d9 3d 2d 30 3f be 66 bc 41 3e
       -0.07228522 0.10620123 -0.18670721 0.18919525
0000e0 01 0f 89 3d 98 2e 49 be 46 dc b0 bd c8 9a a9 3e
       0.06692315 -0.1964668 -0.08635764 0.331259
0000f0 ac 9f 70 be b8 27 5a be 27 b4 5b bd ce 55 10 be
       -0.2349841 -0.21304214 -0.053638604 -0.14095232
000100 ce 26 74 bd f9 41 38 be 3c f2 8a be 26 02 90 be
       -0.05960732 -0.17993917 -0.27137935 -0.2812664
000110 02 46 2a 3d 73 b1 57 be 8e 25 61 3e 92 c8 d5 be
       0.04157067 -0.21063785 0.21986982 -0.41754586
000120 f9 bb b0 3d da 69 8e bd e4 00 16 3d 1c 3f 02 be
       0.08629603 -0.06953783 0.036621943 -0.12719387
000130 58 dd 8b be dc e0 ad be 2c 61 3c be 37 73 fe bd
       -0.2731731 -0.33960617 -0.18396443 -0.12424319
000140 f3 e4 69 bd 4e 07 1e be ec 10 9f be 93 2f 23 bc
       -0.05710311 -0.15432474 -0.31067598 -0.009960073
000150 f6 8e e0 bc 3c 59 30 3e 8e 1e 25 be ea dc 36 be
       -0.02741192 0.1722154 -0.16124937 -0.1785771
000160 0c e7 12 be f1 29 d4 be b0 6e 8f be 1a dd 76 bd
       -0.1434595 -0.4143825 -0.28014135 -0.060269453
000170 6e 5c 01 be f2 b2 62 be c3 ce 25 be 17 53 f1 be
       -0.12632915 -0.22138575 -0.16192155 -0.47133705
000180 4c 7a eb 3b f5 eb 94 bd 63 61 32 be e5 42 49 3e
       0.00718621 -0.07271568 -0.17419963 0.19654424
000190 e5 6d 9b be 32 0a 1c bc d0 f2 89 be 54 f9 dc bd
       -0.3035728 -0.009523915 -0.26943064 -0.10789743
0001a0 35 e6 01 3e e3 0f e3 3d a6 f3 d3 bd 1d d8 84 3e
       0.12685473 0.110870145 -0.103492066 0.2594613
0001b0 65 6c 8b be 83 84 60 be 3a b2 10 be 53 a9 99 3c
       -0.27231136 -0.21925549 -0.14130488 0.018757498
0001c0 23 3b 52 be cd b0 35 3e 0e f5 69 bd 30 8d f0 3d
       -0.20530371 0.17743225 -0.057118468 0.117456794
0001d0 97 52 7f be 2d 40 11 3b 64 42 41 be 9f 75 9c be
       -0.2493385 0.0022163496 -0.18872982 -0.30558488
0001e0 61 e3 d7 be 7f a7 85 be a4 8a 5f be 05 db 5b bc
       -0.42165664 -0.26104352 -0.21830231 -0.013418918
0001f0 25 60 88 be 7a 12 2f 3d 17 1a 82 3d 73 3c d0 bd
       -0.26635852 0.04274223 0.063526325 -0.1016778
000200 1b 1a 8d be 79 83 9d 3e 0d b6 03 bf 62 0e c5 3d
       -0.2755898 0.30764368 -0.5144966 0.09621884
000210 66 aa 0f 3d b9 d8 f8 bd 16 99 c5 3d ba f4 bc be
       0.035074614 -0.121507116 0.096483395 -0.36905462
000220 55 89 1c be 8a c0 8a be a7 8c 11 3d 56 08 6f be
       -0.15286763 -0.2710002 0.035534527 -0.23343024
000230 f5 59 fe 3d fe 3f a0 bd f0 28 b7 bd d5 1d a7 3e
       0.12419502 -0.078247055 -0.08943355 0.32639948
000240 e2 18 8d be a8 64 d8 3d a1 0d 7b be ef be 2f be
       -0.27558047 0.10566074 -0.24516918 -0.17162679
000250 e5 a7 69 be 48 34 44 3d ed db 58 be d4 9b 74 bd
       -0.22817953 0.04790142 -0.21177645 -0.05971892
000260 f7 98 3c 3e f2 66 e3 bd 86 3a 72 be 95 95 04 be
       0.18417726 -0.1110362 -0.23655137 -0.12947686
000270 63 28 74 3c 21 67 1f 3d 9f f5 4e 3e 77 15 7e 3d
       0.014902207 0.03891671 0.20210885 0.06203219
000280 31 d6 21 be a3 cf 4e 3e 05 79 56 3d 59 ed 80 3e
       -0.15804364 0.20196395 0.052361507 0.25181082
000290 0a 85 ae bc c4 02 cf bd 08 de e7 3d 6c 51 28 3e
       -0.021303672 -0.101079494 0.11321646 0.1643731
0002a0 c7 6d ba be 0e 71 08 bf 07 a9 8e 3d ac da a1 be
       -0.36411878 -0.5329751 0.06965833 -0.31612146
0002b0 12 fc 18 3c 4f a9 d0 3c 65 60 fc be 3f f9 4d bd
       0.009337442 0.025471358 -0.49292293 -0.050286528
0002c0 a9 54 cb be 34 84 fd be 0d 5d 4e be 50 81 f6 bd
       -0.39713028 -0.49514925 -0.20152684 -0.12036383
0002d0 a5 51 01 be 5f 42 0f be 33 f2 c5 be 76 c3 cf bd
       -0.12628801 -0.13990162 -0.38661346 -0.10144703
0002e0 80 20 33 be 86 ec d4 bd a7 d5 9e be 34 ab c5 be
       -0.17492867 -0.10396676 -0.3102238 -0.3860718
0002f0 64 d2 90 bd f3 44 af 3e 17 4e 88 3c 6f 70 81 be
       -0.07071379 0.34232292 0.016638799 -0.25281093
000300 ad 56 47 3e 0b 5e 58 3e e6 86 f8 bd ab 34 45 be
       0.19466658 0.21129625 -0.12135105 -0.19258372
000310 a1 fa f6 bd 28 04 9b be 0d cf 65 be 4f 50 66 be
       -0.120595224 -0.30276608 -0.22442265 -0.22491573
000320 09 6e 87 bd 94 67 b8 3d b1 04 af be 42 ed cf bd
       -0.066127844 0.09004131 -0.34183267 -0.10152675
000330 42 f8 41 be 83 be fc bd 4a a3 c7 3c c8 e2 0c be
       -0.18942359 -0.12341025 0.024369854 -0.13758385
000340 b1 8d 6f 3d f5 f3 92 3d d1 fc ab bd c4 cd d3 bd
       0.058484737 0.07175437 -0.0839783 -0.10341981
000350 75 62 81 be 18 e4 81 be b3 9a 92 bd 91 2a a8 bd
       -0.2527043 -0.25369334 -0.07158413 -0.08211244
000360 a5 62 39 be c8 b2 cc 3d 64 b3 92 3d 80 04 fb 3d
       -0.18104036 0.09995037 0.07163122 0.12256718
000370 78 61 0b be e3 0e 0c be 9e f2 86 be e8 1e 5a be
       -0.136114 -0.13677554 -0.26356977 -0.21300852
000380 82 fe e8 3d df 76 8b bc 35 5e 88 be 15 ac 94 3e
       0.113766685 -0.017024456 -0.26634374 0.29037538
000390 0c d9 87 bd 4c a8 cf 3c ba 60 3c 3c 14 58 ff 3c
       -0.06633195 0.025348805 0.011497671 0.031169929
0003a0 27 c0 fc 3c 61 31 87 be b5 ce f9 3c 15 a9 f6 3d
       0.030853344 -0.2640486 0.030494073 0.120439686
0003b0 b8 bc 68 bd a3 96 24 be 73 b0 bf be 52 81 9b be
       -0.0568206 -0.16073088 -0.37439308 -0.303721
0003c0 98 86 b5 bd 57 06 86 be d8 3c 07 3c d3 f8 5c 3e
       -0.08863562 -0.26176712 0.008254252 0.21579294
0003d0 86 0a 10 be c6 b4 c6 be 47 82 c4 3c f9 a0 81 be
       -0.14066514 -0.38809794 0.023987902 -0.25318125
0003e0 be 46 d9 be cc 70 80 be d0 a6 2a 3e f3 cc 1a be
       -0.42436785 -0.25086057 0.16665196 -0.15117244
0003f0 b6 d7 9e be f3 5e 38 be d0 39 09 3e 0e 7e 8a 3e
       -0.3102395 -0.1800497 0.1340096 0.27049297

fc2.weight f4 [300, 400]
000000 8a b1 99 be 0a 00 ad bc 24 f0 ea 3c a5 03 b1 be
       -0.30018264 -0.021118183 0.028678961 -0.34573093
000010 51 72 26 bd e6 61 2e 3d 60 f4 16 bf 70 9f 80 be
       -0.040636364 0.042573832 -0.58966637 -0.2512164
000020 1c fa 96 3e a2 c3 83 bd cc 5d 94 38 6a dd a7 bc
       0.29487693 -0.064337984 7.074661e-05 -0.02049132
000030 05 b2 4b bf 75 95 29 bf 18 59 22 3e 52 fd aa bd
       -0.7956851 -0.6624368 0.15854299 -0.08349098
000040 fc db e1 bd 02 bc be be e7 26 d0 3d d9 d8 bd bd
       -0.11028287 -0.37252814 0.1016367 -0.09269876
000050 ce c4 91 be bc 63 8e 3b 8a eb 1c 3e 0a fd cd 3d
       -0.28470463 0.0043453854 0.15324226 0.10058029
000060 7c 4d ec be 00 06 70 3e 39 91 3f be 25 02 9b be
       -0.46152866 0.23439789 -0.18707742 -0.30275074
000070 47 7e 50 3e 24 11 28 3e 46 4b 85 3e 1a 46 83 3d
       0.20360671 0.16412789 0.26033992 0.06409855
000080 2d 9c de 3d e8 bc f3 be 8a 34 b4 be de 11 f4 bd
       0.10869632 -0.47605062 -0.35196334 -0.119174704
000090 23 04 23 be 55 90 a5 3d f8 96 b3 3e 4e 03 23 3e
       -0.15919547 0.0808417 0.35076118 0.1591923
0000a0 62 53 c4 3e 27 f2 33 bd e3 50 3f bf 2f 43 a0 3d
       0.38344866 -0.043932106 -0.747328 0.07825314
0000b0 5f 69 ad ba 9d 7d 3c 3e c3 90 fb 3e 25 6a ae be
       -0.0013230256 0.18407293 0.49133882 -0.34065357
0000c0 88 06 0e bf 21 9d 7e be 31 65 6b 3e d7 b4 7b 3e
       -0.55478716 -0.24864627 0.2298782 0.24580704
0000d0 97 32 4b bb 38 ae f0 3e 84 b4 b0 3c 92 99 b0 3e
       -0.0031005496 0.47007918 0.021570452 0.34492165
0000e0 99 84 57 3e 6d 29 85 be 64 a2 8c be 23 5b 11 3d
       0.21046676 -0.26008168 -0.27467644 0.035487305
0000f0 fe da 8d 3e 9e 76 4a be b1 02 5a 3e fb 01 24 3f
       0.2770614 -0.19771811 0.21290089 0.6406552
000100 e3 dc 13 3f b0 97 c3 3e 0e 73 4f be 87 5f b9 3e
       0.5775892 0.38201666 -0.20258734 0.36205694
000110 03 a4 dd be 3f f2 83 3e eb 94 1a 3c 5b 6e f6 be
       -0.43289194 0.25770757 0.009434919 -0.4813107
000120 ee ee 0c 3e 48 75 84 be d8 1f 97 3e d2 14 06 3e
       0.1376302 -0.25870728 0.29516482 0.1309388
000130 85 09 20 3c 79 ae 82 3d 1e 12 d6 3e 05 05 12 3e
       0.009767895 0.06380934 0.41810697 0.14259727
000140 c9 94 4c bd 46 c6 8a 3e d4 b8 0c 3f de c4 26 bf
       -0.04994658 0.27104396 0.54969525 -0.65144145
000150 d4 1f ee 3d 80 fc 16 3e 3e 2d 67 3e df 96 f2 3d
       0.116271645 0.14744759 0.22575852 0.118451826
000160 5c a8 c9 be fd 98 55 bd 73 09 a0 3d ec 40 5c 3d
       -0.3938626 -0.052147854 0.07814302 0.05377285
000170 1f 1a dc 3d 17 83 cb 3e b4 0b 66 3d 3f 4e 4f bc
       0.1074717 0.3974845 0.056163505 -0.012652933
000180 8c 11 c2 3d 99 aa 98 3e 00 5d b5 be 8c 6c 20 3e
       0.09476003 0.29817656 -0.35422516 0.15666407
000190 63 ff 65 be 50 e7 ba be 5e fc 6c be 7c bb c6 3d
       -0.22460704 -0.36504602 -0.23143145 0.097037286
0001a0 bd a7 c1 bd a0 17 85 be 4d 5e 51 3e a8 70 6e 3e
       -0.09455822 -0.25994587 0.20446129 0.23285162
0001b0 0f 2d 97 3e 3a 33 aa be ba 8e 0b 3f 7b 31 30 be
       0.29526564 -0.33242208 0.5451466 -0.17206375
0001c0 8c 95 4e 3e d8 7a 49 3d 00 52 16 3d fc d5 bd 3c
       0.20174235 0.04918942 0.036699295 0.023173325
0001d0 28 24 72 bb 42 4e 05 be 84 57 6b be 5c c2 5c 3e
       -0.003694782 -0.13018134 -0.22982603 0.21558517
0001e0 d4 8e f7 3d 9f d1 1a 3d 21 bc c8 3d 47 9d 84 3d
       0.12087789 0.037797567 0.09801508 0.06475311
0001f0 9f 36 d3 3e 86 73 a6 be c8 ab 10 3e cd 1c b3 be
       0.4125261 -0.32510012 0.1412803 -0.3498291
000200 44 c1 be 3d 10 f3 cf 3d f3 c2 dd bd 21 82 2c 3e
       0.09314206 0.10153782 -0.10828199 0.16846515
000210 79 e1 95 be 3c 21 a7 3e 40 23 bf bd 67 9a 95 3e
       -0.29273584 0.32642543 -0.09332895 0.29219362
000220 1a 45 61 3e a6 03 f4 be 74 4c fc 3d b9 28 a9 3e
       0.21999016 -0.47659034 0.1231927 0.3303888
000230 74 a9 65 3e 4b f5 ae 3d a2 86 e1 be 2a f1 54 be
       0.22427922 0.0854288 -0.4404803 -0.20795122
000240 d0 c6 97 3d a3 bc 16 be 7a 82 8a bd 33 2a 04 bf
       0.07410967 -0.14720397 -0.06763168 -0.5162689
000250 85 ee e9 3e e5 5b d4 be f4 a5 10 3e 3a 76 97 3e
       0.45689788 -0.4147636 0.14125806 0.29582387
000260 7f 4c 2f bd a0 3b d2 b9 b1 3b e3 be 52 35 20 bf
       -0.04279756 -0.00040098745 -0.44381478 -0.6258136
000270 a6 b0 2a be 09 58 11 bf b9 4b e6 3d 7a 83 82 be
       -0.16668949 -0.56774956 0.11244912 -0.25490934
000280 67 60 a6 bf e4 7c 7d bc d8 ae 1b bf 5a 82 32 3e
       -1.299817 -0.015471671 -0.60813665 0.17432538
000290 a8 6e 08 3c 48 ec 16 be 7d 61 7c 3d 02 85 c7 3d
       0.008327164 -0.14738572 0.06161641 0.09742166
0002a0 fa 38 d3 be a0 bb 30 be 16 fc 15 bf e9 81 a4 be
       -0.41254407 -0.17259073 -0.5858778 -0.32130364
0002b0 10 32 c3 3d a5 56 0a be bc 2f c5 3e ad 8e b2 be
       0.09531033 -0.13509615 0.3851298 -0.34874478
0002c0 65 fd 17 be 46 6d cb be b7 0d 38 3e 3b 4d 80 bf
       -0.14842756 -0.39731807 0.17973982 -1.0023569
0002d0 7b c7 c4 3d f4 e4 a2 3e e7 37 ef 3d 24 63 f6 3d
       0.096083604 0.31815302 0.116805844 0.12030628
0002e0 e4 bf 13 bc 2d 6e 3b be bd 9e 25 3e 74 ba 86 bf
       -0.009017918 -0.18303747 0.16173835 -1.0525651
0002f0 6c d7 89 3e 8f fa b4 3e d3 66 85 3d 71 8e 5b be
       0.26922166 0.3534741 0.06513753 -0.21441056
000300 65 47 ce 3d 61 6d 7e 3e e9 08 ee be 89 24 08 be
       0.10072211 0.24846412 -0.46491173 -0.13295187
000310 36 6b 81 bf bd 97 b1 bd fc ec c8 3d 26 b0 1e 3d
       -1.0110843 -0.0867152 0.09810826 0.038742207
000320 5d 64 1f 3d 4c d8 64 bc fc 3f 3a be ce 84 c7 3d
       0.038914073 -0.013967585 -0.1818847 0.09742127
000330 ab 83 e0 be 99 bd a1 3d 56 d7 95 3e 23 be 85 3e
       -0.43850455 0.07897491 0.2926585 0.26121625
000340 b6 00 7e be 09 6e 53 bf b7 c6 8e 3e 49 4f 27 be
       -0.24804959 -0.82589775 0.27885982 -0.16338839
000350 5f bf 92 be 2f d2 43 bf df 5c 33 be 18 5a 38 3e
       -0.2866163 -0.7649259 -0.17515896 0.18003118
000360 33 ea 83 3e 2b e6 98 be 28 7a 92 3e c7 76 62 3e
       0.25764617 -0.29863104 0.28608823 0.22115622
000370 be c3 af 3e b7 ac ac 3d 66 21 6a be a9 8a 11 bf
       0.34329027 0.0843138 -0.22864303 -0.56852204
000380 20 19 69 3d c9 58 64 be bd f4 ba be 0c f5 43 3e
       0.056908727 -0.22299494 -0.36514845 0.19136447
000390 db 3b 16 be d2 c5 67 be 23 aa 4b 3f a1 e5 1b bf
       -0.1467127 -0.22634056 0.79556483 -0.6089726
0003a0 03 ed 1d 3e b8 95 6d be 43 c6 ae 3d 36 6d cc be
       0.15422444 -0.23201644 0.08533909 -0.3992707
0003b0 82 2e 79 bd 41 29 29 3e ff ef c4 3e be 9b cd 3e
       -0.06083537 0.16519643 0.38464352 0.40157884
0003c0 c5 b1 ba 3e ca 6d 65 be 0e 14 2b 3e 7b b5 0f be
       0.36463752 -0.22405162 0.16706869 -0.14034073
0003d0 6e 50 0b bf 69 0f 18 bf be 0f de 3c c1 81 c5 be
       -0.544196 -0.59398514 0.027107116 -0.38575557
0003e0 8b c5 f6 bd f8 e4 ea 3e 76 f5 4a 3e 38 f3 a7 3d
       -0.12049397 0.45877814 0.19820198 0.08200687
0003f0 9e ae 8e be 94 02 a3 3e 28 2e 62 be 66 40 84 bd
       -0.27867597 0.31837904 -0.2208792 -0.064575955

fc2.bias f4 [300]
000000 9f 5a 95 3d 47 80 32 3d 1c c2 b5 3b e4 a9 1e be
       0.07292675 0.043579366 0.0055468213 -0.15494496
000010 59 c9 ff 3d e5 2d 17 bd a0 54 82 be 4d fa 5e 3d
       0.12489576 -0.036909003 -0.2545519 0.054437924
000020 f1 e3 63 bd 6b a9 59 be 9f 4d d0 bd 0a 2c 30 be
       -0.055637304 -0.21256034 -0.10171055 -0.172043
000030 95 b7 5b be 4e 47 aa bd 53 33 28 3e ad fa 3d be
       -0.2145675 -0.083143815 0.16425829 -0.18552656
000040 b1 d9 87 be be 3f 2c bc 4c 22 91 bd c1 90 29 bd
       -0.26533273 -0.010513244 -0.0708662 -0.041397814
000050 11 40 ba bd c4 7a 45 be 43 86 39 be 19 2b 96 be
       -0.09094251 -0.19285113 -0.18117623 -0.29329756
000060 c5 cb 8e bd 24 a2 fa bc 7a 53 83 3d c4 0e 62 be
       -0.0697246 -0.030594893 0.06412406 -0.22075945
000070 92 84 a9 3d fa 45 3b be 0b f6 f5 bd 7d b0 f6 bd
       0.08277239 -0.18288413 -0.120098196 -0.12045381
000080 a4 15 bc 3d cb dc 97 bd 6a 9f 18 be 2f 71 9c be
       0.09183815 -0.0741516 -0.14904562 -0.30555102
000090 ad 82 3a be 14 f2 59 be e3 37 56 bc b2 8b b7 be
       -0.18213911 -0.21283752 -0.013074848 -0.35848767
0000a0 bf 42 b0 bd ec 68 ed 3c 7c 94 22 3c 31 21 68 3d
       -0.08606481 0.028980695 0.009923097 0.05667228
0000b0 a0 60 8d bd a5 0e a9 3d 80 9c b1 be 22 19 b9 bd
       -0.069031954 0.08254746 -0.34689713 -0.09037997
0000c0 1f 51 8d bd 65 d1 8e be 33 1a 1a be 2f 0f 3d be
       -0.06900238 -0.2789413 -0.15049057 -0.18462823
0000d0 9b 61 08 be 49 78 83 be 9d 80 66 be d5 66 e4 bd
       -0.13318484 -0.25677708 -0.2251 -0.11152426
0000e0 7c 8f f9 bc b3 65 d9 3d 3e 7e c1 bd af 92 4f be
       -0.030463926 0.10615101 -0.09447907 -0.20270799
0000f0 05 5d 2e be 38 e6 1e be 45 b5 5e bd ff 56 6e be
       -0.17027672 -0.15517509 -0.05437209 -0.23275374
000100 0b 8c f4 bc 10 84 87 be ee 71 c3 3c 8d 2c 91 3d
       -0.029851934 -0.26467943 0.023858037 0.070885755
000110 0d 64 99 be cb 84 c7 bd d0 62 86 bd 49 99 2b be
       -0.29959145 -0.09742125 -0.06561816 -0.16757692
000120 35 94 83 3c b5 83 e4 bd 3b 8a 57 3b 9d 27 67 3b
       0.016061882 -0.111579336 0.0032888788 0.0035271414
000130 9a 74 39 be 17 23 e3 bd 1c f3 88 bd 73 c9 49 bd
       -0.18110886 -0.11090677 -0.066869944 -0.049264383
000140 3f d8 1e be 28 f8 4a bd c0 fa 97 be 0d 6d 9e be
       -0.15512179 -0.049553066 -0.29683495 -0.30942574
000150 e5 07 72 be 62 c4 a1 bd 09 9b 7d 3d 8d 7f 4e be
       -0.23635824 -0.07898785 0.06191543 -0.20165844
000160 22 ee 0b be f0 c3 b9 3d 42 31 26 be da b2 df be
       -0.13665059 0.09070575 -0.16229728 -0.4369114
000170 90 dd d9 bd dd a3 1f be 99 26 62 be e9 51 e7 3a
       -0.10637963 -0.15589853 -0.22085036 0.0017648312
000180 d1 a3 4b be 83 b8 cd bd cd 52 8e be ff b4 d8 3c
       -0.1988671 -0.100449584 -0.27797547 0.026453493
000190 cf 87 fa 3d 10 da 1c 3d 95 09 9d bd ec 38 a0 bd
       0.12232935 0.038293898 -0.07667843 -0.07823357
0001a0 de 91 01 3e a2 23 32 be f8 bc fe bd 26 3a 57 3d
       0.126533 -0.17396405 -0.12438387 0.05254569
0001b0 70 b8 05 be a8 94 e1 bb 2f 79 fb bd f6 a8 d8 3c
       -0.13058639 -0.0068841763 -0.12278973 0.026447754
0001c0 d2 e8 92 3d ba 04 93 be 9e 59 3c 3d 37 19 60 be
       0.07173313 -0.28714544 0.045983903 -0.21884619
0001d0 3a 21 61 3e 58 c2 f6 bd 0f 7f f1 bc 69 b3 a1 bd
       0.21985331 -0.12048787 -0.029479532 -0.07895548
0001e0 45 f1 8b bd eb 18 32 be da 30 86 bd 58 33 51 3e
       -0.06833128 -0.17392318 -0.065522864 0.20429742
0001f0 ba 14 d9 bc d0 45 c7 3d 8f 72 55 be d6 75 92 bd
       -0.026499141 0.097301126 -0.20844482 -0.07151382
000200 71 d8 4d bd f6 88 99 be 6c 32 61 bc b7 fd 32 be
       -0.050255243 -0.29987305 -0.013744932 -0.17479597
000210 d3 eb 80 3c 84 68 52 be 2c 83 a4 bd fd 7b 8a bd
       0.01573745 -0.20547682 -0.080328315 -0.0676193
000220 88 35 61 be ab 0f 49 be a2 0a e8 3b 34 ff b0 be
       -0.21993077 -0.19634883 0.0070813457 -0.34569705
000230 15 dc c3 bb fa 17 c2 bd e4 e3 ab bd ee 84 7e 3d
       -0.0059771636 -0.094772294 -0.08393076 0.06213849
000240 15 a9 df bc c7 a5 01 bd 47 88 27 3d 2f 8f 4a be
       -0.027302304 -0.03165224 0.04090145 -0.19781183
000250 e9 67 c9 bc 04 2f 7d bd 3f 7d d9 bd 13 ec 86 be
       -0.024585681 -0.061812416 -0.10619592 -0.26351985
000260 bb d2 5a 3c 40 2d 0e be 4c 52 a1 bd 04 95 0c be
       0.013355906 -0.13884449 -0.07877025 -0.1372872
000270 b9 b1 af be 55 82 53 3d 20 2b 43 be 11 bb 56 be
       -0.3431528 0.051637966 -0.1905942 -0.20969798
000280 b1 d8 a4 bd c2 a3 8f 3d b2 fe 6d be ad 4e 8d be
       -0.08049143 0.07013656 -0.2324169 -0.27599087
000290 48 43 b9 bd 9d 3f 26 be 17 5d 10 3d 9b 40 63 3d
       -0.09046036 -0.16235204 0.035245027 0.055481534
0002a0 f0 4f 65 bd 4d 61 3b be b3 b2 08 be 38 64 ab be
       -0.055984437 -0.18298836 -0.13349418 -0.33474898
0002b0 1f f8 a3 bb 03 18 03 be 99 ef 28 be 39 af 90 bd
       -0.0050039436 -0.12802128 -0.16497649 -0.07064671
0002c0 54 29 a2 3c 5f 17 30 3e f4 86 c8 bd 0c 83 b1 bd
       0.019795097 0.17196415 -0.09791365 -0.08667573
0002d0 84 e1 62 bd c5 e4 7f be 5b 68 a6 be 6f 85 93 be
       -0.05539085 -0.24989612 -0.32501492 -0.2881274
0002e0 dc 1e 87 be 4d 4c 5d be 1d 69 61 bd a5 bd c2 3d
       -0.2639073 -0.21611138 -0.055031884 0.09508828
0002f0 04 ae 78 bd cf 4e d0 bd f6 e7 29 be b0 11 b7 bc
       -0.06071283 -0.101712815 -0.16592392 -0.022347301
000300 86 f8 7d bd 9f 46 87 bd 42 29 26 be 7f 31 fc bb
       -0.06200459 -0.06605267 -0.16226676 -0.00769633
000310 27 e9 26 be 75 fd 6c 3d 3b c0 52 3d 4e a1 48 3c
       -0.16299878 0.057858903 0.051452857 0.012245489
000320 6d 23 81 3d c8 a1 40 be 2c 62 d6 be 5d 55 3c be
       0.06305585 -0.18811715 -0.41871774 -0.18391939
000330 14 d2 7a 3d 34 31 e3 3d 5d 42 90 bd e2 f5 2c be
       0.061235502 0.11093369 -0.07043908 -0.16890672
000340 1f c3 75 be 82 ed f4 3d 97 d1 0c bd 2e f2 3d be
       -0.24000214 0.119593635 -0.034379568 -0.18549415
000350 fe d4 c8 3d a0 58 0b 3c 58 fa 67 3e 83 2a 52 3d
       0.0980625 0.008505017 0.22654092 0.051310074
000360 0b fa 8f bc 4c 56 0b 3e b3 62 0f be 4a d2 22 be
       -0.017575284 0.13607138 -0.14002495 -0.15900531
000370 14 2b be be 18 33 81 be 01 1f 16 be b6 df 5d be
       -0.3714224 -0.25234294 -0.14660265 -0.2166737
000380 17 b2 cd bd 48 03 83 bd 75 ed 0e be cb a8 be bd
       -0.100437336 -0.0639711 -0.1395777 -0.093095385
000390 e1 4e c9 be ad b2 e6 bd 22 99 85 be 71 e4 fd bc
       -0.39317992 -0.112645485 -0.26093394 -0.030992718
0003a0 5b be 15 be 17 62 db 3d fb 5b da bd ce b8 36 bd
       -0.14623396 0.107120685 -0.10662075 -0.044609837
0003b0 02 4e 10 be fd 5d b5 bc 5d d3 61 bd c6 e2 38 be
       -0.14092258 -0.022139544 -0.055133212 -0.18055257
0003c0 b7 71 8b bd e1 cc c4 3d c8 42 31 3e 61 f9 25 be
       -0.06808799 0.0960939 0.17310631 -0.16208412
0003d0 59 36 9b 3b a7 b0 98 bd 30 54 5c 3d 18 c5 de 3c
       0.0047367034 -0.07455569 0.053791225 0.027193591
0003e0 11 28 29 be 04 1f 0d 3e b5 e4 74 be ef 5f 93 3d
       -0.1651919 0.13781363 -0.2391537 0.07196032
0003f0 82 d3 59 be a0 a6 96 3e 8c c3 64 be 70 f6 75 be
       -0.2127209 0.29424 -0.2234022 -0.2401979

fc3.weight f4 [4, 300]
000000 bf 51 ac bf c1 d1 9d 3f 3e 4b a3 bf a1 63 c1 3d
       -1.3462447 1.2329637 -1.2757337 0.09442831
000010 07 14 0c 3e ed c9 4b 3f 7e 20 a2 bf 58 54 4d bf
       0.13679515 0.7960499 -1.2666166 -0.80206823
000020 15 64 2c 3f 7d 80 87 3f 42 79 e6 3f e9 f7 0b 3e
       0.67340213 1.0586087 1.8005755 0.13668789
000030 c2 00 a1 bf 96 34 dd 3f c8 73 36 bf ba bf 71 bf
       -1.2578356 1.7281673 -0.7127042 -0.94433177
000040 0f fe d9 bf 4a fc 60 3f ea 5b 84 be 66 ce 14 40
       -1.7030658 0.8788496 -0.25851375 2.3250976
000050 83 61 21 40 b8 4c ba bf 30 11 b8 bd e8 98 87 bf
       2.5215766 -1.4554663 -0.08987653 -1.0593538
000060 7c 86 1a 40 35 37 26 bf a8 83 e8 3e cb 4e 01 3f
       2.4144583 -0.6492799 0.45412946 0.50510854
000070 a3 97 a3 be 2f f7 86 bf 77 6b b9 bf 31 b3 8d 3d
       -0.31951627 -1.0544184 -1.4485921 0.06918944
000080 46 d7 c5 3f f9 fc 09 bf 9b 95 36 3e c4 63 68 3e
       1.5456321 -0.5390163 0.17830507 0.22694308
000090 60 6a 12 c0 b6 8b b7 bf 00 57 6a be 3c a3 a6 bf
       -2.2877426 -1.4339511 -0.2288475 -1.3018565
0000a0 49 9c 0b bf 2b 90 d9 be fe 8f 9d 3f 5e 25 88 3f
       -0.5453535 -0.42492804 1.2309568 1.0636404
0000b0 d3 ba e1 bc c0 4e c6 3e 58 15 36 40 6f 60 8d bf
       -0.027554905 0.38731956 2.8450527 -1.1045054
0000c0 97 8c ff 3e e1 54 83 bf 39 5f 21 40 76 85 aa be
       0.4991195 -1.0260278 2.521437 -0.33304948
0000d0 3a 0f 03 bf df 6a 13 bf 52 c9 9b 3c 1d 3f 87 bf
       -0.5119511 -0.5758495 0.019016895 -1.0566136
0000e0 cd 7f 8a 3f f3 f3 a6 bf fd 29 39 be fb c7 2d 3f
       1.0820252 -1.3043197 -0.18082424 0.6788327
0000f0 09 ae f5 bf ae 32 ad 3d 58 d6 02 bf 17 f9 b2 3f
       -1.9193736 0.08456932 -0.5110831 1.3982266
000100 1f 17 0f be 83 31 9c bf 6e a3 b5 bf a8 a5 a5 bf
       -0.13973664 -1.220261 -1.41905 -1.2941179
000110 08 72 ed be 13 71 11 bf 23 b6 cd 3f 10 f5 9d bf
       -0.4637606 -0.5681316 1.6071209 -1.2340412
000120 d5 a8 86 3f 2f 0c c0 3f 82 fd a2 bf 58 2c 8f 3f
       1.0520273 1.5003718 -1.2733614 1.1185408
000130 51 b9 ba 3e 1d 49 5c be 33 98 ec 3f cd 11 a8 3e
       0.3646951 -0.21512266 1.8483948 0.3282608
000140 33 1e 6a bf c7 c6 e1 be 16 36 d2 3d 8f bc 07 bf
       -0.9145233 -0.44096968 0.10264222 -0.5302209
000150 37 30 f2 bd 77 f7 9f 3f ae bb 0a 3f 5d 03 20 3f
       -0.118256025 1.2497395 0.54192626 0.6250513
000160 1b e8 c1 bf 41 6c 3c bf 39 23 67 bf 60 0d bf be
       -1.5148958 -0.7360268 -0.9028812 -0.37314892
000170 18 96 ea 3f 1c c6 50 bf 2e ad f3 be ad f3 9e 3f
       1.8327055 -0.8155229 -0.47593063 1.2418114
000180 d3 29 b3 be fd d0 f5 bd 8b 65 3e 3e 07 99 29 3f
       -0.34992847 -0.12002752 0.18593423 0.66249126
000190 14 89 60 bf 44 51 80 3d d9 33 a8 3e 5f b7 3d bf
       -0.87709165 0.062655 0.32852057 -0.7410793
0001a0 60 f4 4c 3e 4a e8 3d bf b4 b6 d7 bf 06 52 33 40
       0.20015097 -0.7418257 -1.6852632 2.8018813
0001b0 b2 6e de 3d ff f8 4e 3f f6 ee 0e bf 24 bb 04 40
       0.10860957 0.8084869 -0.55833375 2.0739222
0001c0 90 fe d4 bf 33 bf d6 3f 09 ee 6b bf 75 97 83 3f
       -1.6640186 1.6777099 -0.9216009 1.0280596
0001d0 3c 18 87 3f 7e b1 24 3e 9a 92 ca bf 53 54 49 bf
       1.0554271 0.16083333 -1.5825989 -0.78644294
0001e0 2b 1c c2 bf 16 4d 1a bf 1b 95 16 be b7 25 45 3d
       -1.5164846 -0.60273874 -0.14705317 0.04813167
0001f0 72 9f 26 c0 e6 46 4a bf f9 c9 9b bf 84 80 71 3e
       -2.6034818 -0.7901443 -1.2171012 0.23584181
000200 5c 6d 67 be 7f 21 03 3e 8f a4 0c bf ab fd 35 3f
       -0.22600311 0.12805746 -0.54938596 0.7109019
000210 00 e4 da be 7e 7c 65 bd c6 81 dc bd 7e 93 fb 3e
       -0.42752075 -0.056026928 -0.1076694 0.49135965
000220 2f 4f ea 3f 21 de 01 bf 37 07 93 3d ca b8 e8 bf
       1.8305415 -0.50729567 0.071791105 -1.8181393
000230 94 17 d5 bf 64 af 48 40 e8 bf 83 be 19 b9 46 3f
       -1.664782 3.135705 -0.2573235 0.77626187
000240 78 bf 97 bf 2a 21 a7 3d fd 08 ad bf ee 60 18 3f
       -1.1855307 0.081606224 -1.3518368 0.595229
000250 41 53 36 bf 5a 5b bc bf 67 3e ab be 8d a6 be bd
       -0.71220785 -1.4715378 -0.33446047 -0.09309111
000260 0d f8 c4 be c0 88 c5 bb 0b 65 7c 3f ee 45 96 3e
       -0.38470498 -0.0060282648 0.9859168 0.29350227
000270 f6 70 a7 3f 26 6a 8d bf f3 f2 86 bf 62 9c 11 bf
       1.3081348 -1.1048019 -1.0542892 -0.56879246
000280 1f 54 b9 3f 6a 28 2d 3f 05 3c c1 bf 6b b4 76 3e
       1.4478797 0.6763979 -1.5096442 0.24092261
000290 fa 1f 4e 3f f2 c1 fb 3e 8c 67 a8 be df 30 2a be
       0.8051754 0.49171406 -0.328915 -0.16620205
0002a0 21 b7 c8 3f 64 e8 50 bf 8c 69 22 3f 01 a2 01 40
       1.5680887 -0.816046 0.634423 2.025513
0002b0 6a c4 98 bf f7 f9 b3 be 90 2a f5 bf 82 b7 30 3f
       -1.1934941 -0.35151646 -1.9153614 0.6903001
0002c0 1a 0f f6 3e 8b 15 dd 3e 9e 39 86 3e d1 1d 17 bf
       0.48058397 0.43180498 0.26215833 -0.5902987
0002d0 92 a6 8c bf 66 b6 8e be 87 32 0a 40 2a fc 0d 3e
       -1.0988333 -0.27873534 2.159334 0.13865724
0002e0 30 22 ae bf d8 3b 8f 3e bf 5f 10 bd c8 e5 8e bf
       -1.3604183 0.27975345 -0.03524756 -1.1163874
0002f0 c8 de 05 c0 55 87 4a 3a 2a 5f ad 3e 35 d6 9a 3f
       -2.0917225 0.00077258545 0.33861667 1.2096621
000300 e6 82 8a bf eb 09 3a bd 1e 17 81 bf 8a c8 25 bf
       -1.0821197 -0.045419615 -1.008518 -0.64759123
000310 8f 19 ce 3f f5 60 a8 be 94 73 7e bf 6f d9 a6 bf
       1.610155 -0.32886472 -0.9939511 -1.3035105
000320 39 9b 86 3e a4 4f e1 3f 8a 7c 98 3d f1 49 cd bf
       0.262903 1.7602429 0.07445629 -1.603819
000330 af 34 82 3e 9b c0 97 3f a5 d7 86 3d 43 ac 87 be
       0.2543082 1.1855654 0.065841 -0.26498613
000340 09 5c 50 3f 8e 58 25 3e a2 e0 f3 3f e4 dc e4 bf
       0.81390435 0.16147062 1.9052927 -1.787991
000350 0e 1e 46 bd 11 85 6b bf 99 74 de bf 4d 95 00 bf
       -0.048368506 -0.9199992 -1.7379333 -0.50227815
000360 f2 ce 1c bf 31 88 43 bf 0a a0 b4 bf 97 05 34 bf
       -0.61253273 -0.76379687 -1.411134 -0.7032103
000370 b1 2c 09 bf c8 b7 63 3f e3 85 db 3e ab 64 85 be
       -0.5358382 0.889523 0.42875585 -0.26053366
000380 25 2e 80 3f 9d c8 9d bf bd ae 0e bf a9 24 2f bf
       1.0014082 -1.2326847 -0.5573538 -0.68415314
000390 2d 49 5b 3f ff 60 83 3e 33 34 86 be d5 dc 9a bf
       0.8565853 0.2565994 -0.262117 -1.2098643
0003a0 b0 c7 be 3f 25 cd 46 bf d7 81 5d 3e 9b aa 35 bf
       1.490469 -0.77656776 0.21631561 -0.7096345
0003b0 2e 34 a9 bf c9 94 1d 40 0d 9f 58 3f 37 e5 13 40
       -1.3219049 2.4622061 0.8461769 2.3108652
0003c0 f6 13 f7 3f 24 58 91 bd bb 57 f1 3e d8 e0 1f bf
       1.9302967 -0.070968896 0.47137246 -0.6245246
0003d0 47 9f e2 3e f4 ec ac 3d 9a 31 b9 bf 8d d7 cf be
       0.44262144 0.08443633 -1.4468262 -0.4059414
0003e0 e8 d9 00 3d 23 99 11 40 f1 ec 29 bf d5 15 06 40
       0.03145781 2.2749717 -0.6637717 2.0950825
0003f0 cc e6 f1 bd 6f ac ed 3f ac 97 d1 be f8 15 91 bf
       -0.11811599 1.8568248 -0.4093603 -1.1334829

fc3.bias f4 [4]
000000 09 25 76 be f9 3c ac 3d b1 17 a5 3c a7 02 85 3c
       -0.24037565 0.08410067 0.020152899 0.016236616
