checkpoint_Actor.pth (torch_old, 541425 bytes, 6 tensors)

fc1.weight f4 [400, 33]
-0.66962326 0.22948378 -0.11090512 1.4907666 -0.88129365 0.38817546 -1.3848116 -0.2886422
-0.23050275 -0.17122512 -0.36379132 0.22750577 0.009892248 -1.1857498 0.2785928 -0.15399203
0.6092494 -1.3200636 1.5957935 -0.4384383 -0.00937743 0.10115303 -0.6321416 0.3068759
0.0029750634 -0.0024726333 0.21535815 0.36011386 -0.24515477 0.049657617 -0.36378366 -0.028602464
-1.7571132 0.24502215 0.032069378 0.62822014 0.29387283 1.1207768 -0.5549152 0.26151496
0.70343333 0.5254996 0.09750481 -0.20586748 0.7469395 -0.13523835 0.19940619 -0.3855828
-0.60290194 -1.7989607 0.82969064 -2.2317662 0.25278968 -0.5151413 -0.23560017 -0.777191
-0.08791409 0.0826715 -0.065147914 0.24851322 0.06438607 0.05933166 -0.041183244 -0.023371557
-0.011414509 -0.44353142 -0.88968116 0.58146834 0.4667257 0.6269886 1.8215711 -0.57871217
-0.08060354 0.25642052 0.809746 0.13006373 -0.042990874 0.74976534 -0.1742714 -0.47021207
0.3992112 -0.011801476 -0.13901974 0.17814171 -2.0488722 -1.0662498 0.26200518 0.5547203
-0.23196737 0.11495771 -0.48678458 -0.10950547 0.3303787 -0.14441285 -0.5394887 -0.034138605
0.082920544 0.04606835 -2.1622758 -0.20278867 -0.23756614 0.5630957 -3.0939553 -1.4855347
-1.0991609 1.5764962 -0.11145576 -0.13522068 0.039786503 -0.03269607 -0.12849903 -0.015349625
-0.09987705 -0.17055742 0.15782775 -1.0074239 0.5924431 -0.2809876 0.7883632 -0.4831337
1.1724231 -0.1270385 -0.7459931 0.29018158 -0.023548683 -0.25152433 0.4168348 -0.112723075
-5.0626695e-05 -0.45567486 -0.000518851 2.3284469 -1.0760651 0.6551878 0.09365846 0.5400297
0.059376188 -0.13603273 -1.0597451 -0.037022963 -0.6444676 0.1729561 -0.00941696 0.121548936
0.08656353 -0.7637755 0.6609466 -0.16959342 -0.9446346 0.33396775 -0.3372798 -0.1477939
-0.47650984 -0.12462074 0.60249895 0.027634753 -0.012031073 0.09137197 0.13749412 0.3801926
-0.60916084 -0.0379647 -0.40563402 -0.009385206 0.33121458 0.19077586 0.40409186 -0.23460661
0.3109628 0.56427443 -0.12933259 0.5785728 -0.16625176 -0.14894593 -0.63201666 -0.33166832
-0.6913279 -0.1201165 -0.020968672 0.1944969 0.16465494 0.2890787 -1.8037528 -1.4307711
-1.5737063 -0.3305331 -0.11542624 -0.37417802 -0.4909543 0.03127377 -0.6103604 -1.0078623
0.34092677 0.44675383 0.046912704 -0.2951925 0.0009202771 -0.86510605 -0.91679746 0.0075365193
-0.097827256 0.2679121 -0.5205299 1.5697336 -1.9108363 0.13993447 -0.43738806 -0.10878598
-0.14628106 0.062718205 0.15451941 0.29161462 -0.2508449 -0.088953115 1.3921732 -0.035027605
1.5832585 -2.2452726 0.23670845 0.06704873 -0.026145874 0.55816567 -0.10302025 -0.32237193
0.3010119 0.18926948 -0.10112881 -0.042831894 -0.21015385 0.01055352 5.5892034 0.07911827
0.34530756 0.061934836 -0.63605857 -0.65559596 -0.9633352 0.30346856 0.23570494 1.0794635
-0.14384633 -0.17281105 -0.1330498 -0.6280433 0.20128684 -0.130014 -0.10398064 0.7146138
-0.8614062 1.2771257 -1.2012544 -0.5694686 0.56465006 -0.21812657 0.73840636 0.6050232
00000000: 6e6c 2bbf ccfd 6a3e 3922 e3bd 71d1 be3f
00000010: 769c 61bf efbe c63e 8241 b1bf e9c8 93be
00000020: ea08 6cbe a355 2fbe db42 babe 46f7 683e
00000030: 1813 223c a6c6 97bf b7a3 8e3e 16b0 1dbe
00000040: c5f7 1b3f d8f7 a8bf f642 cc3f fc7a e0be
00000050: cba3 19bc 5229 cf3d 08d4 21bf d71e 9d3e
00000060: 48f9 423b e70b 22bb d986 5c3e d860 b83e
00000070: da09 7bbe c965 4b3d da41 babe b74f eabc
00000080: 16e9 e0bf 16e7 7a3e 2e5b 033d 09d3 203f
00000090: 8076 963e 9d75 8f3f ec0e 0ebf 4ae5 853e
000000a0: 3514 343f 2487 063f 9ab0 c73d edce 52be
000000b0: 6d37 3f3f ec7b 0abe 2331 4c3e 1c6b c5be
000000c0: c857 1abf 5844 e6bf 9b66 543f 42d5 0ec0
000000d0: a66d 813e 4de0 03bf 2c41 71be fdf5 46bf
000000e0: 4d0c b4bd ad4f a93d 456c 85bd 407a 7e3e
000000f0: d8dc 833d c105 733d c3af 28bd b575 bfbc
00000100: ec03 3bbc 8d16 e3be 25c2 63bf 1cdb 143f
00000110: acf6 ee3e 5382 203f 3e29 e93f 7b26 14bf
00000120: 7813 a5bd 8d49 833e 844b 4f3f 6d2f 053e
00000130: 3317 30bd 9ff0 3f3f 3474 32be a3bf f0be
00000140: 6965 cc3e fa5a 41bc 315b 0ebe c86a 363e
00000150: b920 03c0 e07a 88bf 8b25 863e 2602 0e3f
00000160: db88 6dbe f36e eb3d d43b f9be 6744 e0bd
00000170: 6627 a93e f6e0 13be ee1b 0abf ecd4 0bbd
00000180: 3fd2 a93d 2bb2 3c3d ba62 0ac0 d5a7 4fbe
00000190: 8a44 73be 0a27 103f 5d03 46c0 0026 bebf
000001a0: 4eb1 8cbf a1ca c93f eb42 e4bd 4a77 0abe
000001b0: 2cf7 223d 50ec 05bd 4095 03be fe7c 7bbc
000001c0: 578c ccbd 9ba6 2ebe 999d 213e 44f3 80bf
000001d0: 5aaa 173f 9bdd 8fbe 2cd2 493f 4d5d f7be
000001e0: f611 963f 6116 02be 67f9 3ebf ae92 943e
000001f0: 2be9 c0bc ccc7 80be 5f6b d53e 5bdb e6bd
00000200: 0058 54b8 374e e9be 8003 08ba 4605 1540
00000210: 80bc 89bf 63ba 273f 02d0 bf3d 633f 0a3f
00000220: 7234 733d 2a4c 0bbe baa5 87bf 64a5 17bd
00000230: d4fb 24bf 671b 313e 9849 1abc a6ee f83d
00000240: 3848 b13d cb86 43bf cc33 293f e6a9 2dbe
00000250: 93d3 71bf d2fd aa3e f0af acbe 4957 17be
00000260: 19f9 f3be 2939 ffbd 5f3d 1a3f 4762 e23c
00000270: fa1d 45bc 3a21 bb3d 42cb 0c3e 9ba8 c23e
00000280: f7f1 1bbf e080 1bbd 43af cfbe 68c4 19bc
00000290: f594 a93e bf5a 433e 21e5 ce3e b73c 70be
000002a0: 8436 9f3e 4a74 103f c36f 04be 591d 143f
000002b0: e73d 2abe 4885 18be d8cb 21bf 6ed0 a9be
000002c0: defa 30bf a4ff f5bd 7ec6 abbc 322a 473e
000002d0: 4e9b 283e 2002 943e 5fe1 e6bf 8223 b7bf
000002e0: 356f c9bf a23b a9be 9864 ecbd 4394 bfbe
000002f0: 5d5e fbbe ed18 003d 9440 1cbf a201 81bf
00000300: f48d ae3e ebbc e43e 8927 403d 7923 97be
00000310: c03e 713a 9777 5dbf 3db3 6abf e8f4 f63b
00000320: a859 c8bd c62b 893e 7341 05bf 08ed c83f
00000330: 4996 f4bf fb4a 0f3e 54f1 dfbe 2fcb debd
00000340: b4ca 15be 6772 803d 563a 1e3e 834e 953e
00000350: be6e 80be 0d2d b6bd bb32 b23f 1b79 0fbd
00000360: 37a8 ca3f 8cb2 0fc0 b363 723e d850 893d
00000370: df2f d6bc f2e3 0e3f 48fc d2bd ef0d a5be
00000380: 3b1e 9a3e dccf 413e 9f1c cfbd 7f70 2fbd
00000390: 9232 57be ace8 2c3c c1da b240 c208 a23d
000003a0: 27cc b03e 62af 7d3d bcd4 22bf 23d5 27bf
000003b0: 239d 76bf 3b60 9b3e a35c 713e dc2b 8a3f
000003c0: 744c 13be 61f5 30be 353e 08be 72c7 20bf
000003d0: 231e 4e3e 6422 05be cdf3 d4bd eef0 363f
000003e0: 1e85 5cbf db78 a33f b4c2 99bf b2c8 11bf
000003f0: e88c 103f 925c 5fbe 3308 3d3f cde2 1a3f

fc1.bias f4 [400]
-0.45910227 -0.11497416 0.27957687 -0.41313806 -0.51488155 -0.47436562 -0.31496552 -0.6565088
-0.15806544 -0.62861973 -0.052385364 -0.15743536 -1.0383387 -0.38588688 -0.14758687 -0.46491262
-0.02733198 -0.6907257 -0.56777155 -0.6558683 -0.12603776 -0.25109804 -0.18586719 -0.32286575
-0.28048366 -0.3386713 -0.72364 0.17176247 0.19311611 -0.11510765 -0.045261577 -0.079561725
-0.09197945 -0.065935306 0.28397202 -0.7639016 -0.16294943 -0.59505767 -0.026248807 -0.4810511
-0.0189419 -0.2918416 -0.6489424 0.022716485 -0.47563452 -0.25124183 -0.24507976 -0.51365477
-0.3580688 -0.7270807 -0.2835849 -0.5188417 -0.03911248 0.31956428 -0.462657 0.16787915
-0.10581592 -0.3192416 -0.31897202 -0.21004668 -0.4932124 -0.1724583 -0.3393129 -0.39771554
-1.1596335 -0.1576564 -0.25162095 -0.2823953 -0.6661254 -0.16538614 -0.19309683 -0.6585456
-0.07605341 -0.3765615 -0.112239614 0.33966124 -0.1995393 0.2494387 -0.25575376 0.33304211
0.0011150627 0.23851357 -0.6768369 -0.5291564 -0.31367946 -0.19240753 0.104735695 -0.28724107
0.1003251 -0.36675096 -0.021758191 -0.22975577 -0.24070376 -0.1300905 0.16334584 -0.24921107
-0.25638524 0.039260127 -0.79639184 -0.67789364 -0.1421322 -0.052015375 0.15113848 0.10448071
0.09565128 0.32855526 -0.46828637 -0.47609505 0.28043088 -0.19963175 -0.12496769 -0.5582804
0.26443818 -0.43361282 -0.6545995 -0.25599414 0.011418957 0.023243142 -0.093243875 -0.3103907
-0.79354936 -0.4986942 -0.40616176 -0.5071704 -0.2337281 0.14109395 -0.3929908 0.026101416
-0.07280926 -0.44779405 -0.703357 -0.56797576 -0.10853359 0.12597145 -0.15089333 -0.3679774
-0.30360073 -0.7310924 0.087824166 -0.3580537 -0.41369227 -0.81438464 -0.1467937 0.1896431
-0.29269198 -0.31809634 0.26605842 -0.1007747 0.014394952 0.13401549 -0.52151585 -0.5701244
-0.19950095 -1.1797199 -0.4960335 -0.6313018 0.15634699 -0.58811563 -0.16707878 -0.4338609
-0.55612034 -0.09114995 -0.30206165 -0.19851434 -0.5916392 -0.2244804 -0.06008068 0.25235048
-0.18695568 -0.02037999 -0.48694062 -0.46167386 -0.46442074 -0.18865117 -0.9091785 -0.14703509
-0.6216512 -0.57592803 -0.19444965 0.20142986 0.1735701 -0.62300885 0.042338844 -0.38763994
-0.08876007 -0.29821315 -0.3070047 -0.3852359 -0.8293087 -0.13786055 -0.61167914 -0.18363333
-0.06578835 -0.7883474 -0.23825124 -0.1652796 -0.43843725 -0.54078156 -0.4206573 0.29355925
-0.014047379 -0.30939072 -0.3819483 0.01137123 -0.42602336 0.15494971 0.089534596 -0.42027146
-0.14028619 -0.05274096 -0.079454385 -0.5036087 0.20207511 -0.69666153 -0.5161595 -0.41877332
-0.1987088 -0.8774565 -0.524318 -0.040275935 -0.74961966 -0.3863679 -0.7108977 -0.669657
-0.134033 -0.26875335 -0.2861346 -0.46563467 0.3906095 -0.31084257 0.031691484 -0.1358804
-0.49074447 -0.70129573 -0.68765587 -0.16508172 -0.5209038 -0.25206998 -0.5750411 -0.17819324
-0.658234 -0.33171207 -0.29711726 -0.06293171 -0.15788043 -0.56864697 0.32169628 -0.28112042
-0.27358255 -0.33746734 -0.66502583 0.108360656 -0.7636962 -0.21802089 -0.3423193 -0.122430794
00000000: 740f ebbe 9377 ebbd b324 8f3e d586 d3be
00000010: 47cf 03bf 0de0 f2be 2943 a1be f610 28bf
00000020: e8db 21be 39ed 20bf 0992 56bd bc36 21be
00000030: 48e8 84bf f792 c5be 0321 17be 0709 eebe
00000040: 51e7 dfbc 66d3 30bf 7a59 11bf fce6 27bf
00000050: 0b10 01be ec8f 80be f853 3ebe a94e a5be
00000060: 8e9b 8fbe 5366 adbe 7940 39bf 80e2 2f3e
00000070: 3bc0 453e 8fbd ebbd 3464 39bd 42f1 a2bd
00000080: b95f bcbd 1709 87bd c864 913e 0e8f 43bf
00000090: 37dc 26be b355 18bf bd07 d7bc 544c f6be
000000a0: 0b2c 9bbc 436c 95be 1721 26bf ec17 ba3c
000000b0: 5e86 f3be c5a2 80be 30f6 7abe e17e 03bf
000000c0: cb54 b7be f621 3abf 0a32 91be cfd2 04bf
000000d0: 6834 20bd ee9d a33e 61e1 ecbe 83e8 2b3e
000000e0: 04b6 d8bd a373 a3be 4d50 a3be 7a16 57be
000000f0: 5686 fcbe e998 30be 6cba adbe 5fa1 cbbe
00000100: df6e 94bf ae70 21be 76d4 80be 1e96 90be
00000110: 3287 2abf fc5a 29be 2dbb 45be 7296 28bf
00000120: e4c1 9bbd abcc c0be e2dd e5bd 14e8 ad3e
00000130: 0854 4cbe dc6c 7f3e 28f2 82be 7f84 aa3e
00000140: 4c27 923a e73c 743e 2f45 2dbf cb76 07bf
00000150: 989a a0be 7b06 45be ab7f d63d 4311 93be
00000160: 3f77 cd3d c8c6 bbbe 3c3e b2bc 1945 6bbe
00000170: 0c7b 76be 7236 05be 2244 273e 3031 7fbe
00000180: ed44 83be 3acf 203d 56e0 4bbf 708a 2dbf
00000190: 1a8b 11be 130e 55bd 0cc4 1a3e fcf9 d53d
000001a0: d1e4 c33d 6538 a83e 3bc3 efbe bbc2 f3be
000001b0: a394 8f3e 446c 4cbe 0fef ffbd 77eb 0ebf
000001c0: 7164 873e 8002 debe d593 27bf aa11 83be
000001d0: 9416 3b3c 6768 be3c a5f6 bebd 88eb 9ebe
000001e0: 0d26 4bbf d954 ffbe 6ff4 cfbe ebd5 01bf
000001f0: 6b56 6fbe ef7a 103e 1736 c9be a3d2 d53c
00000200: 051d 95bd 4345 e5be 340f 34bf dc66 11bf
00000210: dc46 debd a9fe 003e c883 1abe 8967 bcbe
00000220: 8e71 9bbe df28 3bbf 28dd b33d d152 b7be
00000230: 79cf d3be 837b 50bf 1651 16be cd31 423e
00000240: b9db 95be 86dd a2be cf38 883e f762 cebd
00000250: ced8 6b3c 5b3b 093e 1082 05bf acf3 11bf
00000260: fa49 4cbe 1001 97bf 1af8 fdbe ff9c 21bf
00000270: 6d19 203e bf8e 16bf b316 2bbe 0423 debe
00000280: e75d 0ebf d3ac babd d3a7 9abe 5847 4bbe
00000290: ab75 17bf 31de 65be 2917 76bd 1534 813e
000002a0: 4f71 3fbe f0f3 a6bc 4850 f9be 8460 ecbe
000002b0: 8ec8 edbe c62d 41be ecbf 68bf 5e90 16be
000002c0: 8824 1fbf 0570 13bf cf1d 47be a143 4e3e
000002d0: 5cbc 313e 827d 1fbf 7f6b 2d3d be78 c6be
000002e0: d7c7 b5bd 65af 98be b82f 9dbe a43d c5be
000002f0: 934d 54bf 512b 0dbe 0197 1cbf 600a 3cbe
00000300: 0bbc 86bd 23d1 49bf 22f8 73be 0e3f 29be
00000310: d97a e0be a970 0abf 6560 d7be 664d 963e
00000320: fa26 66bc 7668 9ebe ba8e c3be 654e 3a3c
00000330: bc1f dabe 23ab 1e3e ea5d b73d d22d d7be
00000340: 2fa7 0fbe e806 58bd fbb8 a2bd 80ec 00bf
00000350: c7ec 4e3e 6958 32bf 0723 04bf 7569 d6be
00000360: 527a 4bbe fda0 60bf b439 06bf 61f8 24bd
00000370: 13e7 3fbf 03d2 c5be 64fd 35bf a46e 2bbf
00000380: f23f 09be 0a9a 89be 3c80 92be ab67 eebe
00000390: f8fd c73e c226 9fbe eece 013d 3b24 0bbe
000003a0: dc42 fbbe 1e88 33bf 370a 30bf 2f0b 29be
000003b0: f459 05bf 510f 81be e535 13bf 4a78 36be
000003c0: 0682 28bf 2ad6 a9be c11f 98be 57e2 80bd
000003d0: 68ab 21be d992 11bf 60b5 a43e 04ef 8fbe
000003e0: 0313 8cbe 85c8 acbe 223f 2abf 31ec dd3d
000003f0: 9881 43bf de40 5fbe 7a44 afbe ffbc fabd

fc2.weight f4 [300, 400]
-0.29709095 -1.0454379 -0.6181705 -0.58242404 0.024851525 -0.09797446 0.11994094 1.0879303
0.79264814 -0.2419285 -0.22200999 -0.17029178 0.2592779 0.3983981 0.10287412 -0.4250053
0.039941534 0.06906632 -0.1569528 0.5160297 -0.6638964 0.41722077 -0.5994704 0.0027092653
-0.23091137 0.11846423 -0.13173015 -1.0608418 -0.837139 0.38375172 0.0017542765 -0.61773187
-0.65029657 -0.5539872 0.5521736 0.26277563 0.1247034 0.60742974 -0.61059487 0.204519
-1.191452 0.006805605 0.18236591 0.2678297 0.508884 0.17433685 0.7916755 -0.07805038
0.46912074 0.32321966 -0.62746483 -0.15439874 -0.67002153 -0.82067776 0.093303375 -0.078157
0.093483016 0.05975307 -0.7934749 -0.39631113 0.22416265 -0.3642401 -0.9628451 0.42804092
-1.0010055 -0.14238138 0.6267224 0.3152547 0.85798836 0.833956 0.030827453 0.4795842
0.14344956 -0.05140452 -0.1757942 0.50187695 1.0444596 -0.93316585 0.30897737 0.07365831
-0.90687174 -0.114605084 0.24228822 -0.2549405 -0.5547632 -0.94796866 -0.5806357 0.12655404
0.6292931 -0.63694936 0.5270266 0.098792054 0.16058627 -0.19545208 -0.06259052 -0.38547626
0.59983474 0.25098792 0.29223228 0.7207997 -0.7222435 0.3349539 0.60922956 0.026762063
0.6329163 -0.19180402 0.87846327 0.4946049 -0.7178667 0.11197477 0.22693288 0.53943586
0.52458453 0.97069013 0.18048938 -0.12567303 -0.66433716 0.042994224 -0.46500993 0.307689
-0.5788619 0.25571954 0.44374257 0.14453058 0.26184285 0.23520896 0.013146279 -0.78646845
0.2202885 0.06004428 -0.124063544 0.06575627 -0.42456633 -0.0021591154 0.28565067 0.32270437
0.67291296 -0.17629455 -0.34152147 -0.33335337 0.077955216 0.34331465 -0.94022423 -0.0121277915
-0.6987041 -0.06550336 -0.34511137 0.055815514 -0.5791756 -0.5712244 -0.351225 0.16725111
-0.57169163 -0.26696265 0.28068334 0.9457735 -0.10875899 -1.0081595 -0.61314696 0.22483154
-0.90482086 0.66414034 0.10704501 -0.055420946 -0.030726023 -0.48265234 -0.70725566 -0.05486234
0.087425165 -0.268967 0.50517905 -0.14465322 0.6568033 -0.34212482 -0.44551784 -0.26322192
0.023389753 0.31181926 -0.19291689 0.30066618 -0.22765958 -0.05396292 -0.16328944 0.04276832
-0.35523227 -0.29508454 -0.27556846 -0.25311235 0.17797005 -0.15695499 -0.49260235 0.18408032
-0.29558018 -0.29270682 -0.6407747 -0.064636156 -0.091321886 0.048953887 -0.43236792 -0.56388956
0.02086964 0.8927102 -0.22654523 -0.7056231 0.51485354 0.10121354 0.10380175 0.09128604
0.21205844 0.3406103 -0.39605445 -0.042130746 0.5610427 -0.4961375 -0.57051677 0.16531256
-0.4100528 0.21521251 -0.14083499 0.7994478 -0.17554247 -1.0641452 0.59153235 0.94856846
-0.9154066 -0.3209687 0.33563864 0.053747848 -0.023863992 -0.43890047 -0.4239743 0.34363088
0.5897636 0.1010997 -0.2900636 -0.03292498 0.15957968 -0.22698694 0.09335435 -0.78403026
-0.33215085 -0.6429123 0.55934346 -0.51251125 -1.0466961 -0.16653211 -0.0625644 0.17310904
0.25292546 -0.008691754 0.5581132 0.26455134 -0.25519505 -0.16338861 0.13349216 -1.1732773
00000000: 4e1c 98be e9d0 85bf 6c40 1ebf be19 15bf
00000010: 6d95 cb3c d5a6 c8bd 98a3 f53d 4d41 8b3f
00000020: fdea 4a3f 1bbc 77be 9656 63be f860 2ebe
00000030: 13c0 843e d6fa cb3e abaf d23d 4b9a d9be
00000040: bc99 233d a572 8d3d 3cb8 20be 861a 043f
00000050: 1df5 29bf f69d d53e e476 19bf ee8d 313b
00000060: 0874 6cbe 609d f23d 45e4 06be aac9 87bf
00000070: be4e 56bf 1b7b c43e c0ef e53a ad23 1ebf
00000080: d679 26bf 1bd2 0dbf 405b 0d3f 878a 863e
00000090: 7f64 ff3d 8480 1b3f f24f 1cbf 6e6d 513e
000000a0: 8081 98bf 8d01 df3b 21be 3a3e f920 893e
000000b0: 3946 023f 5c85 323e 3fab 4a3f e1d8 9fbd
000000c0: 9830 f03e 0c7d a53e 89a1 20bf b41a 1ebe
000000d0: 8886 2bbf f017 52bf d715 bf3d c710 a0bd
000000e0: 0674 bf3d a3bf 743d 2c21 4bbf 4be9 cabe
000000f0: e58a 653e ae7d babe 047d 76bf 2e28 db3e
00000100: f320 80bf 6dcc 11be e170 203f 1069 a13e
00000110: 20a5 5b3f 247e 553f db89 fc3c 0f8c f53e
00000120: 71e4 123e 8c8d 52bd 6503 34be 027b 003f
00000130: dab0 853f f5e3 6ebf 4832 9e3e 2bda 963d
00000140: bf28 68bf 12b6 eabd 671a 783e 9087 82be
00000150: f604 0ebf 13ae 72bf 8ba4 14bf 6297 013e
00000160: 5a19 213f 1d0f 23bf 37eb 063f 7d53 ca3d
00000170: ba70 243e 9724 48be 752f 80bd 255d c5be
00000180: c58e 193f 7d81 803e 789f 953e 5486 383f
00000190: f3e4 38bf 147f ab3e 78f6 1b3f 1d3c db3c
000001a0: cd06 223f 4668 44be f8e2 603f da3c fd3e
000001b0: 1dc6 37bf 0753 e53d 1861 683e 7818 0a3f
000001c0: 2c4b 063f 267f 783f 35d2 383e 6eb0 00be
000001d0: 0012 2abf b61a 303d c815 eebe 6a89 9d3e
000001e0: 4b30 14bf aced 823e 3a32 e33e d3ff 133e
000001f0: 4410 863e 9eda 703e 7e63 573c ff55 49bf
00000200: 4f93 613e fef0 753d 0715 febd 39ab 863d
00000210: c260 d9be f27f 0dbb ce40 923e 8239 a53e
00000220: 0644 2c3f 8f86 34be e7db aebe 4bad aabe
00000230: fca6 9f3d f0c6 af3e 89b2 70bf a5b3 46bc
00000240: 46de 32bf a026 86bd 70b2 b0be cf9e 643d
00000250: da44 14bf c33b 12bf c3d3 b3be e043 2b3e
00000260: 625a 12bf 54af 88be bab5 8f3e 361e 723f
00000270: 09bd debd 5f0b 81bf 33f7 1cbf 3d3a 663e
00000280: 57a2 67bf 1a05 2a3f 6a3a db3d 1301 63bd
00000290: 24b5 fbbc 351e f7be b50e 35bf 55b7 60bd
000002a0: f70b b33d 0bb6 89be 6a53 013f f91f 14be
000002b0: 4324 283f fc2a afbe ea1a e4be 06c5 86be
000002c0: de9b bf3c c6a6 9f3e 018c 45be ebf0 993e
000002d0: 981f 69be 3908 5dbd 5935 27be d52d 2f3d
000002e0: 01e1 b5be 5215 97be 4f17 8dbe f197 81be
000002f0: c83d 363e cfb8 20be 6036 fcbe 8d7f 3c3e
00000300: 4956 97be abdd 95be d009 24bf f65f 84bd
00000310: f806 bbbd df83 483d 545f ddbe 115b 10bf
00000320: cff6 aa3c a888 643f 79fb 67be b7a3 34bf
00000330: 71cd 033f 0b49 cf3d 0396 d43d 2df4 ba3d
00000340: d925 593e 7964 ae3e a6c7 cabe 4a91 2cbd
00000350: 7fa0 0f3f bc05 febe 630d 12bf b247 293e
00000360: 71f2 d1be ab60 5c3e 0c37 10be 9ca8 4c3f
00000370: 68c1 33be e935 88bf aa6e 173f 62d5 723f
00000380: 1658 6abf 0256 a4be d4d8 ab3e b426 5c3d
00000390: 6b7e c3bc 90b7 e0be 2913 d9be 63f0 af3e
000003a0: bffa 163f 5c0d cf3d 3783 94be 58dc 06bd
000003b0: db68 233e 446f 68be 9130 bf3d 35b6 48bf
000003c0: ad0f aabe e795 24bf 2231 0f3f f033 03bf
000003d0: 23fa 85bf 6587 2abe c421 80bd 7f43 313e
000003e0: 727f 813e dc67 0ebc 82e0 0e3f 4673 873e
000003f0: eda8 82be 584f 27be 2bb2 083e f32d 96bf

fc2.bias f4 [300]
-0.4951089 -0.66347986 -0.4889749 -0.4494294 0.3512884 0.5574673 -0.21218936 0.18787973
-0.18556331 0.07909523 -0.34631923 0.19873989 -0.037619412 -0.41195574 -0.058008302 -0.6076612
-0.032782238 -0.15302013 -0.25977862 -0.61615384 -0.3085806 -0.10775183 -0.14811346 0.07629363
-0.018387863 -0.2128428 -0.50384414 -0.2536107 0.44443065 -0.0037226886 -0.11875495 -1.1000099
-0.15752098 0.08865417 -0.09997735 -0.4444413 -0.6022828 -0.6494231 0.076595716 -0.43225187
-0.8455009 0.30434325 -0.47335863 -0.24181028 0.4373802 0.14875811 -0.28591514 0.3805001
-0.032980416 -0.054840606 0.14972277 -0.1698239 -1.4878106 0.16255967 -0.11615344 -0.6756162
-0.28439233 -0.38447928 -0.4027421 -0.17034182 0.39786795 -0.13775729 0.19099288 -0.39338633
-0.0939901 -0.2973576 0.09026404 0.069224924 -0.085503384 -0.032890934 -0.045063015 -0.018257482
0.059895135 -0.2050377 -0.24681534 0.18060972 -0.45931923 -0.5446409 -0.035657566 0.1396066
-0.035894725 -0.21897069 0.19451943 0.03040041 0.15994406 0.40329188 0.018899335 -0.053130377
-0.11565827 -0.0061097182 -0.21898384 -0.06460494 -0.0600457 -0.24269116 -0.25175053 -0.17299137
-0.18009576 0.024848517 -0.066168755 0.095083736 -0.17349637 0.060793106 -0.10486147 -0.049142558
-0.07736461 0.080655426 0.10226162 -0.14577371 0.14653143 0.01417797 0.15309483 0.07552498
-0.12140514 0.06935389 -0.104973316 -0.3871466 0.25339353 -0.711245 -0.3299796 0.0011624112
-0.072761595 -0.4426797 0.009985406 -0.051109318 0.24526678 -0.11083539 -0.17804568 -0.87689954
-0.2547028 0.09260084 -0.31553507 0.011710187 -0.087409705 -0.09955335 -0.0025368033 -0.628929
0.23912804 0.18067253 0.1770039 -0.07735246 -0.123525456 -0.14819627 0.12003841 -0.17840233
-0.1576457 -0.014997447 -0.831389 0.1571528 -0.34422478 0.15104692 -1.1026103 -0.51851535
0.22707838 0.018425643 -0.745767 -0.15775079 -0.39265138 -0.18992856 -0.10950186 -0.06916113
-0.63132805 -0.021697339 -0.18143924 -0.46388263 -0.5600896 -0.065188445 -0.25341702 0.062648505
0.05805566 0.18027794 0.19182922 0.16505 -0.092422806 -0.27084404 0.50396013 -0.2779685
0.093554184 0.14536238 0.67086047 -0.15465328 0.029805297 -0.07166697 -0.052095167 -0.48689863
-0.038260926 0.27988952 -0.26105848 -0.83257467 -0.6279058 -0.029972157 -0.038021542 0.3265795
-0.2286608 -0.18654546 -0.059365164 0.16777518 0.20614716 -0.064192064 -0.5845477 -0.061681703
-0.35916644 -0.5310921 -0.6254025 0.065087095 0.2816402 -0.030060558 -0.426134 -0.09665863
-0.2784858 0.05902214 -0.09285545 -0.12750383 -0.32203662 0.24791871 -1.0017824 0.3734861
-0.19761132 -0.48232362 0.671223 -0.3486596 -0.50821483 -0.072934866 -0.13297203 0.41213208
-0.55082685 -0.07192946 -0.051451597 0.039276633 -0.60803837 0.47094744 0.553495 -0.890435
-0.17592287 0.23040448 0.41873515 -0.34736246 -0.40138313 -0.2546807 -0.23317917 -0.22625525
0.16514994 -0.058010228 -0.22349966 -0.8181619 -0.07257252 0.119302906 -0.14799489 0.019361028
-0.1813415 -0.08455831 -0.052564308 0.18757808 -0.34777462 -0.3858227 0.010095256 -0.085337
00000000: ea7e fdbe d1d9 29bf eb5a fabe 9c1b e6be
00000010: 13dc b33e 2db6 0e3f 2b48 59be 8b63 403e
00000020: 4f04 3ebe aefc a13d c150 b1be 7882 4b3e
00000030: d016 1abd ddeb d2be 1d9a 6dbd af8f 1bbf
00000040: ab46 06bd 4fb1 1cbe b401 85be 42bc 1dbf
00000050: 47fe 9dbe feac dcbd 0eab 17be d63f 9c3d
00000060: 25a2 96bc 77f3 59be eefb 00bf 43d9 81be
00000070: 6a8c e33e 5af8 73bb cc35 f3bd 20cd 8cbf
00000080: 2e4d 21be 5190 b53d edc0 ccbd cf8d e3be
00000090: 352f 1abf 9840 26bf 37de 9c3d 1e50 ddbe
000000a0: bf72 58bf e1d2 9b3e 105c f2be 1d9d 77be
000000b0: 4cf0 df3e 0c54 183e 7863 92be e9d0 c23e
000000c0: 7916 07bd 8ba0 60bd ed50 193e 51e6 2dbe
000000d0: 9470 bebf 0b76 263e dbe1 edbd 2ff5 2cbf
000000e0: df9b 91be 78da c4be 3634 cebe 166e 2ebe
000000f0: 59b5 cb3e 3f10 0dbe a393 433e ef69 c9be
00000100: e27d c0bd 413f 98be 5adc b83d ccc5 8d3d
00000110: 661c afbd a5b8 06bd ff93 38bd b790 95bc
00000120: 9a54 753d 67f5 51be 29bd 7cbe c1f1 383e
00000130: e42b ebbe 966d 0bbf ab0d 12bd 08f5 0e3e
00000140: 5906 13bd da39 60be 1a30 473e 480a f93c
00000150: 60c8 233e 467c ce3e c7d2 9a3c 3d9f 59bd
00000160: 3ede ecbd 0834 c8bb 4d3d 60be 984f 84bd
00000170: 7bf2 75bd 0884 78be 72e5 80be a624 31be
00000180: 066b 38be 1e8f cb3c 7c83 87bd 43bb c23d
00000190: 08a9 31be 3102 793d 9cc1 d6bd b549 49bd
000001a0: 5671 9ebd ac2e a53d 8a6e d13d b445 15be
000001b0: 560c 163e b74a 683c e4c4 1c3e d7ac 9a3d
000001c0: 42a3 f8bd 6a09 8e3d 40fc d6bd 1438 c6be
000001d0: ccbc 813e 2714 36bf 16f3 a8be 0c5c 983a
000001e0: 0804 95bd eaa6 e2be d499 233c 0158 51bd
000001f0: 3727 7b3e aafd e2bd 9b51 36be 7d7c 60bf
00000200: 6868 82be 82a5 bd3d d08d a1be 16dc 3f3c
00000210: dc03 b3bd a0e2 cbbd 7f40 26bb 7e01 21bf
00000220: fbdd 743e 3802 393e 8340 353e f76a 9ebd
00000230: eafa fcbd c3c0 17be b3d6 f53d 1aaf 36be
00000240: e06d 21be dab7 75bc e9d5 54bf aaec 203e
00000250: 3b3e b0be 0bac 1a3e 5622 8dbf 6cbd 04bf
00000260: 3c87 683e 60f1 963c 96ea 3ebf 6c89 21be
00000270: 9a09 c9be a27c 42be 8342 e0bd 5aa4 8dbd
00000280: b79e 21bf 9ebe b1bc 35cb 39be 0682 edbe
00000290: 0862 0fbf 8581 85bd e0bf 81be dc4d 803d
000002a0: c6cb 6d3d c89a 383e e16e 443e de02 293e
000002b0: 2b48 bdbd 12ac 8abe 8803 013f e351 8ebe
000002c0: 5699 bf3d e0d9 143e 83bd 2b3f 6e5d 1ebe
000002d0: 3d2a f43c 22c6 92bd be61 55bd c74a f9be
000002e0: 7db7 1cbd ae4d 8f3e 75a9 85be 9d23 55bf
000002f0: 6fbe 20bf 2b88 f5bc 7abc 1bbd 6e35 a73e
00000300: 0f26 6abe c605 3fbe e328 73bd 42cd 2b3e
00000310: 3e18 533e 2177 83bd eba4 15bf f4a5 7cbd
00000320: aae4 b7be a7f5 07bf 611a 20bf 624c 853d
00000330: 2533 903e 8f41 f6bc 3c2e dabe f6f4 c5bd
00000340: b195 8ebe 33c1 713d 002b bebd 5d90 02be
00000350: fce1 a4be 67de 7d3e 683a 80bf 9239 bf3e
00000360: 9f5a 4abe 1ff3 f6be 45d5 2b3f 8383 b2be
00000370: 5e1a 02bf e05e 95bd d229 08be fa02 d33e
00000380: fd02 0dbf c14f 93bd e9be 52bd 89e0 203d
00000390: 67a8 1bbf 0620 f13e d9b1 0d3f 8cf3 63bf
000003a0: 2025 34be 27ef 6b3e 7464 d63e 7ed9 b1be
000003b0: 1782 cdbe 8265 82be 85c6 6ebe 75af 67be
000003c0: 111d 293e 229c 6dbd 18dd 64be 0f73 51bf
000003d0: e7a0 94bd 1555 f43d f98b 17be 059b 9e3c
000003e0: 96b1 39be e82c adbd ac4d 57bd 7814 403e
000003f0: 840f b2be 8e8a c5be 9366 253c 2ac5 aebd

fc3.weight f4 [4, 300]
0.6955461 -0.06466116 0.6138295 0.48150805 0.6477112 0.24973214 0.6770783 0.22199105
-0.44613266 -0.6547952 0.37334326 0.14622298 -0.3129015 1.1250409 -0.46538073 0.16875027
0.85294217 0.07147985 -0.7199777 0.9807503 0.6405244 0.18353868 -0.060129363 0.30737785
0.0013036793 0.554542 -0.49728537 -0.0011487257 -0.21982215 1.572946 0.93338054 -0.30222994
-0.20738277 0.34335625 0.30526617 0.3021711 0.11663612 -0.34822306 -0.39657983 -0.39824983
0.43396562 0.37995034 1.3899281 0.0029216553 -0.5474029 -0.12929386 -0.42576435 -0.1641471
0.012104008 0.2570797 -0.89081687 0.07349837 0.92615634 -0.6072736 0.06499357 0.19031209
-0.20268269 0.14297956 -0.29284078 0.011438067 -0.50554895 -0.030709207 -0.34742254 1.2680191
-0.18314873 0.08949792 0.10548408 0.022310158 0.023547163 0.61036086 0.0416047 -0.058045916
0.41960156 0.11518296 0.6843275 0.06547542 0.0038041873 0.7216752 0.7898494 0.2117948
0.26636568 -0.4410224 -0.25987875 0.34099674 0.039243706 0.21250102 -0.6959051 0.7337692
0.25351083 0.030464394 0.95244396 -0.002498543 -0.01003334 0.23274422 0.060266178 0.22670831
0.55175203 -0.46475956 0.048377506 -0.2739952 -0.2527532 -0.48446018 -0.36438125 -0.37784827
-0.4645087 -0.9603977 -0.65521044 0.19314937 -0.55455494 0.1674908 -0.26406047 0.43325236
0.13455461 -0.3395489 -0.108992584 -0.02158561 -0.19835667 0.296095 0.084129035 0.60109174
0.021784792 -0.7774394 0.35101777 0.078360215 -0.4698802 -0.25247166 -0.33883634 0.8054246
-0.26730388 0.887391 0.27906814 0.5775056 -0.0020358835 0.028573135 -0.41303438 -0.39424077
-0.41077846 -0.70721906 -0.7801385 -0.27093154 -0.29260722 0.085887365 -0.77345794 -0.03774262
-0.7544684 -0.00090833264 -0.3733492 -0.37074503 0.0050896876 -0.09089901 0.932326 -0.5597679
-0.5368481 0.6273884 -0.24009922 0.039896615 -0.035563868 0.7647145 -0.097463116 -0.084930144
1.1661581 0.012791455 0.2950699 0.8579641 0.6798613 -0.4746292 0.24223995 -1.1551689
-0.46405107 -0.20464459 -0.20841292 0.30029982 -0.059459675 0.7193612 0.96201915 1.3905818
-0.9128835 0.071251035 -0.22436152 -0.6460276 -0.14814244 0.4548907 0.41116253 0.11401533
0.008510296 -1.0253127 0.7867438 -0.55923176 -0.084826216 0.013404091 -0.28870252 -0.4553723
-0.43418583 -0.027809585 0.028079208 0.15019487 -1.0381718 0.021937197 -0.32689968 -0.20823985
0.46410304 1.5239338 -0.6968762 0.62822545 -0.93921274 0.010405249 -0.6087461 0.027202776
2.2406335 0.116467565 -0.018119715 0.10430191 0.43275395 -0.67941946 0.41193458 0.21704361
0.40118164 0.77226686 -0.5593172 0.29947525 -0.57621473 -0.010214767 0.93460745 -0.24501501
0.30953833 0.017054722 0.026390715 0.86109483 -0.12510599 0.74474585 0.7948972 0.5007945
1.0139065 0.511102 -0.29857317 -0.19431752 0.13778864 0.046460524 0.29694563 -0.35674474
-0.3973157 0.06545193 0.28130245 0.5175073 0.9960899 0.29561013 0.62069947 -0.69820863
-0.39577547 -0.7952823 -0.73455745 0.02922178 0.17474836 0.21612805 0.34931955 0.020823495
00000000: 4f0f 323f 126d 84bd ee23 1d3f 3988 f63e
00000010: 67d0 253f c8b9 7f3e 0155 2d3f 9f51 633e
00000020: 806b e4be a9a0 27bf d926 bf3e 7abb 153e
00000030: a034 a0be 5701 903f 6246 eebe dfcc 2c3e
00000040: 6b5a 5a3f 0764 923d 7550 38bf 7412 7b3f
00000050: 68f9 233f 90f1 3b3e 354a 76bd a160 9d3e
00000060: 38e0 aa3a 77f6 0d3f 309c febe d790 96ba
00000070: 0f19 61be 4b56 c93f 07f2 6e3f e2bd 9abe
00000080: 265c 54be 64cc af3e d94b 9c3e 2cb6 9a3e
00000090: ebde ee3d 4b4a b2be 830c cbbe 67e7 cbbe
000000a0: be30 de3e da88 c23e 2ae9 b13f 3e79 3f3b
000000b0: 9922 0cbf 9c65 04be c9fd d9be 2d16 28be
000000c0: e44f 463c f39f 833e 930c 64bf 5086 963d
000000d0: 9518 6d3f 4876 1bbf 591b 853d 2ce1 423e
000000e0: 0d8c 4fbe 3c69 123e 3aef 95be bb66 3b3c
000000f0: a86b 01bf e091 fbbc 5ee1 b1be 734e a23f
00000100: 578b 3bbe af4a b73d 0a08 d83d cbc3 b63c
00000110: fbe5 c03c 9c40 1c3f b169 2a3d 8ec1 6dbd
00000120: 04d6 d63e 0be5 eb3d 1630 2f3f fa17 863d
00000130: ac4f 793b b5bf 383f 9233 4a3f bce0 583e
00000140: 1561 883e b0cd e1be d40e 85be 2097 ae3e
00000150: 02be 203d de99 593e d626 32bf 4cd8 3b3f
00000160: 2ccc 813e 7790 f93c 5ed3 733f 98be 23bb
00000170: e162 24bc 8054 6e3e abd9 763d 3926 683e
00000180: 9f3f 0d3f f7f4 edbe 7e27 463d 1949 8cbe
00000190: de68 81be 2a0b f8be 2e90 babe 5475 c1be
000001a0: 16d4 edbe a0dc 75bf dfbb 27bf f3c8 453e
000001b0: 50f7 0dbf b582 2b3e ef32 87be 41d3 dd3e
000001c0: afc8 093e 5ad9 adbe 8137 dfbd 4ed4 b0bc
000001d0: 031e 4bbe c499 973e d84b ac3d 26e1 193f
000001e0: 0576 b23c 4506 47bf 9ab8 b33e 527b a03d
000001f0: 2394 f0be f743 81be f57b adbe 4e30 4e3f
00000200: 0edc 88be 0e2c 633f 05e2 8e3e 68d7 133f
00000210: 756c 05bb 3512 ea3c 3e79 d3be edd9 c9be
00000220: 8e51 d2be 4f0c 35bf 28b7 47bf 8ab7 8abe
00000230: 9dd0 95be b7e5 af3d 5701 46bf 0198 1abd
00000240: d724 41bf 2c1d 6eba a027 bfbe 4bd2 bdbe
00000250: 65c7 a63b 4329 babd ebac 6e3f f34c 0fbf
00000260: e16e 09bf 879c 203f 92dc 75be a26a 233d
00000270: 6bab 11bd 54c4 433f be9a c7bd dbef adbd
00000280: ab44 953f 4093 513c 6713 973e 89a3 5b3f
00000290: 640b 2e3f 9902 f3be c00d 783e 93dc 93bf
000002a0: 1a98 edbe 5a8e 51be 326a 55be e6c0 993e
000002b0: fd8b 73bd 0e28 383f e346 763f 96fe b13f
000002c0: bcb2 69bf 10ec 913d 07bf 65be 1162 25bf
000002d0: a7b2 17be 6fe7 e83e e583 d23e df80 e93d
000002e0: c56e 0b3c 723d 83bf 0b68 493f d029 0fbf
000002f0: 5eb9 adbd d59c 5b3c d1d0 93be 8f26 e9be
00000300: 9b4d debe edd0 e3bc 5e06 e63c afcc 193e
00000310: d0e2 84bf a3b5 b33c 655f a7be d43c 55be
00000320: ea9e ed3e 4310 c33f 7b66 32bf 62d3 203f
00000330: 3f70 70bf c77a 2a3c c9d6 1bbf 5bd8 de3c
00000340: 8a66 0f40 8c86 ee3d cc6f 94bc 3d9c d53d
00000350: ed91 dd3e 6fee 2dbf 17e9 d23e ae40 5e3e
00000360: ae67 cd3e 48b3 453f 692f 0fbf d254 993e
00000370: cf82 13bf d75b 27bc 6f42 6f3f 37e5 7abe
00000380: cf7b 9e3e 58b6 8b3c 5731 d83c b670 5c3f
00000390: c91b 00be aaa7 3e3f 627e 4b3f 1134 003f
000003a0: b0c7 813f 95d7 023f 95de 98be 2cfb 46be
000003b0: 7718 0d3e 644d 3e3d 4209 983e 3fa7 b6be
000003c0: f76c cbbe a90b 863d e006 903e 5c7b 043f
000003d0: bfff 7e3f 365a 973e 29e6 1e3f cdbd 32bf
000003e0: 15a3 cabe 9f97 4bbf f50b 3cbf 8462 ef3c
000003f0: 3cf1 323e ac50 5d3e 03da b23e 0996 aa3c

fc3.bias f4 [4]
-0.101903595 0.42496672 0.10835201 0.0360386
00000000: d5b2 d0bd 3d95 d93e a9e7 dd3d 369d 133d
